tests/mnist_cnn_state_dict.pt (torch_old, 180400 bytes, 8 tensors)

conv1.weight f4 [32, 1, 3, 3]
000000 eb df 57 3e 5f fd c5 bd 39 59 5b bd 14 9a e7 3d
       0.21081512 -0.09667467 -0.053551886 0.11308685
000010 1d 79 c1 be 3d 11 2e 3e 33 ab f6 bd 65 c1 13 3e
       -0.37787715 0.16998763 -0.120443724 0.14429243
000020 11 20 17 3d 94 2f 75 bd d7 1f af 3d 9e 0e e6 3a
       0.036895815 -0.059859827 0.08550995 0.0017551964
000030 ed 68 fd 3d ea e8 0d be bb fd 34 bd 11 c1 79 bd
       0.12373529 -0.13858381 -0.04418729 -0.060975138
000040 d6 5a 0e 3d 42 d7 ff bb d2 98 90 3e 19 70 e6 3d
       0.034754597 -0.007807643 0.28241593 0.1125185
000050 25 e7 e6 bd 30 76 44 be 4b 52 16 be ef b2 6f be
       -0.11274556 -0.1918571 -0.1467983 -0.23408101
000060 33 88 49 bd a7 20 04 3d 50 5a 3b 3e b4 47 4c 3e
       -0.049202155 0.032257702 0.1829617 0.19949228
000070 56 5a 92 be f0 77 87 3e 7c 26 85 3d ba 2d a9 3e
       -0.28584546 0.26458693 0.06501481 0.330427
000080 e2 23 68 3e 6a a3 f3 be e4 49 d6 be 21 51 ab be
       0.22669938 -0.47585613 -0.4185325 -0.33460334
000090 18 d8 8f 3e 42 00 ad bd 42 ba 45 3d e6 97 c9 bd
       0.28094554 -0.08447315 0.048273332 -0.098434255
0000a0 c5 81 97 3e 10 00 93 be d9 2e 67 3e 5f c5 14 bd
       0.29591194 -0.28710985 0.22576465 -0.03632104
0000b0 4b ee b0 be 47 3b fc 3d 42 8e 3f be 08 76 19 3d
       -0.34556803 0.12315994 -0.18706611 0.03746608
0000c0 d8 e8 ec bd 02 3f f1 bc 77 73 7e be 6c c2 0e be
       -0.11567849 -0.02944899 -0.24848734 -0.13941354
0000d0 b7 0a 2d 3e 46 f0 c3 bd 9a f0 1c 3e 95 e2 29 3e
       0.16898619 -0.09567313 0.15326157 0.1659034
0000e0 33 f0 8c bd a7 6b d4 be 65 4f e8 3d d8 e1 b8 3d
       -0.06881752 -0.41488382 0.11343268 0.09027451
0000f0 7a 60 97 be 11 1a 30 3e 23 4e 52 3e 73 4a aa 3e
       -0.29565793 0.17197444 0.2053762 0.33259925
000100 34 1f 34 be 4f 0f e4 bd 02 6b b8 3d 27 1e e2 3d
       -0.17590028 -0.111357324 0.09004785 0.11040907
000110 9c f0 8c be 01 ef 34 be 74 4c 8b 3e a9 5d 5c bd
       -0.2752732 -0.17669298 0.27206767 -0.05380026
000120 50 20 03 3e 84 d7 cb 3b 63 2d 1d 3e 91 42 f9 3c
       0.12805295 0.00622076 0.15349345 0.03042725
000130 e0 08 bd 3d d0 33 2b 3e 5c 20 e8 be 21 04 88 3d
       0.092302084 0.16718984 -0.45337188 0.066414125
000140 63 a5 83 be 91 49 86 be cd fc ca 3b 01 48 70 bd
       -0.25712118 -0.26228002 0.006194687 -0.05866242
000150 f2 9f 63 3e ee 73 36 be 1a bf a5 be 58 c5 87 3e
       0.22228983 -0.17817661 -0.3237236 0.2651775
000160 5b a5 97 bc 9c 43 4c 3e 41 0a 67 3e 9e c5 50 be
       -0.018511465 0.19947666 0.22562505 -0.20387885
000170 bf 6b 9a 3d 61 bf 4e 3e 98 a0 3a be d2 9e 1d be
       0.07540082 0.20190193 -0.18225324 -0.15392616
000180 59 80 f8 3d d2 6c 93 3c 1b ec 31 be 4e 0a 14 be
       0.121338554 0.017996226 -0.17375223 -0.14457056
000190 58 61 8e 3e 2a 8d 07 be 03 fa 2c 3e 75 55 fa 3d
       0.27808642 -0.13237444 0.16892247 0.12223331
0001a0 ae c4 92 be fe c8 9d be c7 18 9f 3e 88 30 00 3c
       -0.2866568 -0.30817407 0.3107359 0.007824071
0001b0 56 fa 2f 3e 4c 13 7b 3c 35 06 43 3d cb cf 25 3e
       0.1718534 0.015324425 0.04761334 0.16192548
0001c0 72 b3 4d 3e 25 31 b8 be 7d e7 47 bd 12 09 1a 3e
       0.20087984 -0.35974994 -0.04880475 0.15042523
0001d0 77 be d4 3d 9b 5e 6e 3e 7e 77 8d be eb a1 6b be
       0.10387891 0.23278277 -0.27630228 -0.23010986
0001e0 22 ae 29 be 74 bb af 3d 4d 00 bf 3e ee 6e 7f bd
       -0.16570333 0.08580676 0.37304917 -0.06236165
0001f0 be 8c 73 3e d0 0f 3f be e8 4c e3 be 83 cc 4d be
       0.23784158 -0.18658376 -0.44394612 -0.20097546
000200 fe 55 f3 3d 6c 82 6e 3e c0 68 84 be 62 9d 40 3d
       0.11881636 0.2329194 -0.25861168 0.047025092
000210 5f 01 77 3e d6 4c 39 3e 56 72 0d 3e 06 45 88 3e
       0.24121617 0.18095717 0.13813147 0.2661516
000220 8f 9c 80 3e 23 94 02 3e fb 4b 8a be 4d 66 4d be
       0.25119445 0.12751822 -0.27011093 -0.20058556
000230 d4 d2 55 be 23 76 ad bd fd 98 51 be ae 1b f3 3c
       -0.20881206 -0.084697984 -0.20468517 0.029676285
000240 43 2c dd bc 2a 13 0e be 5d 04 ea 3d b0 22 bd 3b
       -0.026998645 -0.13874498 0.114266135 0.0057719573
000250 a1 a6 d9 3d d8 73 6a 3e 64 df 04 be 6f 9e 90 3e
       0.10627485 0.22895753 -0.12975842 0.28245875
000260 5f 5b 52 bd 76 ac 56 3c 34 74 9a be 5e cb 2c be
       -0.05135667 0.013102641 -0.3016678 -0.16874453
000270 45 fe 22 be 83 e5 fe bd c6 5a 99 3e 88 ba 3a be
       -0.15917309 -0.1244612 0.29952067 -0.18235219
000280 e3 5e 45 be b0 f4 39 3e 4d 66 1d 3e 06 99 89 3e
       -0.19274478 0.18159747 0.15371056 0.2687456
000290 68 3d 38 be b9 c8 f4 3d 84 99 81 bd fc d3 72 be
       -0.17992175 0.11952347 -0.06328109 -0.23713678
0002a0 52 14 a8 be 7f f8 3f be d2 f2 ee bd 41 7e 98 3c
       -0.32828003 -0.18747137 -0.11667408 0.01861489
0002b0 92 57 8d bd 67 3e cb bb 56 7b 6a 3e 90 63 51 3e
       -0.06901468 -0.0062025073 0.22898611 0.20448136
0002c0 f7 5e 0b 3e 38 b3 a1 bd 41 e6 99 be bb 75 34 3e
       0.13610445 -0.078955114 -0.30058482 0.17623036
0002d0 f6 85 76 bd 17 40 a4 bd 3f 1f 9e be 15 16 51 bd
       -0.06018635 -0.08020037 -0.30883214 -0.05104645
0002e0 f7 dc 89 be ca 0d ba 3e ca 87 98 be 46 58 50 be
       -0.26926395 0.36338645 -0.297911 -0.20346174
0002f0 c4 1d 30 3c 62 c7 c4 bd 72 a5 f8 3d 08 46 21 be
       0.010749284 -0.09608342 0.12140931 -0.15749371
000300 f0 58 5a be 0d 08 e8 bc 61 80 57 3e 5e fb 29 be
       -0.2132299 -0.028324151 0.21045066 -0.16599795
000310 25 ee 04 3e fa d7 56 3e e2 9d 97 3e 19 d4 94 be
       0.1298147 0.20980826 0.29612643 -0.29068068
000320 63 c0 7e bc 9b 3b 70 be 3a 2f 97 3e db ae 08 be
       -0.015548798 -0.23460238 0.29528219 -0.13347952
000330 c8 49 30 3e ac 66 aa 3a b8 ee 6a bd 51 77 03 bd
       0.17215645 0.0013000569 -0.057356566 -0.03209621
000340 b4 e0 ab 3c 16 14 f2 3d ee 43 8b 3b 40 02 ac 3c
       0.02098117 0.11820237 0.004250041 0.020997167
000350 b5 c2 dd be 95 ed 2b 3e 6b b3 3f 3e ed dc 25 3e
       -0.43312612 0.16789849 0.18720786 0.16197558
000360 63 ef 9e 3e fe 1d 58 be 20 50 f4 bd 18 5f a0 3e
       0.31042013 -0.21105191 -0.11929345 0.3132255
000370 04 0a a4 be df 21 9b 3e 9e 47 84 be 57 e2 59 be
       -0.3203889 0.3029928 -0.2583589 -0.21277748
000380 b5 ba 4c 3e 89 2f 9e be 85 05 0e be 46 f7 84 3e
       0.19993098 -0.3089564 -0.13869293 0.25969905
000390 d5 f1 5d 3e 16 ec 89 3e 61 42 99 bc 4d 0a 96 be
       0.21674283 0.26937932 -0.01870841 -0.29304734
0003a0 f5 0c 58 3e e4 d6 43 be 92 54 c9 bd 8a 8c b3 3d
       0.21098693 -0.19124943 -0.09830584 0.0876704
0003b0 3b 98 a4 be 2b dd 5b 3e 34 05 6d 3e aa 10 90 be
       -0.32147393 0.21471088 0.23146516 -0.28137714
0003c0 16 d8 8f be 82 d9 40 3d 4f 92 3e 3e 59 c1 e9 bc
       -0.28094548 0.04708243 0.186105 -0.028534578
0003d0 76 67 38 be 3d ff b7 3b a0 61 95 be eb 4a 84 be
       -0.18008217 0.0056151436 -0.29176044 -0.25838408
0003e0 02 a5 a2 be 7b 04 ad 3e ce 89 ac 3e fa 7c a6 bd
       -0.31766516 0.3379248 0.33698887 -0.08129306
0003f0 ab 2c 1f bd ce b0 dd 3d a4 e4 58 b9 e2 40 b4 be
       -0.038860958 0.108247384 -0.0002068454 -0.35205752

conv1.bias f4 [32]
000000 bf cc 0b be 97 28 45 bd 21 d4 f2 bd 7e 52 3c be
       -0.13652323 -0.048134413 -0.11856867 -0.18390843
000010 2f 2f 79 3c 62 5c 13 3d ab a5 f1 bd dd 67 50 be
       0.015209003 0.035976775 -0.11799177 -0.2035212
000020 e4 2c 18 be 44 ab 25 bd e9 6f 49 be b3 09 7c be
       -0.14860874 -0.040446535 -0.19671597 -0.24613075
000030 5f 29 3f be ff ec d8 bd ad 24 99 3c 8f 03 d3 bd
       -0.18668126 -0.105920784 0.018694246 -0.10303413
000040 82 1f 1f be c5 9b 3a be f3 39 90 be 3f 21 f9 3d
       -0.15539363 -0.18223484 -0.28169212 0.12164544
000050 fe fa 6c 3d 45 98 14 3e e9 8e 0c be de 7d 0d be
       0.057856552 0.14511211 -0.13726391 -0.13817546
000060 a5 cf 9e be 27 3a 4c be 82 48 bd 3d d4 8a 80 be
       -0.31017795 -0.19944058 0.092423454 -0.25105917
000070 75 21 2b be 68 85 c0 3c 01 48 f7 3d 5c f4 25 bd
       -0.16711982 0.023501113 0.120742805 -0.040516242

conv2.weight f4 [32, 32, 3, 3]
000000 cd 43 8a bc 34 eb 39 bc 21 5a 80 bc 64 aa d2 bc
       -0.016878033 -0.011347581 -0.015667977 -0.025716014
000010 12 59 a2 3c 8f 33 c2 bc a4 30 13 bd ee cf 20 3c
       0.019817863 -0.023706226 -0.03593506 0.009815199
000020 ec b8 39 bd 17 41 74 bc f5 2b e4 3c aa 38 a4 3c
       -0.04534237 -0.014908097 0.027852992 0.02004655
000030 94 9a 44 3d b4 95 2d bd 52 f6 f0 ba 83 e3 9e bc
       0.04799898 -0.042379096 -0.0018383956 -0.019395595
000040 e0 2c 0f bd 12 19 12 bd 86 47 31 3c 38 ce 1e 3b
       -0.034954906 -0.03566844 0.010820275 0.0024231803
000050 b7 de f9 bc 0f f3 35 bd 35 d9 52 bd 98 1b 62 3d
       -0.030501707 -0.044421252 -0.051476676 0.055202097
000060 81 9a 59 bc 24 97 89 bc 96 76 d0 bc c6 60 04 bd
       -0.0132814655 -0.016795702 -0.025447171 -0.032318853
000070 e3 4e 65 bd 74 46 15 bd 8e bb fc 3c 6a 66 10 3c
       -0.055983435 -0.036444142 0.030851152 0.00881348
000080 b2 44 d6 bc 14 52 ee bc 1b 31 f4 3c c0 05 0e 3d
       -0.026155803 -0.029091872 0.029808572 0.034673452
000090 36 f0 56 3d 4c c5 56 3c 15 f2 d2 3c fa 9b 01 bc
       0.052475177 0.013108563 0.0257502 -0.007910723
0000a0 2d d6 1b bd 0e 41 81 bd 3a cd f8 3c 9a 17 77 bc
       -0.03804605 -0.06311236 0.030371297 -0.015081311
0000b0 3f b8 88 3c 33 3a 2b ba 3b a4 6c bd a0 08 02 bd
       0.016689418 -0.00065318047 -0.05777381 -0.031746507
0000c0 79 c6 52 3c 6b a1 78 bc fc 0f 74 bd b2 09 81 3c
       0.012864702 -0.015175204 -0.059585556 0.015751693
0000d0 6c 95 2f bb 20 d7 c0 bc f9 e5 86 3c 25 31 9c 3b
       -0.0026791943 -0.02354008 0.016467081 0.0047666007
0000e0 88 8c eb bc b4 07 48 3d 12 48 b2 3c 59 38 ba 39
       -0.028753534 0.04883547 0.021762881 0.00035518667
0000f0 38 0d 87 bc 41 cb 68 bd 7f c7 1e 3d ee 37 91 bc
       -0.016485795 -0.056834463 0.038764473 -0.017726865
000100 ec 70 2c bd 8a c3 13 3d 9a 10 9b 3c 1c 10 3d 3c
       -0.04209988 0.036075152 0.018928815 0.011539485
000110 20 da 65 bc 5b fb a3 bc 5f 82 fe 3b 37 00 2e 3d
       -0.014029056 -0.020017317 0.0077670063 0.042480674
000120 c7 a3 8b 3b 19 1d 05 bd 2e 92 5f 3d cf 23 68 bb
       0.004261467 -0.032498453 0.054582767 -0.0035421734
000130 58 fc 2a 3d 63 55 0b 3c bf 90 3e 3d 32 fe de 3c
       0.04174456 0.0085042445 0.04652476 0.02722082
000140 97 39 1c bd 88 9e 15 3d 1d 94 ad bb 0d 9c 5a bd
       -0.03814086 0.03652814 -0.0052971975 -0.053371478
000150 2b 75 64 bc 16 f6 60 bd 4c ad 04 bd 01 f5 2b bd
       -0.013943951 -0.054922186 -0.03239183 -0.0419817
000160 4d b6 2a 3d 4b d3 2b bc dd 25 3b bc 4b c7 cd 3c
       0.04167776 -0.010487388 -0.0114226015 0.025119444
000170 e3 99 a9 3c fe 26 23 bd 3e bf 98 3c 12 cf b5 3c
       0.020703262 -0.039832108 0.018645879 0.022193465
000180 dc 68 4d bd 8d 2d 45 3d cd 03 1e bd f7 e2 df bc
       -0.05014883 0.048139144 -0.038577843 -0.027329905
000190 a3 c6 53 bd 3e c8 57 3d 12 31 e1 3b a9 a1 38 3d
       -0.051703107 0.0526812 0.0068723047 0.045076046
0001a0 62 ee 97 3a e8 11 ee 3c b6 c9 b9 bc eb 57 50 bd
       0.0011591429 0.029061273 -0.022679191 -0.050865095
0001b0 c0 c5 d7 3b 06 bc 2e bc 81 f2 2e bc 1b 8b 05 bd
       0.006584853 -0.0106649455 -0.010677935 -0.032603364
0001c0 21 5d 7a bb 87 f5 15 3c 51 2b 89 3c d2 76 55 bd
       -0.0038202482 0.009152777 0.016744288 -0.05211527
0001d0 e8 61 a4 3c 92 14 eb 3a 27 43 0f 3d eb 2e 19 3d
       0.020066217 0.0017935208 0.03497615 0.03739826
0001e0 cb 62 48 bd 8a f0 5c 3d 7a 47 77 bd 0c b1 02 3d
       -0.04892234 0.053940333 -0.0603709 0.031907126
0001f0 88 89 f3 3a 67 85 d6 3c 29 d5 1b bd 32 ec f0 3c
       0.0018580416 0.026186658 -0.038045082 0.029409502
000200 88 36 26 bd 69 75 6f bd 3b 69 72 3c 08 01 d3 3c
       -0.04057935 -0.05846158 0.014795597 0.025757328
000210 07 4d 68 3d 20 35 d9 bb c0 57 69 3d 57 95 19 3d
       0.056714084 -0.0066286474 0.05696845 0.037495937
000220 18 e0 ed bc 8d 0b 34 bd 98 21 f7 3c 53 0f 10 bd
       -0.02903752 -0.04395633 0.030167386 -0.035170864
000230 45 ff d1 3c 07 f5 60 bd c3 99 1a 3d ca 79 35 3c
       0.025634417 -0.054921176 0.037744295 0.0110764
000240 19 b8 2b bc 8c e8 ac 3c 2f d2 46 bd 97 b0 9e bc
       -0.010480904 0.02110698 -0.04854029 -0.019371314
000250 ef ba ff bb 2d b3 39 bd 0a 6a ab bc b0 cc 00 bd
       -0.0078042666 -0.04533689 -0.020924587 -0.031445205
000260 13 17 49 3d 2d c4 36 3d 2e d1 3e 3d dd 62 37 3d
       0.04909427 0.04462068 0.046586208 0.044772018
000270 c7 99 7a bd 7d d5 85 3c 51 a0 9f 3c 8a 8a 3b bd
       -0.06118181 0.01633715 0.019485625 -0.045786418
000280 8a 66 b1 3c f5 c0 0b bd b2 8d f9 3b 26 3c 99 3c
       0.02165534 -0.034119565 0.0076157684 0.018705439
000290 93 37 54 3d bb 07 04 bd f7 55 44 bd 2b 6b 5f 3d
       0.051810812 -0.032233935 -0.047933545 0.054545563
0002a0 cd 0d b7 3c be 45 d8 3c 28 a8 8c 3c 37 e0 c5 bc
       0.022345448 0.026400443 0.017170027 -0.024154766
0002b0 3f 61 01 3d 5d 0f 65 bd b6 cd 1e 3b b1 bb 99 3c
       0.03158688 -0.055922855 0.00242315 0.018766256
0002c0 61 58 f3 3c 23 cd 0c bd 94 ef 41 bd 20 b7 34 3c
       0.029705228 -0.03437532 -0.04734762 0.0110299885
0002d0 c8 1a 53 bd ad 01 5c bd 50 3e 6a bd 4f c9 07 bd
       -0.051539212 -0.053712536 -0.057188332 -0.033150967
0002e0 1a f8 80 bc b7 3d 18 bd bb 04 f3 bc 86 de 68 bd
       -0.015743304 -0.03716823 -0.029665342 -0.05685284
0002f0 d9 ca 03 3d 40 c2 c2 bc ce 50 3f bd 66 d6 bd 3b
       0.032175872 -0.023774266 -0.04670792 0.0057933806
000300 fe 86 50 bd 50 35 08 3d 6c bc d7 3c 93 ef 7e bd
       -0.05090999 0.033253968 0.026334964 -0.062240195
000310 17 de 52 bd e1 d5 2e bd f8 4f 16 bd 7a 3f c3 3a
       -0.051481333 -0.04268444 -0.036697358 0.0014896237
000320 90 6d 81 bd 33 d8 3d bd 50 60 be 3c 27 21 ba bc
       -0.063197255 -0.04634876 0.023239285 -0.022720886
000330 54 11 d3 bc 3a 46 54 bd 77 3e a8 3c 8d bc 20 ba
       -0.025765099 -0.051824786 0.020537598 -0.0006131612
000340 63 5b f0 bc 54 c3 32 bd 6e af 0b 3c ac 52 34 3c
       -0.029340452 -0.04364331 0.008525712 0.011006039
000350 e8 7e a4 3c 1b c1 7b 3c 9f 7f 2c bc 15 cc 3e bd
       0.020080045 0.015365864 -0.010528474 -0.046581347
000360 74 b4 fc 3c b4 2c 13 bc 7b d8 35 bd a9 8b 34 3d
       0.030847766 -0.008982826 -0.044395905 0.044078503
000370 d4 57 c7 3c 4c 75 53 bd d8 0b 07 bd 85 dc ca bc
       0.024333872 -0.051625535 -0.03297028 -0.024763355
000380 13 e1 1e bd eb 0b b9 3c e0 6d 44 bd 98 77 49 3d
       -0.038788866 0.02258869 -0.047956347 0.04918632
000390 27 5d 02 bd 46 4a de 3c f6 b4 e1 bb 91 56 00 bd
       -0.03182712 0.027135026 -0.0068880273 -0.031332556
0003a0 28 e4 0c 3d ba 52 50 bd a6 93 18 bd d3 08 df 3a
       0.034397274 -0.050860144 -0.037250184 0.001701618
0003b0 0b c9 32 3d 4b 63 f0 bc 8f 86 25 bd 0d 9b 22 bd
       0.04364876 -0.029344222 -0.04041153 -0.03969865
0003c0 8a 29 e7 bc fb 28 bd bc 64 7a 87 bc 98 6b 0b bd
       -0.02821805 -0.02309083 -0.016537853 -0.034038156
0003d0 cd e9 93 3c 38 6a 1d ba 4b 6e 1b bd b8 77 0a bd
       0.01805582 -0.00060049025 -0.03794698 -0.03380558
0003e0 4c 0f 4c 3c 54 d4 04 3b 06 03 34 3d cd 58 bf bb
       0.012454819 0.002026816 0.043948196 -0.0058394433
0003f0 3e c7 64 bd fb d4 4d bd 86 e9 d0 bc d7 18 98 bc
       -0.055854075 -0.050251942 -0.025501978 -0.018566532

conv2.bias f4 [32]
000000 e3 d7 cf 3c a6 83 a5 bc 47 f1 31 bd 34 32 be ba
       0.025371497 -0.020204376 -0.04344299 -0.0014510811
000010 5b 8c 1f 3d ba a3 e2 bc c7 f3 06 3d cd 81 cf bc
       0.038952213 -0.027665962 0.032947328 -0.025330449
000020 df 63 87 3a e9 b3 f1 3c 44 3a 8f 3c ca d2 0a 3d
       0.0010329447 0.029504733 0.017483838 0.03389243
000030 9e ef 03 3d c3 23 6b 3b e7 8e c8 3c d0 b3 3b 3d
       0.03221094 0.003587947 0.024482204 0.04582578
000040 cf a5 3f bc 1a a1 b4 3c d7 60 5d 3d fd 5d 46 bd
       -0.011697247 0.022049475 0.05404743 -0.048429478
000050 3f f5 3e bd 00 f4 c8 3c 02 f5 c8 3c 6d 50 02 bd
       -0.046620604 0.02453041 0.024530891 -0.03181498
000060 a8 ae d7 3a f6 c3 2e bd 9f 43 3e bd fb 94 31 bd
       0.001645525 -0.04266735 -0.046451207 -0.04335497
000070 78 c9 f4 3b a3 78 c6 3c e6 97 b8 3c 65 84 bb ba
       0.007470306 0.024227446 0.022533368 -0.0014306424

conv3.weight f4 [32, 32, 3, 3]
000000 8a b3 79 3c 40 c6 d3 bc 77 e1 d7 3c ae b0 0e 3d
       0.015240559 -0.025851369 0.026352627 0.034836464
000010 3e 92 bc 3c ef 4a 0e 3c 7c fe 73 bd 62 d0 b2 b9
       0.023018952 0.008684858 -0.059568867 -0.00034106063
000020 9c 4f 3a bd 3d d3 44 3d 33 c9 05 3d 07 8c 06 bc
       -0.045486078 0.048053015 0.03266258 -0.008212096
000030 77 9c f8 3c d4 6a 52 bd 02 ce 70 bd 59 61 22 bd
       0.030348046 -0.05137141 -0.058790214 -0.03964362
000040 8a a4 bd 3c 58 13 e4 3c 35 6f 9d bc 39 bf ff bb
       0.023149747 0.027841255 -0.019218067 -0.007804778
000050 da a7 8d 3c 97 b7 ae 3b 16 7f 38 3c e3 55 3a 3d
       0.017291952 0.005331944 0.011260768 0.045492064
000060 82 07 05 bd da 29 76 bd 2c 88 ec 3c 6b 33 4a 3d
       -0.032477863 -0.060098507 0.028873526 0.049365442
000070 df 67 37 3d 0d 9f ed bc 58 71 ee bc 9d ab 97 bc
       0.044776794 -0.029006505 -0.02910678 -0.018514449
000080 40 fe 47 bd 2c ca 43 bd 95 77 0c bc 08 43 97 bc
       -0.048826456 -0.047800228 -0.008573432 -0.01846458
000090 19 01 e1 bc 0c e8 4f bc 5b 61 29 bd 73 14 9e bc
       -0.027466344 -0.012689602 -0.04135261 -0.01929686
0000a0 ee 12 46 bd 99 80 96 bd 55 4c 8d 3d 28 20 1a 3a
       -0.048357897 -0.07348747 0.06899325 0.00058794254
0000b0 32 a5 f3 3b 49 63 45 3d d0 65 9c 3c 38 3f a7 bb
       0.0074354643 0.04819039 0.019091517 -0.005103972
0000c0 18 6d dc 3c 7e 17 b8 3c d8 1a 0c 3c db c4 5d bd
       0.026907489 0.02247214 0.008551322 -0.054142814
0000d0 f8 de fd 3c 13 2f 02 bd 10 fc 0c bd b2 28 4f bd
       0.030990109 -0.031783175 -0.034420073 -0.05057592
0000e0 4d a5 5d bb ff 4c 9c 3c 51 ee 95 bc 14 23 80 3d
       -0.003382045 0.019079683 -0.018302115 0.062566906
0000f0 1c f9 51 3c 8c cf 43 3c e4 b7 af 3d 67 10 db 3d
       0.01281574 0.0119513385 0.08579996 0.10696488
000100 7c a6 5c bc d2 73 fc bc 1b 34 73 bd 29 3e f2 bc
       -0.013467427 -0.030816946 -0.059375864 -0.029570656
000110 1d 65 a0 bd 0d 77 1c be cc 3b 21 be f7 8f a7 bd
       -0.07831786 -0.1527979 -0.15745467 -0.08181756
000120 93 f4 2d bd 3a 87 09 3c 54 19 85 bd cf 17 df bb
       -0.042469572 0.008394057 -0.064989716 -0.006808258
000130 2f bc 9b 3c f9 5a 24 3d 20 c3 56 3c 72 4c 3c bd
       0.019010631 0.04012582 0.013108045 -0.04597134
000140 ca 3f 5a 3d 60 80 40 3d 94 f2 03 3d 4a ba f0 bc
       0.05328349 0.046997428 0.032213762 -0.029385705
000150 8c 51 be bc 20 29 fd 3c 41 e4 3d bc b7 aa 54 bd
       -0.023232244 0.030903399 -0.0115900645 -0.05192062
000160 e2 2e ca ba 92 7c af bb f2 8e 5f 3d 99 cb 58 3d
       -0.0015425349 -0.005355426 0.054579683 0.05292854
000170 7e 8a 0c bd ca 27 3c bd 3a 43 03 bc 82 aa 28 bd
       -0.034311764 -0.045936383 -0.0080116335 -0.041178234
000180 c3 40 b9 bc d0 56 3d bd 11 9d 80 3c eb ea 33 bd
       -0.022613889 -0.04622537 0.015699895 -0.043925207
000190 a6 f4 7a bd 04 0f 48 bd af a4 7c 3d 10 82 78 3d
       -0.06126847 -0.048842445 0.061680492 0.060670912
0001a0 ce 64 ee 3c 65 b2 cf 3d b0 4d e1 3c 27 65 b7 3d
       0.029100802 0.10141448 0.027502865 0.0895484
0001b0 9a ec 3e bd 08 93 4c bd e7 dd 4b bc a7 25 aa bc
       -0.04661236 -0.049944907 -0.012443042 -0.020769907
0001c0 40 4c da bc c6 7a 8c 3c 9f b1 c0 3d 5a 84 22 3d
       -0.026647687 0.017148387 0.094088785 0.039677
0001d0 66 64 7e bb 37 e2 b2 bb eb 9f 2a bd 0b 73 a4 bc
       -0.0038817166 -0.005459096 -0.041656416 -0.020074388
0001e0 c1 fb 65 bd d9 c2 85 bc 2a a6 f0 3c 61 67 5f 3d
       -0.056148294 -0.016328262 0.029376108 0.05454195
0001f0 2b d6 4b 3b 9b d3 1e 3c b4 a1 65 bc 9a 2a 75 bd
       0.0031102996 0.009694005 -0.014015604 -0.05985508
000200 99 05 21 3d 61 e6 2f bc 95 4e 46 bd e1 62 f9 bc
       0.03931198 -0.010736079 -0.048414785 -0.030442657
000210 15 c5 c3 bc b0 57 03 bc c1 b2 fd 3a 56 4d 10 bc
       -0.023897687 -0.008016512 0.0019355641 -0.008807501
000220 03 8e a9 3d c2 c5 82 3b d5 85 e9 bd c3 b3 f4 bd
       0.0827904 0.0039908597 -0.114024796 -0.11948349
000230 0a f0 67 bc 8c 67 05 bd 18 95 54 3c 3a 5a 3e bd
       -0.014156351 -0.032569453 0.012975 -0.046472766
000240 39 5a c4 bb 87 d0 d1 3c b3 6e 54 3b 8c 02 8e bd
       -0.0059922007 0.025612129 0.0032414615 -0.069340795
000250 d3 82 35 bd 45 db b0 bd 93 af 57 3d 75 38 15 3d
       -0.044314217 -0.08635572 0.052657675 0.036430795
000260 20 3b 97 bc 80 53 69 bc 75 51 29 bb 44 38 75 3d
       -0.01846081 -0.014241099 -0.0025835906 0.059868112
000270 d2 97 a8 3c cc ea 57 bd 1e e0 00 bc 38 ad 3a bc
       0.020580206 -0.052714154 -0.007865934 -0.011393838
000280 2d 55 df 3c f4 10 46 bd 16 25 a4 bb a0 76 33 bb
       0.027262295 -0.04835601 -0.005009304 -0.0027383938
000290 3f ba 21 bd b3 6c 3a 3d 13 02 00 3d cd 91 83 bd
       -0.03948426 0.04551382 0.031251978 -0.06424294
0002a0 48 65 3f 3d 7e 74 68 bc 5e 0b 01 be 36 dd d8 bc
       0.04672745 -0.01418793 -0.12601992 -0.02647267
0002b0 c0 b9 31 bd 85 af 1c bc a6 32 2c 3d fd 39 8b 3d
       -0.043390036 -0.0095633315 0.04204049 0.0679817
0002c0 44 2d 4e 3d 77 18 85 3d b9 f7 c2 3d e0 4b b7 3d
       0.050336137 0.06498807 0.095199056 0.08950019
0002d0 e8 6b d4 bd f2 3d af bd db 43 51 bd 96 71 c4 3c
       -0.10372144 -0.08556737 -0.051090103 0.023979943
0002e0 4d 5f 4e 3c 7a 62 3a bd 23 08 9f bc 90 37 56 3d
       0.012595964 -0.04550407 -0.01941306 0.052299082
0002f0 5e 3d 0b 3d 70 f4 0b bd 02 ec 14 3d 01 5f 37 bd
       0.03399407 -0.03416866 0.036357887 -0.044768337
000300 f5 15 e7 3b 00 06 10 3c 86 26 61 3d 86 ab 94 bd
       0.007052178 0.008790493 0.05496838 -0.07259278
000310 2e c3 cb bd f9 2c 53 3d ee 3d cd bc 27 68 9c bd
       -0.09949337 0.05155656 -0.025053944 -0.07637053
000320 a2 c4 3a bd 1b 38 fe 3c c3 dd 81 bd 7a ae 4b bc
       -0.04559768 0.031032613 -0.06341126 -0.012431735
000330 3f 65 9c bd b0 a3 1e bd ab 98 38 bd 48 a0 50 bb
       -0.07636499 -0.038730323 -0.04506747 -0.0031833816
000340 7c 71 b5 bc ca 8f 8a bd a8 39 95 3a 36 15 b0 3c
       -0.02214884 -0.06765707 0.0011384981 0.02149449
000350 e3 01 3a bd 3d 6a 2d bb 60 2d 4f bd 47 5a 0e bb
       -0.045411956 -0.0026461028 -0.050580382 -0.002172129
000360 4b 06 78 bc 93 de ef 3c 9f d5 0d 3d 83 45 57 3d
       -0.015138219 0.029280936 0.034627553 0.052556526
000370 13 83 25 3c 3b 2b 61 bd d2 1b 2e 3d c3 26 a6 bc
       0.010102051 -0.05497287 0.042507 -0.020282155
000380 ae 46 a0 ba 6a be 0e bc 32 e8 ac 3c c4 97 f7 3b
       -0.0012228095 -0.00871239 0.021106813 0.0075559337
000390 36 b7 62 bc 5f e4 35 bd 0e 95 57 bd c7 cb a1 bd
       -0.013837626 -0.044407245 -0.052632384 -0.079001956
0003a0 3b 0c 22 be d4 22 51 be f4 ca 3d bd 3d 9f 84 bc
       -0.15824978 -0.20423442 -0.04633613 -0.016189212
0003b0 eb b5 f5 bc f3 79 3e 3d 12 07 c3 bc 6c c4 cf bc
       -0.029993972 0.04650302 -0.023807082 -0.025362216
0003c0 f5 f9 1c bd 50 98 06 bd f1 b9 0b 3d 22 d3 69 3d
       -0.038324315 -0.0328601 0.034112874 0.057086118
0003d0 fc c6 5e 3d 2f 42 10 bd 2e a1 76 bc 1f e4 34 bd
       0.054388985 -0.035219368 -0.015053077 -0.044162866
0003e0 cf 1c 0e 3d 11 1b 42 3d 09 62 52 bd a6 48 2a 3d
       0.034695443 0.047389094 -0.051363025 0.04157319
0003f0 3c 18 19 3d fc b2 bd ba b7 9f d3 3c 62 38 6a bd
       0.037376627 -0.0014472897 0.025832994 -0.057182677

conv3.bias f4 [32]
000000 94 b3 88 3b 38 03 02 3d 02 1f 79 3c 4c 55 21 bd
       0.004171798 0.03174135 0.015205147 -0.039387986
000010 61 8b 1b bd 69 fb 5a bd b1 02 f9 bc 1c 04 9b bc
       -0.03797472 -0.05346242 -0.030396791 -0.018922858
000020 f3 8c 1c 3d 90 0b 73 bd e7 c0 c5 bd b1 e6 2a 3c
       0.038220357 -0.0593372 -0.09655934 0.010430978
000030 88 c3 0a 3d b4 23 49 3b d9 34 80 bc dd c9 2c bd
       0.03387788 0.0030691447 -0.0156502 -0.0421847
000040 c9 68 b8 bc 87 8c 03 bd eb 39 97 3c 1a b3 7c 3c
       -0.022510903 -0.03211644 0.018460235 0.0154235605
000050 56 53 76 bc 1a 24 14 bd 2b ad 22 bd 54 58 fd bc
       -0.015034517 -0.03616724 -0.039715927 -0.030925907
000060 0e 0c e9 3d 34 80 48 3d e2 25 56 3c 15 fb 08 3d
       0.113792524 0.04895039 0.013070555 0.033442575
000070 1e f2 32 3d a9 1f ca 3c 44 54 04 bd b2 c1 e1 3b
       0.043687932 0.0246733 -0.032306924 0.0068895454

fc1.weight f4 [10, 2592]
000000 68 0c 09 bb f0 8e b4 bc b6 99 16 bd 5a 7a d9 bc
       -0.0020911936 -0.022040814 -0.036767684 -0.0265476
000010 e9 a2 b2 3c 1f d7 bb 38 e5 66 9c 3b 0a cf b4 bc
       0.021806197 8.956924e-05 0.004773008 -0.02207138
000020 68 d8 47 bb 69 3d b9 bc 8b f6 2f bd aa 27 2b bd
       -0.0030493978 -0.02261229 -0.04295973 -0.041785873
000030 66 cd 15 bd 8f 12 07 3c 70 23 34 3c 1b 3f 4c bc
       -0.036572836 0.008244171 0.010994777 -0.012466217
000040 c5 f9 45 3c a6 fb 12 bd a8 6b 2b bd 4b dd 6f bd
       0.0120834755 -0.035884522 -0.041850716 -0.05856065
000050 c6 fd 17 bd 1e bc c4 bc 69 88 89 3c ae ec b1 3c
       -0.03710725 -0.024015483 0.016788678 0.021719303
000060 d5 41 c6 3a 78 8b 78 3b 8f 20 7a bc e7 3a 3f bd
       0.0015125821 0.0037924927 -0.015266552 -0.046687033
000070 96 24 eb bc fa b6 f0 bc 1a e9 9c bc 04 27 62 3c
       -0.028703969 -0.029384125 -0.01915412 0.013803247
000080 29 b7 63 3c ed 70 80 3c f4 1d e6 3b a5 a8 8d bb
       0.013898649 0.015678847 0.0070226137 -0.0043230825
000090 91 32 3a bc c7 f3 31 bd ae f7 62 bc ba 71 06 bd
       -0.011364595 -0.043445375 -0.013852997 -0.0328233
0000a0 7b cb 9e bc 3f 86 71 bc 9a 1d 8b bc 7f 0c f2 bc
       -0.019384136 -0.014741479 -0.016981889 -0.029546974
0000b0 82 8b 9e bb 9a d5 11 bd 75 62 1f bd f2 d4 0c bd
       -0.004838408 -0.035604097 -0.038912255 -0.034382768
0000c0 2e 70 50 bd be a0 55 bd b9 66 21 bd 5a 5b 23 3b
       -0.050888233 -0.05215525 -0.039404605 0.0024926276
0000d0 99 4a 54 bc 0d a5 fd bb 8f d1 05 bb 5f 3e 24 bd
       -0.012957239 -0.007740623 -0.0020419096 -0.040098544
0000e0 93 c6 2b bd 38 5f 21 bd af 89 d2 bc d1 be 7a bb
       -0.041937422 -0.03939745 -0.025700418 -0.0038260708
0000f0 c9 78 6d 3c f8 8e 97 3c a5 35 82 3b cc 2e a0 3b
       0.014494129 0.01850079 0.00397368 0.004888391
000100 f2 83 a3 bc 78 13 17 3b 3b 01 f4 bc 0c a5 20 bc
       -0.019960377 0.0023052376 -0.029785743 -0.009804975
000110 fc 45 72 3c f9 da 01 bc e2 a3 0e 3d 24 4c 78 3c
       0.014787193 -0.007925742 0.03482426 0.015154872
000120 41 1a f9 3c 76 ef 2c 3d a5 3d cc 3c 10 0d 1e 3c
       0.030408027 0.042220555 0.024931738 0.009646669
000130 ad e4 e1 3b 13 09 a5 3c 62 a4 ff 3b cb 07 e7 3c
       0.0068937154 0.020145928 0.0078015784 0.028201958
000140 4d 4a 15 3c e5 a8 b1 ba 36 1e 51 bc d3 97 21 3a
       0.009111953 -0.0013554363 -0.0127635505 0.0006164286
000150 13 31 8d bc 8c 6c 05 ba 2b 99 ff 3c e1 3e fb 3c
       -0.017235314 -0.0005089722 0.031200966 0.030669631
000160 ff ca 18 3d 14 b7 2f 3d 00 cb 8b bc 88 b7 d0 3b
       0.037302967 0.042899206 -0.017064571 0.006369535
000170 b4 4b 33 3c 4c 6f c5 bb d2 67 4f 3c 1c cb 59 3c
       0.010943342 -0.0060252305 0.01265903 0.013293054
000180 64 8d 62 3d c8 7a 3b 3d c6 95 01 3d 97 10 2c 3c
       0.05531062 0.04577139 0.031636976 0.010502002
000190 c7 6a 8c bc 40 3c 93 bc b0 e4 5c bb 73 e3 b6 bb
       -0.01714076 -0.017973065 -0.0033705644 -0.0055813133
0001a0 78 28 5b bb 23 97 c8 3c 28 9e a2 3c 7a 6d fa 3c
       -0.003344087 0.02448613 0.019850805 0.03056978
0001b0 41 cc aa 3b 03 6b ce bc b1 0f cb bc ed 96 f3 bb
       0.0052123372 -0.025197512 -0.024787756 -0.0074337632
0001c0 7e f8 db bc 06 14 41 bd 63 18 02 bc da 1b 8e 3b
       -0.026851889 -0.047138236 -0.007940385 0.0043368163
0001d0 ed 69 81 3c c8 4c 76 3c 04 80 1a bc e7 be 0e bd
       0.01579758 0.0150329545 -0.009429935 -0.034850027
0001e0 0d 79 26 bd f4 70 02 bd 7c ce 27 bd 77 96 7f bc
       -0.040642787 -0.031846 -0.040968403 -0.015599838
0001f0 20 72 e2 bc 5c 26 99 bc bd bd d3 3b a2 d0 91 bb
       -0.02764231 -0.018695049 0.0064618276 -0.00444992
000200 e8 c7 94 bc 10 e3 e6 bc 5e 79 1d bc 0c 2f 14 bd
       -0.018161729 -0.028184444 -0.009611456 -0.03617768
000210 bb 56 ca bc b4 63 16 bc 9d 3e b8 bb 60 7b ef 3c
       -0.02469956 -0.0091790445 -0.0056226985 0.029233634
000220 d6 ee 8d 3c 08 0c 90 3c 40 1a a8 3c d8 53 e8 3a
       0.0173258 0.017583862 0.02052033 0.0017725183
000230 cc 11 24 bd 01 d8 1e bd 7d 81 15 bc fc 02 a4 bc
       -0.040056035 -0.038780216 -0.009125111 -0.020020954
000240 67 4b 12 3d 3e be af 3c 4a 23 2a 3c b8 c9 c0 3c
       0.03571644 0.02145302 0.01038439 0.023533687
000250 b2 7a 8c 3c 9f 35 b2 bc 69 f7 9d bc 0d 68 2d bd
       0.01714835 -0.021754084 -0.019283013 -0.04233556
000260 01 b8 76 bb 22 1a 8c 3c c4 a5 ec 3c 8c 4a 12 3d
       -0.0037646296 0.017102305 0.028887637 0.035715625
000270 6e aa 02 3d 52 85 f5 3c 0b 78 b2 3a 0a 15 db bc
       0.031900816 0.029970799 0.0013616098 -0.02674343
000280 c1 67 8e bc de b5 1c 3c 11 64 e9 bb e0 16 16 3c
       -0.017383458 0.009564845 -0.0071225245 0.009160727
000290 9b 79 d4 3b 5b ae 5a 3b a9 ac e9 3c 21 a7 89 3b
       0.006484223 0.0033368084 0.028524714 0.0042008315
0002a0 e2 a4 f0 3c 44 d3 e5 3c b5 1d c4 3c e5 06 84 ba
       0.029375497 0.02805484 0.023939947 -0.0010072856
0002b0 a5 c8 86 bc 88 74 0d 3c d2 54 1b 3b 65 65 d4 bc
       -0.016453097 0.00863374 0.002370168 -0.025927255
0002c0 d1 cd c7 bc 97 62 b4 bc bd a3 4c bc 1e 6d 07 3c
       -0.024390133 -0.022019668 -0.01249021 0.008265762
0002d0 cc 10 62 3c 1a d7 52 bc 30 95 3c bd f0 39 37 bd
       0.01379795 -0.012868667 -0.046040714 -0.044732988
0002e0 fa f7 3f bd 19 7d 85 bd 63 bf 20 bd e5 79 02 bd
       -0.04686735 -0.06518001 -0.03924502 -0.03185453
0002f0 a4 36 ac bc d9 60 08 3b 3a c2 9d 3b c7 24 3c bd
       -0.021022148 0.0020809679 0.0048144134 -0.04593351
000300 47 03 37 bd c1 2a 9d bc 27 d9 30 bd 0c a3 50 bd
       -0.04468086 -0.019185426 -0.043175843 -0.050936744
000310 3d 7e 52 bd c9 f5 23 bd bd 18 92 bc 7c da c2 3a
       -0.05138992 -0.04002932 -0.017834062 0.0014866139
000320 60 4b 8f bc 98 b1 1e bd 63 57 29 bd ff ba 16 bd
       -0.017491996 -0.038743585 -0.041343104 -0.036799427
000330 bc 5e 34 bc 6a 99 1c bd cc 8b f1 bb ef 0d 37 bc
       -0.011008915 -0.038232245 -0.0073714014 -0.011172756
000340 9c d9 e0 3a 21 91 63 bc f5 1c 4a bc 7a 14 64 3c
       0.0017154696 -0.013889582 -0.012336005 0.013920898
000350 92 96 d1 bc f4 6b f9 bb f2 9b 2b bd 5d 94 04 bd
       -0.025584493 -0.007611746 -0.041896768 -0.032368053
000360 d8 41 96 bb da e7 30 3d 3a 04 8b 3c e2 bc a6 ba
       -0.004585486 0.04318986 0.016969789 -0.0012721086
000370 cf fd bb 3b 01 dd a8 bc 5c d1 88 bc 58 05 56 bc
       0.0057370435 -0.020613195 -0.016701393 -0.0130627975
000380 33 ca 51 bd 4c f5 f1 3b f9 cf 37 3d 1d 22 e3 3c
       -0.051218223 0.007383978 0.044876073 0.027726227
000390 16 e4 26 3d a5 5e 09 3d 91 7a a1 bc aa 2a 03 bd
       0.040744863 0.033537526 -0.019711765 -0.03202311
0003a0 1b e1 f5 bb e9 b0 0f bc 73 f1 d0 3c 2d 92 e7 3c
       -0.0075036413 -0.008770206 0.025505757 0.028267944
0003b0 a8 94 0b 3d e5 8c e6 3c 59 5f 46 3d c3 8c dc b9
       0.034077317 0.028143356 0.048430774 -0.00042066546
0003c0 b8 ff a3 bc d0 b2 ae 3b 54 fd 6b bc 78 a9 d1 bb
       -0.020019397 0.0053313747 -0.01440366 -0.006398376
0003d0 f2 5d 03 bd 1f 83 56 bc 21 86 34 bb a2 64 48 bc
       -0.032072015 -0.013092785 -0.0027545767 -0.012231024
0003e0 3b a0 ed bc 48 85 48 bd 2d c9 f3 bc eb b4 60 bd
       -0.029007068 -0.048955232 -0.029759014 -0.054860037
0003f0 c0 7d d1 bc f9 cd 9d bc 51 e7 c4 bc cd 9f 79 bc
       -0.025572658 -0.019263254 -0.024036082 -0.015235853

fc1.bias f4 [10]
000000 7c 0a f6 3b 3f 4e ee 3d ad 51 69 bb 47 60 2e 3b
       0.007508574 0.11636018 -0.003560166 0.0026607679
000010 88 b2 dc bc e6 e8 0c bd d0 3a 68 3b 6f d2 81 3d
       -0.0269406 -0.034401797 0.0035435446 0.06338965
000020 2d e7 ac bc 6c 7a af bc
       -0.021106327 -0.02142068
