tests/pickle_serialization/cpu/mnist_state_dict.pt (torch_old, 180312 bytes, 8 tensors)

conv1.weight f4 [32, 1, 3, 3]
0.20130323 -0.098404616 -0.050788186 0.15147094 -0.35185745 0.14113262 -0.08649754 0.113533534
0.0075573577 -0.020207811 0.093409024 0.012217653 0.11065169 -0.13885827 -0.084083095 -0.067090355
0.021072214 0.032155637 0.23659392 0.06897388 -0.10889692 -0.21604043 -0.15432271 -0.19435294
-0.043875538 0.001556397 0.17652418 0.19152337 -0.2578391 0.2442488 0.118854776 0.36439475
0.21827236 -0.3916371 -0.42902824 -0.30893177 0.28442913 -0.09508558 0.034996435 -0.10952295
0.29546747 -0.30575886 0.26595804 -0.040445637 -0.34934032 0.18269788 -0.11375581 0.16602348
-0.1123136 -0.052190255 -0.26792666 -0.21114734 0.08453158 -0.10759014 0.22173494 0.11243178
-0.0917756 -0.32034686 0.09524 0.044787757 -0.27972025 0.1495481 0.15144977 0.26467764
-0.20504166 -0.03179389 0.0033940407 0.05664797 -0.2800434 -0.15709972 0.23982517 -0.08050296
0.11962428 -0.0065610725 0.11349918 0.0144600095 0.08828465 0.167775 -0.45653057 0.03323589
-0.31037107 -0.20067564 0.04513645 -0.05575647 0.22172685 -0.1860875 -0.32012564 0.27031448
0.009817981 0.22537394 0.2207902 -0.16245946 0.09717236 0.18774492 -0.14809996 -0.19433941
0.14200462 -0.001786336 -0.20989068 -0.13130625 0.25176257 -0.16763526 0.1639803 0.11805042
-0.29093608 -0.3280845 0.30221808 0.027011655 0.18131739 0.021573171 0.049061544 0.1850929
0.19517455 -0.4315176 -0.033222854 0.11248275 0.06385067 0.16709363 -0.31322816 -0.26942375
-0.12829922 0.11666779 0.41383913 -0.09294275 0.20940523 -0.15796965 -0.41747046 -0.14179808
0.112215206 0.259353 -0.2511706 0.030438498 0.2133155 0.13987373 0.14041825 0.29680014
0.28423554 0.16895255 -0.22279613 -0.1648584 -0.22403203 -0.10318286 -0.1932253 0.045448214
-0.043707587 -0.16962413 0.10213994 -0.0029301366 0.12578869 0.21441539 -0.13878395 0.28648573
-0.08381339 0.01818865 -0.26902473 -0.18463728 -0.14746381 -0.12353928 0.28734216 -0.14928524
-0.20389365 0.17481352 0.116415076 0.240668 -0.15444517 0.07533511 -0.03313154 -0.21200426
-0.40235403 -0.15141483 -0.10421592 0.061749764 -0.069908045 -0.08784836 0.22932026 0.20357771
0.11898892 -0.05791457 -0.27553847 0.22293997 -0.024740372 -0.051712044 -0.32439503 -0.009191509
-0.24404557 0.32762656 -0.2164502 -0.10281186 0.021479588 -0.11908583 0.19296974 -0.08920575
-0.20009868 0.006928271 0.21594243 -0.34308612 0.084601685 0.1866619 0.29033586 -0.28268707
-0.0017323992 -0.2164192 0.26147014 -0.18444206 0.15152353 -0.02858641 -0.084064245 -0.020222431
0.024238035 0.101020336 -0.013020561 0.0030112686 -0.4332146 0.12776972 0.1422315 0.19970362
0.27447298 -0.25086415 -0.14906289 0.29931912 -0.30371585 0.29187083 -0.31399143 -0.34605968
0.16349618 -0.2945819 -0.14268395 0.19712836 0.28072244 0.285098 -0.093193114 -0.32658434
0.20983358 -0.23548575 -0.052381787 0.09331093 -0.32461458 0.21286027 0.24057724 -0.26448447
-0.25246388 0.0338272 0.17047194 -0.029618721 -0.16444449 0.0117969755 -0.25751296 -0.28072643
-0.21813327 0.34918818 0.34953612 -0.049771722 -0.04192939 0.09616118 -0.01548073 -0.3026711
00000000: 6f22 4e3e 5c88 c9bd 4607 50bd 331b 1b3e
00000010: a926 b4be 1285 103e 9f25 b1bd 4584 e83d
00000020: b6a3 f73b da8a a5bc 3b4d bf3d 8d2c 483c
00000030: 5a9d e23d dd30 0ebe c233 acbd ab66 89bd
00000040: a39f ac3c a1b5 033d ad45 723e 2d42 8d3d
00000050: 5905 dfbd b439 5dbe c606 1ebe 7504 47be
00000060: d6b6 33bd 0400 cc3a c1c2 343e b41e 443e
00000070: 7d03 84be 5c1c 7a3e 226a f33d f391 ba3e
00000080: ca82 5f3e a884 c8be 97a9 dbbe 4e2c 9ebe
00000090: b2a0 913e 3bbc c2bd 6c58 0f3d 924d e0bd
000000a0: 8347 973e 6d8c 9cbe a72b 883e 53aa 25bd
000000b0: bcdc b2be 2715 3b3e cef8 e8bd 0f02 2a3e
000000c0: ac04 e6bd 73c5 55bd af2d 89be 0237 58be
000000d0: e51e ad3d 3858 dcbd 7c0e 633e a242 e63d
000000e0: d9f4 bbbd 8104 a4be 300d c33d 5e73 373d
000000f0: 7e37 8fbe 2323 193e a615 1b3e d483 873e
00000100: 71f6 51be 4f3a 02bd 8e6e 5e3b b407 683d
00000110: d961 8fbe c0de 20be bb94 753e bcde a4bd
00000120: 93fd f43d 44fe d6bb 4272 e83d ade9 6c3c
00000130: 95ce b43d 36cd 2b3e 60be e9be 5b22 083d
00000140: f5e8 9ebe ea7d 4dbe 00e1 383d e560 64bd
00000150: 5d0c 633e b98d 3ebe 82e7 a3be a966 8a3e
00000160: 99db 203c 6dc8 663e d416 623e c65b 26be
00000170: 4d02 c73d 3440 403e 84a7 17be e900 47be
00000180: a969 113e 7d23 eaba 95ed 56be 2575 06be
00000190: 06e7 803e 94a8 2bbe 74ea 273e 6bc4 f13d
000001a0: 93f5 94be b1fa a7be 54bc 9a3e 8c47 dd3c
000001b0: 44ab 393e 38ba b03c c2f4 483d fe88 3d3e
000001c0: d6db 473e e0ef dcbe b014 08bd 5b5d e63d
000001d0: 24c4 823d 981a 2b3e 715f a0be e9f1 89be
000001e0: df60 03be 86ef ee3d b9e2 d33e c558 bebd
000001f0: 536e 563e ccc2 21be b0be d5be 8433 11be
00000200: 16d1 e53d ebc9 843e 6f99 80be 285a f93c
00000210: 616f 5a3e 0f3b 0f3e cdc9 0f3e 30f6 973e
00000220: 5287 913e e601 2d3e ab24 64be a4d0 28be
00000230: a768 65be 8951 d3bd dadc 45be e827 3a3d
00000240: ba06 33bd f3b1 2dbe bf2e d13d 8907 40bb
00000250: c0ce 003e b58f 5b3e 611d 0ebe 42ae 923e
00000260: 5ba6 abbd 5d00 953c 9cbd 89be 8e11 3dbe
00000270: c100 17be 2902 fdbd 831e 933e 3bde 18be
00000280: 7fc9 50be 5102 333e 076b ee3d ac71 763e
00000290: e026 1ebe 4b49 9a3d f0b4 07bd a517 59be
000002a0: 5901 cebe 7d0c 1bbe 286f d5bd 52ed 7c3d
000002b0: f32b 8fbd d7e9 b3bd eed2 6a3e ad76 503e
000002c0: 76b0 f33d d437 6dbd 6113 8dbe 604a 643e
000002d0: 52ac cabc 02d0 53bd 1b17 a6be fc97 16bc
000002e0: 15e7 79be abbe a73e 1fa5 5dbe 068f d2bd
000002f0: f6f5 af3c 46e3 f3bd dc99 453e 81b1 b6bd
00000300: abe6 4cbe 8d06 e33b 0320 5d3e fca8 afbe
00000310: a643 ad3d 4c24 3f3e e7a6 943e 5cbc 90be
00000320: ac11 e3ba ff9c 5dbe 6adf 853e 61de 3cbe
00000330: fc28 1b3e 0c2e eabc e029 acbd 83a9 a5bc
00000340: d88e c63c c0e3 ce3d 3154 55bc b458 453b
00000350: 4ece ddbe 11d6 023e 22a5 113e 1b7f 4c3e
00000360: b987 8c3e 4471 80be f1a3 18be 5b40 993e
00000370: a580 9bbe 1870 953e 7cc3 a0be bc2e b1be
00000380: 8b6b 273e 70d3 96be be1b 12be 04dc 493e
00000390: daba 8f3e 5df8 913e 08dc bebd 1036 a7be
000003a0: 9dde 563e 2d23 71be 498e 56bd cd19 bf3d
000003b0: e233 a6be 0bf8 593e e159 763e 826a 87be
000003c0: f242 81be 648e 0a3d 3290 2e3e f6a2 f2bc
000003d0: 2364 28be 1a48 413c bdd8 83be 60bb 8fbe
000003e0: 545e 5fbe cbc8 b23e 66f6 b23e 6fdd 4bbd
000003f0: 27be 2bbd 27f0 c43d e3a2 7dbc b5f7 9abe

conv1.bias f4 [32]
-0.16608965 -0.07711816 -0.10611875 -0.21172053 0.092614904 0.0958736 -0.11312452 -0.26847807
-0.15843289 -0.022231987 -0.19276759 -0.25974146 -0.20365116 -0.13967489 -0.06876985 -0.103484325
-0.19685127 -0.19076076 -0.3050041 0.13284416 -0.017712886 0.13892351 -0.17138208 -0.2168968
-0.2981002 -0.18518123 0.084020816 -0.2607565 -0.21833196 -0.043390658 0.13963854 -0.07853961
00000000: 6813 2abe 20f0 9dbd ca54 d9bd 44cd 58be
00000010: e2ac bd3d 6159 c43d d4ad e7bd f575 89be
00000020: 3b3c 22be db1f b6bc de64 45be d5fc 84be
00000030: ee89 50be ef06 0fbe 35d7 8cbd 97ef d3bd
00000040: 6193 49be ca56 43be 7f29 9cbe 4d08 083e
00000050: 9d1a 91bc f741 0e3e c97e 2fbe 321a 5ebe
00000060: 97a0 98be 26a0 3dbe 1b13 ac3d e081 85be
00000070: 6a92 5fbe 67ba 31bd 68fd 0e3e 60d9 a0bd

conv2.weight f4 [32, 32, 3, 3]
-0.016394896 -0.009418461 -0.01529419 -0.02536228 0.021127444 -0.022100901 -0.034638733 0.010885062
-0.044193167 -0.0150895715 0.02864067 0.020806449 0.04734379 -0.041906737 -0.00063119084 -0.01934595
-0.03468106 -0.0352692 0.012061171 0.0021836087 -0.033704408 -0.04430324 -0.05166287 0.054044217
-0.01355149 -0.016321434 -0.024730472 -0.032420702 -0.056994315 -0.037337 0.032034848 0.006302755
-0.026723562 -0.026507104 0.029429244 0.03400459 0.051608775 0.0147147095 0.025975285 -0.010738656
-0.03828816 -0.06107594 0.032359157 -0.011797982 0.020052655 -0.0005828763 -0.057578925 -0.030172177
0.012942738 -0.014490396 -0.057536405 0.015038788 -0.003445471 -0.022975309 0.020486286 0.0066567156
-0.03163816 0.04768525 0.023143187 -0.0036361706 -0.016281558 -0.05538729 0.035449054 -0.016481753
-0.0393697 0.035709053 0.018515857 0.013759405 -0.013566855 -0.021128085 0.009203433 0.044328816
0.0056696497 -0.030198405 0.054914616 -0.0021174273 0.041320182 0.008760592 0.048999783 0.028394707
-0.036192205 0.037823856 -0.0043085474 -0.051266976 -0.012416019 -0.054090276 -0.033288296 -0.041374862
0.039736725 -0.0126070045 -0.012805442 0.027793298 0.023487264 -0.0411074 0.020705694 0.025879415
-0.048142202 0.050365135 -0.035481438 -0.027311541 -0.052032314 0.047338847 0.008597057 0.04687909
-0.002119705 0.030100772 -0.020685526 -0.050864525 0.002880441 -0.010011177 -0.013192853 -0.035012726
-0.0018485069 0.0103774965 0.016530773 -0.051485725 0.022476913 0.004851518 0.037368488 0.037499867
-0.04810936 0.054068115 -0.06062886 0.03300128 0.0021474094 0.024879111 -0.035609834 0.02907661
-0.037438877 -0.05579809 0.013444896 0.023548007 0.057772316 -0.0081895115 0.052046444 0.03586232
-0.030999463 -0.045271542 0.029035406 -0.035432853 0.024167808 -0.053934745 0.03913227 0.012687023
-0.009299437 0.022819567 -0.04956619 -0.016293459 -0.006090002 -0.044027604 -0.018408673 -0.032596663
0.046154525 0.048746955 0.047645822 0.045118105 -0.058333166 0.014689486 0.017544525 -0.04439777
0.020788275 -0.03432938 0.007950861 0.019986192 0.052096155 -0.033008777 -0.04564398 0.054858547
0.023613624 0.028841984 0.02028048 -0.027055763 0.026827369 -0.0592043 0.0024970656 0.019048868
0.03220679 -0.033890232 -0.04696795 0.009225155 -0.04916299 -0.05175502 -0.056075197 -0.031760745
-0.015103783 -0.0380559 -0.028124189 -0.055145323 0.033217553 -0.018019035 -0.04661992 0.004052458
-0.04819797 0.03181143 0.022061985 -0.06002204 -0.05405813 -0.05057314 -0.03538534 0.004572392
-0.061952733 -0.04808408 0.024490796 -0.022646263 -0.026446128 -0.05043543 0.020769719 -0.00050696207
-0.026828004 -0.042001054 0.009164144 0.011796735 0.018272609 0.01565024 -0.010779273 -0.049190186
0.033660304 -0.0057844343 -0.042080604 0.04577803 0.025961395 -0.04972884 -0.031222112 -0.023750644
-0.03709201 0.024043059 -0.04415508 0.047725804 -0.028425504 0.030300882 -0.005934218 -0.028756859
0.036080737 -0.05033573 -0.03563446 0.0020049447 0.039822157 -0.028956326 -0.039527122 -0.04301967
-0.028757595 -0.023092426 -0.01797732 -0.033657245 0.018528644 -0.0013324525 -0.03751435 -0.0334904
0.011781155 0.0008328836 0.04196021 -0.009988887 -0.051702205 -0.052328993 -0.026334632 -0.017253315
00000000: 974e 86bc e34f 1abc 7b94 7abc 8ec4 cfbc
00000010: 7613 ad3c f30c b5bc 58e1 0dbd 4257 323c
00000020: e503 35bd 403a 77bc d79f ea3c 4972 aa3c
00000030: 90eb 413d 66a6 2bbd 8076 25ba 667b 9ebc
00000040: ba0d 0ebd 7076 10bd 389c 453c e01a 0f3b
00000050: a20d 0abd 5077 35bd 729c 53bd 785d 5d3d
00000060: 1207 5ebc 87b4 85bc 8f97 cabc 92cb 04bd
00000070: df72 69bd afee 18bd f936 033d 5787 ce3b
00000080: 5feb dabc 6d25 d9bc 9915 f13c 6648 0b3d
00000090: b963 533d f715 713c 1fca d43c 30f1 2fbc
000000a0: 0cd4 1cbd c42a 7abd 098b 043d 534c 41bc
000000b0: 7745 a43c 2bcc 18ba e1d7 6bbd a42b f7bc
000000c0: c70d 543c 2069 6dbc 4bab 6bbd 4065 763c
000000d0: 69cd 61bb b736 bcbc dbd2 a73c 9420 da3b
000000e0: 0497 01bd 9c51 433d c896 bd3c d24c 6ebb
000000f0: e760 85bc c8dd 62bd 0733 113d be04 87bc
00000100: 1f42 21bd a843 123d 91ae 973c 216f 613c
00000110: 8447 5ebc ce14 adbc ffc9 163c 2292 353d
00000120: 78c8 b93b a562 f7bc 26ee 603d 89c4 0abb
00000130: 5a3f 293d 9688 0f3c ffb3 483d 049c e83c
00000140: 473e 14bd 30ed 1a3d b72e 8dbb 52fd 51bd
00000150: 8f6c 4bbc c48d 5dbd 4f59 08bd b078 29bd
00000160: fac2 223d 9c8d 4ebc ebcd 51bc c5ae e33c
00000170: 5d68 c03c 3c60 28bd fd9e a93c 1101 d43c
00000180: c230 45bd ac4b 4e3d fc54 11bd 74bc dfbc
00000190: d61f 55bd 61e6 413d acda 0c3c 4a04 403d
000001a0: c0ea 0abb e595 f63c b174 a9bc 5257 50bd
000001b0: c8c5 3c3b eb05 24bc d626 58bc 8169 0fbd
000001c0: 9949 f2ba 6006 2a3c 8b6b 873c b2e2 52bd
000001d0: 8121 b83c 7cf9 9e3b b30f 193d 7699 193d
000001e0: 520e 45bd 8776 5d3d f855 78bd 5a2c 073d
000001f0: 8dbb 0c3b 47cf cb3c 9edb 11bd 1232 ee3c
00000200: 8259 19bd 8a8c 64bd fb47 5c3c c0e7 c03c
00000210: aaa2 6c3d 4d2d 06bc a72e 553d 5ee4 123d
00000220: 96f2 fdbc a76e 39bd a9db ed3c 0a22 11bd
00000230: 91fb c53c aeea 5cbd 2949 203d 3bdd 4f3c
00000240: aa5c 18bc 1af0 ba3c eb05 4bbd dc79 85bc
00000250: a48e c7bb 4a56 34bd c9cd 96bc 1484 05bd
00000260: 870c 3d3d e3aa 473d 4428 433d c3cd 383d
00000270: c2ee 6ebd 2bac 703c 89b9 8f3c 70da 35bd
00000280: 2c4c aa3c f79c 0cbd 5444 023c 15ba a33c
00000290: c762 553d 3634 07bd 2ff5 3abd 5bb3 603d
000002a0: 5c71 c13c 0646 ec3c 4023 a63c 0ca4 ddbc
000002b0: 12c5 db3c 3580 72bd cfa5 233b 5f0c 9c3c
000002c0: 44eb 033d 7cd0 0abd 7761 40bd 1b25 173c
000002d0: 225f 49bd 12fd 53bd 1baf 65bd 8e17 02bd
000002e0: dc75 77bc 81e0 1bbd b364 e6bc 10e0 61bd
000002f0: 210f 083d a89c 93bc 87f4 3ebd 7bca 843b
00000300: 3c6b 45bd b44c 023d 56bb b43c acd9 75bd
00000310: 0f6c 5dbd c825 4fbd 38f0 10bd 01d4 953b
00000320: 26c2 7dbd d0f3 44bd eca0 c83c a884 b9bc
00000330: 8da5 d8bc 6295 4ebd 4225 aa3c a6e5 04ba
00000340: 67c6 dbbc 4c09 2cbd 3525 163c 1847 413c
00000350: 70b0 953c ef34 803c 8c9b 30bc a67b 49bd
00000360: 63df 093d 5a8b bdbb b65c 2cbd be81 3b3d
00000370: feac d43c 78b0 4bbd 84c5 ffbc b690 c2bc
00000380: cbed 17bd f3f5 c43c f5db 34bd 227c 433d
00000390: 9adc e8bc 8e39 f83c d473 c2bb 8193 ebbc
000003a0: 65c9 133d d72c 4ebd 71f5 11bd 6465 033b
000003b0: 8f1c 233d d135 edbc 31e7 21bd 6535 30bd
000003c0: 0c95 ebbc 542c bdbc 2c45 93bc 2edc 09bd
000003d0: 62c9 973c b0a5 aeba a6a8 19bd 3b2d 09bd
000003e0: bf05 413c df55 5a3a 78de 2b3d 6ea8 23bc
000003f0: b1c5 53bd ed56 56bd babb d7bc d356 8dbc

conv2.bias f4 [32]
0.022768857 0.020279149 -0.04204279 0.026936013 0.0581162 -0.01619916 0.009682565 -0.012785935
-0.009093322 0.028754242 0.021426592 -0.0071123764 -0.006466735 0.0033349667 0.0013483632 0.006101804
-0.0011038752 -0.0018466291 0.023733454 -0.05280211 -0.04801834 -0.011186508 -0.040550556 -0.04744782
0.03616542 -0.0018118443 -0.035654902 -0.040210538 0.024100088 0.02007569 0.023956763 0.0015649816
00000000: c185 ba3c 7520 a63c 1035 2cbd eaa8 dc3c
00000010: 410b 6e3d 1ab4 84bc 9fa3 1e3c 197c 51bc
00000020: 28fc 14bc 048e eb3c d286 af3c f00e e9bb
00000030: e8e6 d3bb 758f 5a3b 90bb b03a a4f1 c73b
00000040: e8af 90ba 970a f2ba a96c c23c 0647 58bd
00000050: e1ae 44bd 9e47 37bc 5718 26bd a558 42bd
00000060: 3122 143d 687b edba e00a 12bd ceb3 24bd
00000070: 8c6d c53c c675 a43c f940 c43c 1220 cd3a

conv3.weight f4 [32, 32, 3, 3]
0.017942432 -0.02288367 0.02810603 0.038794372 0.026107984 0.012088222 -0.057240777 0.0029142231
-0.042810153 0.051697202 0.019417355 0.0074333483 0.05534929 -0.08112906 -0.017646426 -0.13161956
-0.06474479 -0.060648218 -0.018907258 -0.006236703 0.01719734 0.0069048735 0.013097417 0.046333507
-0.031257514 -0.0592584 0.029139906 0.05658465 0.046297543 -0.017505333 0.0051023285 -0.0022340263
-0.035795175 -0.017544119 0.02009629 -0.01412445 -0.012530694 -0.04610187 -0.13013756 0.014317979
-0.02726534 -0.06556985 0.005762969 -0.036606178 -0.018967278 0.055766273 0.025808685 -0.003347829
0.029750692 0.023608122 0.008652221 -0.059461515 0.025920352 -0.03474435 0.06448172 0.007360231
0.009207008 0.036963783 -0.044228006 -0.023588073 -0.09606467 -0.14276542 -0.118733004 0.031186357
-0.068317175 -0.015816266 -0.096692584 -0.04370042 -0.05639207 -0.080797225 -0.081673615 -0.028429747
-0.03610965 0.038576875 -0.029241947 -0.009353077 0.038864523 0.052255873 -0.00056437263 -0.039178524
0.046581306 0.049303852 0.03463447 -0.031893983 -0.020578103 0.03283518 -0.014411961 -0.049107242
-0.001733489 -0.008126048 0.02508567 -0.0047549033 -0.11483087 -0.09706615 -0.050127547 -0.12937212
-0.103140235 -0.106801376 -0.06625932 -0.032967646 -0.040484942 -0.023919718 0.02528036 0.039032806
0.0010688909 0.05361873 -0.03225291 0.014784274 0.018297436 0.0005831602 0.015647365 -0.014789901
-0.021121077 0.00513091 0.041110013 -0.00013582878 -0.023454988 -0.0053072358 -0.041449655 -0.019718125
-0.05678514 -0.016917948 0.02852059 0.05251324 0.001567207 0.00865517 0.011622494 -0.055597313
-0.0059594354 -0.016382286 -0.07160218 -0.118633434 -0.05159661 -0.05480951 -0.046497937 0.037506208
0.10825631 0.009847016 -0.028645027 -0.039016496 0.014934549 0.053500824 0.044386886 -0.055756025
0.0070721596 0.0035201814 -0.078897364 -0.08400531 -0.050791327 -0.12139719 -0.0028682372 9.066717e-05
-0.057961207 -0.022758543 -0.025011277 0.0163912 0.043389183 -0.05420521 -0.047959693 0.038524427
0.063957945 -0.02996869 0.083011255 0.06479398 0.037449993 0.059834305 0.049565144 0.0013821737
0.043688387 0.048829284 -0.0049226377 0.023994861 -0.036840685 -0.016513538 -0.001360182 0.0002804533
0.039779067 -0.10491422 -0.09573675 -0.051916193 -0.07205386 -0.103053994 -0.093588956 0.013763048
-0.034989193 -0.09209922 -0.056052472 -0.039636564 -0.0782597 -2.8856157e-05 0.017411657 -0.115752675
0.008389873 -0.018250875 0.008453393 -0.046683427 -0.06450334 0.037914954 -0.048185345 -0.10342474
-0.1005001 0.017450558 -0.061771784 -0.025108017 -0.080010965 0.0060108663 0.014015123 -0.040100902
-0.08813546 -0.13590568 -0.014592802 -0.033283085 -0.08794221 -0.07222203 -0.11539883 0.05089602
0.019362085 0.04577425 0.025265835 0.08135765 0.032991264 -0.06345248 0.055367775 -0.0011333022
0.0011338976 0.02793713 0.0033095267 -0.02961686 0.014315634 0.018755903 0.008607686 -0.029852103
-0.045591835 -0.053662095 -0.05239782 -0.0447467 -0.07611912 0.04035895 -0.041145205 -0.058007453
-0.041866917 -0.069392614 -0.037169747 0.043224756 0.04043147 -0.04448668 -0.022407848 -0.051903255
0.027878331 0.048372988 -0.051426727 0.037929222 -0.04679981 -0.08589965 -0.09219663 -0.12754877
00000000: 02fc 923c 8976 bbbc 9e3e e63c d9e6 1e3d
00000010: 69e0 d53c ae0d 463c 4e75 6abd 8dfc 3e3b
00000020: b359 2fbd 72c0 533d 2511 9f3c 7293 f33b
00000030: f0b5 623d fe26 a6bd 3d8f 90bc 47c7 06be
00000040: eb98 84bd 446a 78bd 65e3 9abc 425d ccbb
00000050: 70e1 8c3c 4742 e23b 8c96 563c 34c8 3d3d
00000060: e107 00bd f0b8 72bd d0b6 ee3c 4ec5 673d
00000070: 7ea2 3d3d 5867 8fbc 6f31 a73b be68 12bb
00000080: f69d 12bd afb8 8fbc faa0 a43c 3d6a 67bc
00000090: 8a4d 4dbc 50d5 3cbd c842 05be f595 6a3c
000000a0: 905b dfbc 7c49 86bd 4ad7 bc3b 5cf0 15bd
000000b0: 4461 9bbc 2d6b 643d bc6c d33c 4067 5bbb
000000c0: b9b7 f33c d265 c13c 0cc2 0d3c eb8d 73bd
000000d0: eb56 d43c 1750 0ebd fe0e 843d 182e f13b
000000e0: fed8 163c 5667 173d 6d28 35bd c63b c1bc
000000f0: 8ebd c4bd 1931 12be 4a2a f3bd 887a ff3c
00000100: e0e9 8bbd 1d91 81bc c306 c6bd 36ff 32bd
00000110: 5ffb 66bd 0479 a5bd 7f44 a7bd 80e5 e8bc
00000120: b6e7 13bd c902 1e3d cf8c efbc a63d 19bc
00000130: 6830 1f3d 410a 563d 68f2 13ba a979 20bd
00000140: 0acc 3e3d d6f2 493d e0dc 0d3d 44a3 02bd
00000150: 6993 a8bc 2f7e 063d 2520 6cbc ad24 49bd
00000160: 3d36 e3ba 1e23 05bc 7780 cd3c 05cf 9bbb
00000170: 722c ebbd 9eca c6bd 8b52 4dbd 207a 04be
00000180: 303b d3bd aeba dabd f7b2 87bd 1509 07bd
00000190: 8ad3 25bd 49f3 c3bc c218 cf3c dde0 1f3d
000001a0: 071a 8c3a 509f 5b3d a11b 04bd bd39 723c
000001b0: 81e4 953c 38df 183a e72e 803c 5751 72bc
000001c0: 1c06 adbc 3121 a83b f962 283d 436d 0eb9
000001d0: ad24 c0bc 52e8 adbb 1dc7 29bd e887 a1bc
000001e0: 8997 68bd 8297 8abc 03a4 e93c 2018 573d
000001f0: be6a cd3a 6ace 0d3c 466c 3e3c 02ba 63bd
00000200: 5e47 c3bb 2534 86bc 2aa4 92bd 16f6 f2bd
00000210: f856 53bd f07f 60bd 9f74 3ebd 1ca0 193d
00000220: 7cb5 dd3d 6155 213c faa8 eabc c3cf 1fbd
00000230: 0ab0 743c ae23 5b3d 06cf 353d 6e60 64bd
00000240: 93bd e73b d8b2 663b f194 a1bd fa0a acbd
00000250: 910a 50bd 179f f8bd 09f9 3bbb 9124 be38
00000260: bb68 6dbd 2070 babc 73e4 ccbc d646 863c
00000270: dbb8 313d 4806 5ebd 6271 44bd cacb 1d3d
00000280: 62fc 823d e680 f5bc ce01 aa3d b5b2 843d
00000290: 2a65 193d d114 753d d204 4b3d 0e2a b53a
000002a0: 98f2 323d 3701 483d 144e a1bb df90 c43c
000002b0: 42e6 16bd 6647 87bc 2248 b2ba ce09 9339
000002c0: 60ef 223d 44dd d6bd a111 c4bd 13a6 54bd
000002d0: f990 93bd f90d d3bd 91ab bfbd 687e 613c
000002e0: d450 0fbd 849e bcbd 4797 65bd f359 22bd
000002f0: 9f46 a0bd 2010 f2b7 e4a2 8e3c bd0f edbd
00000300: ae75 093c dc82 95bc 1a80 0a3c 1f37 3fbd
00000310: 541a 84bd b64c 1b3d ff5d 45bd 5ad0 d3bd
00000320: ffd2 cdbd 79f4 8e3c 6904 7dbd 54af cdbc
00000330: cadc a3bd cdf6 c43b b09f 653c d840 24bd
00000340: 5d80 b4bd dc2a 0bbe a616 6fbc d853 08bd
00000350: 0c1b b4bd 25e9 93bd 3956 ecbd 5878 503d
00000360: 3c9d 9e3c c87d 3b3d 4cfa ce3c d79e a63d
00000370: d921 073d 60f3 81bd 52c9 623d 508b 94ba
00000380: 4a9f 943a 68dc e43c a5e4 583b 0f9f f2bc
00000390: 1f8c 6a3c fba5 993c 4007 0d3c 668c f4bc
000003a0: 81be 3abd c9cc 5bbd 199f 56bd 5148 37bd
000003b0: 57e4 9bbd 6d4f 253d e087 28bd 3999 6dbd
000003c0: a57c 2bbd b71d 8ebd 4e3f 18bd 710c 313d
000003d0: 789b 253d aa37 36bd aa90 b7bc 8298 54bd
000003e0: 1961 e43c c122 463d d5a4 52bd ac5b 1b3d
000003f0: 28b1 3fbd 28ec afbd 96d1 bcbd 259c 02be

conv3.bias f4 [32]
0.05152906 0.01100633 0.033380274 0.010973409 -0.0529703 -0.041811448 -0.028038368 -0.01051575
0.024885401 -0.04937535 -0.05135046 -0.0069330917 -0.018828686 -0.05695357 -0.029105453 -0.030501854
-0.05221762 -0.035971653 0.031002553 0.014354028 -0.018737344 -0.038002033 -0.04413022 -0.05287288
0.03560364 0.0898261 0.04474531 -0.04828615 0.032373067 -0.03484231 -0.04918336 -0.019387005
00000000: 2310 533d e553 343c c1b9 083d d0c9 333c
00000010: 63f7 58bd 7b42 2bbd b8b0 e5bc 414a 2cbc
00000020: 78dc cb3c cf3d 4abd dc54 52bd fd2e e3bb
00000030: 9e3e 9abc 2648 69bd 8f6e eebc 06df f9bc
00000040: 25e2 55bd 0357 13bd 11f9 fd3c 282d 6b3c
00000050: 0f7f 99bc 05a8 1bbd e4c1 34bd 3c91 58bd
00000060: 1fd5 113d bff6 b73d dc46 373d b3c7 45bd
00000070: 9f99 043d cfb6 0ebd 7e74 49bd 7fd1 9ebc

fc1.weight f4 [10, 2592]
0.009801158 0.0011292214 -0.015514408 -0.01534741 0.012627497 -0.010458701 0.016390191 0.0038654276
0.011077709 -0.007234823 -0.017818576 -0.01870276 -0.018999992 0.008644159 0.0036624367 -0.005617037
0.015499167 -0.017142734 -0.017413165 -0.019350665 -0.0016854967 -0.005905783 0.004966394 -0.0030113198
-0.015071925 -0.0066217077 -0.014399396 -0.017019512 0.013301879 -0.002643275 -0.018168299 0.014309011
0.013224073 0.01354456 0.00048180763 0.009004958 0.013389339 -0.018024625 0.0058674896 -0.017799366
-0.0017617213 0.0078816125 0.014962536 -0.014469521 -0.0013703016 -0.009970761 -0.0028226678 -0.0014520141
-0.014529115 -0.012965093 -0.0028603226 0.018053873 -0.017346742 -0.014563645 0.013932955 -0.016210968
-0.011336498 0.00025703094 0.008255838 -0.0077599958 -0.004127516 -0.006709288 -0.012072739 0.009234554
-0.0034521176 0.017748304 -0.020138508 -0.013399978 0.01016344 -0.019155681 0.013352009 -0.0026762187
0.0027281241 0.017267521 0.007854046 -0.009302827 -0.01573247 -0.0053502605 -0.012302556 0.008793483
-0.0026899404 -0.0024585023 -0.015629299 -0.00017016055 -0.018724479 -0.015211271 0.0025445975 -0.0039250297
-0.0042609116 0.014338946 -0.02045852 0.006452617 0.012620219 -0.00893105 0.0042984793 -0.011872646
0.0049274964 -0.014780672 -0.01932662 0.00917576 -0.0059686108 -0.009075933 -0.0065158023 0.007638683
-0.016668404 -0.005244024 -0.015095143 -0.005798862 0.008763511 -0.011736731 -0.0056671714 0.0049873395
-0.004418063 -0.012063019 -0.001411469 0.0072098263 0.0020607852 0.01193173 0.0061976938 -0.018748436
-0.014303971 0.0020674025 -0.013331931 -0.005593649 -0.01264276 -0.014584073 -0.016724486 -0.017145073
-0.005443815 -0.02163824 0.0074422043 -0.003917602 -0.0064443154 0.0103466865 0.008997697 -0.018560357
-0.01453591 -0.00042989757 -0.005750963 0.0007880358 -0.006059405 -0.011451339 0.0126637975 -0.015603533
0.00072724896 -0.017886145 -0.016208613 -0.0090268515 0.005539729 0.0041748784 0.016126592 -0.02229618
0.0057764277 0.0009667241 0.0031678325 0.0043754703 -0.005140657 0.003312887 -0.0043982333 -0.0077266316
0.00600777 0.01778036 -0.003852849 0.0067805448 0.0023189222 -0.0033510337 0.019291328 -0.00600377
0.008362578 0.0066804253 -0.0001818928 -0.004971183 -0.018796226 0.013503519 0.0066173044 -0.009267754
-0.01675322 -0.015070739 -0.019582191 0.008169123 0.0012616384 -0.014868701 -0.014602418 -0.017609516
-0.007161225 -0.010786586 0.009518376 -0.009997183 0.0019066525 0.00077272556 0.017069208 -0.015367453
-0.014613193 0.015723633 0.0036307592 -0.015267085 -0.017363174 -0.007921418 -0.008183134 0.011947065
0.006793875 -0.009986097 -0.008128331 -0.003655713 0.008108631 -0.015803216 0.018380107 -0.010104833
-0.007847113 -0.016711272 -0.0094168605 0.014906576 -0.019638214 0.0049314895 -0.013243709 -0.0007602878
-0.0144001525 0.017792657 0.0029052584 -0.012214668 -0.01681046 -0.020747455 -0.0029067069 0.014117434
-0.019434402 -0.0057011535 0.009587807 -0.0020233488 0.017165704 0.00895256 -0.015731834 -0.016135281
0.0106248 0.009375054 0.013634484 0.0013362453 0.008319934 -0.0019681845 0.019293202 3.7234277e-06
-0.010698989 0.018033693 -0.0022626417 0.003363793 -0.016486479 0.0040970123 0.0013018984 -0.0050160866
-0.010019883 -0.0069099176 0.01714052 -0.016522305 -0.0050267093 0.0147816185 0.0071268925 -0.0027690649
00000000: 0995 203c 6202 943a 2530 7ebc b473 7bbc
00000010: 90e3 4e3c f95a 2bbc b944 863c 1d53 7d3b
00000020: 477f 353c 1812 edbb 43f8 91bc 8836 99bc
00000030: dfa5 9bbc 3ba0 0d3c 7e05 703b 1f0f b8bb
00000040: 38f0 7d3c eb6e 8cbc 0ea6 8ebc 4985 9ebc
00000050: e2eb dcba 4c85 c1bb 22bd a23b 9059 45bb
00000060: 3cf0 76bc e9fa d8bb 72eb 6bbc 816c 8bbc
00000070: 20f0 593c cc3a 2dbb afd5 94bc 5870 6a3c
00000080: c8a9 583c 01ea 5d3c 209b fc39 8889 133c
00000090: f55e 5b3c 61a8 93bc 1244 c03b facf 91bc
000000a0: 8fe9 e6ba e121 013c 6d25 753c 9211 6dbc
000000b0: b19b b3ba 675c 23bc 82fc 38bb 8251 beba
000000c0: 860b 6ebc 8b6b 54bc 4074 3bbb b7e5 933c
000000d0: c11a 8ebc 5b9c 6ebc 0d47 643c ddcc 84bc
000000e0: b8bc 39bc 1cc2 8639 7f43 073c 9047 febb
000000f0: 1d40 87bb 96d9 dbbb bdcc 45bc 874c 173c
00000100: ec3c 62bb e464 913c 83f9 a4bc 958b 5bbc
00000110: 8f84 263c 60ec 9cbc 62c2 5a3c 8063 2fbb
00000120: 54ca 323b 9e74 8d3c 42ae 003c e26a 18bc
00000130: 62e1 80bc 3d51 afbb a990 49bc 8a12 103c
00000140: b649 30bb d31e 21bb 0409 80bc 206d 32b9
00000150: 1464 99bc b238 79bc 43c3 263b 899d 80bb
00000160: 1e9f 8bbb e6ed 6a3c a098 a7bc 7970 d33b
00000170: 09c5 4e3c 8a53 12bc 42da 8c3b 7d85 42bc
00000180: d676 a13b a22a 72bc dc52 9ebc ed55 163c
00000190: 5694 c3bb 39b3 14bc 8382 d5bb eb4d fa3b
000001a0: 2d8c 88bc 10d6 abbb 9e51 77bc 6104 bebb
000001b0: d494 0f3c 6b4b 40bc aeb3 b9bb d66c a33b
000001c0: 66c5 90bb f8a3 45bc 0a01 b9ba 6840 ec3b
000001d0: 3d0e 073b 4e7d 433c 0616 cb3b 5296 99bc
000001e0: 345b 6abc 427d 073b 2c6e 5abc ee4a b7bb
000001f0: 9423 4fbc 09f2 6ebc ca01 89bc d373 8cbc
00000200: 0862 b2bb ae42 b1bc bcdd f33b 3a5f 80bb
00000210: d62a d3bb 2685 293c 146b 133c e40b 98bc
00000220: 0728 6ebc e063 e1b9 9372 bcbb 3094 4e3a
00000230: f98d c6bb 669e 3bbc d17b 4f3c f6a5 7fbc
00000240: daa4 3e3a f785 92bc edc7 84bc 5ce5 13bc
00000250: 9d86 b53b 6bcd 883b ea1b 843c 7aa6 b6bc
00000260: 3048 bd3b c26b 7d3a 699b 4f3b 1b60 8f3b
00000270: f572 a8bb 051d 593b 0e1f 90bb af2f fdbb
00000280: d4dc c43b 1ea8 913c 1480 7cbb 552f de3b
00000290: 0ff9 173b 049d 5bbb d908 9e3c 46bb c4bb
000002a0: 3203 093c 78e7 da3b 7aba 3eb9 4ee5 a2bb
000002b0: 8bfa 99bc dd3d 5d3c f9d5 d83b c7d7 17bc
000002c0: 0d3e 89bc 43eb 76bc d56a a0bc c9d7 053c
000002d0: 8f5d a53a da9b 73bc fb3e 6fbc d541 90bc
000002e0: b6a8 eabb 39ba 30bc f6f2 1b3c 3acb 23bc
000002f0: a4e8 f93a bc90 4a3a b9d4 8b3c c5c7 7bbc
00000300: 2d6c 6fbc d9ce 803c 08f2 6d3b cc22 7abc
00000310: 373d 8ebc d6c8 01bc 8d12 06bc 9fbd 433c
00000320: 279f de3b ba9c 23bc b12c 05bc b094 6fbb
00000330: 10da 043c bf75 81bc e191 963c be8e 25bc
00000340: 2d91 00bc 14e6 88bc 2d49 1abc b63a 743c
00000350: 52e0 a0bc 5598 a13b 24fc 58bc 0d4e 47ba
00000360: 9eee 6bbc e8c1 913c 2666 3e3b 0820 48bc
00000370: 17b6 89bc 91f6 a9bc 737e 3ebb cf4c 673c
00000380: e534 9fbc bed0 babb 2d16 1d3c 299a 04bb
00000390: 179f 8c3c c2ad 123c 0ce0 80bc 232e 84bc
000003a0: a413 2e3c d499 193c 2c63 5f3c f424 af3a
000003b0: 5550 083c a8fc 00bb c70c 9e3c 00e0 7936
000003c0: d04a 2fbc 65bb 933c d448 14bb 1573 5c3b
000003d0: a70e 87bc 3b40 863b 76a4 aa3a fc5d a4bb
000003e0: 6f2a 24bc 976c e2bb 476a 8c3c c959 87bc
000003f0: 18b7 a4bb 9a2e 723c b588 e93b 3379 35bb

fc1.bias f4 [10]
-0.006459685 0.13174158 0.02159982 0.0017441553 -0.026793912 -0.027688004 0.0062984508 0.05314696
-0.009119106 -0.025836358
00000000: c4ab d3bb 44e7 063e 1bf2 b03c 249c e43a
00000010: e87e dbbc f4d1 e2bc 3c63 ce3b a0b0 593d
00000020: 4e68 15bc c5a6 d3bc
