tests/gpu_models/mnist_cnn_state_dict.pt (torch_old, 180392 bytes, 8 tensors)

conv1.weight f4 [32, 1, 3, 3]
000000 71 d5 3d 3e fe 3f 17 be 79 b7 76 bd 30 db 2f 3e
       0.18538453 -0.14770505 -0.060233567 0.17173457
000010 30 ed 9e be e2 39 59 3e 92 33 56 bd a5 5d 3b 3e
       -0.31040335 0.21213487 -0.052295275 0.18297441
000020 03 5a 95 3d a4 9e b9 bc 52 da b1 3d ee 87 8c ba
       0.07292559 -0.022658654 0.086842194 -0.0010721663
000030 dc 5a 16 3e 0c 75 01 be 60 e6 f2 bc e0 bb 08 bc
       0.14683098 -0.12642306 -0.029650867 -0.008345574
000040 71 ca 86 3d 25 79 8e 3c bb c6 9c 3e 2f 98 d3 3d
       0.065815814 0.01739175 0.3062037 0.10331761
000050 d2 8e 04 be 7e e6 5b be fe 7e cb bd 4a 1e 3e be
       -0.12945107 -0.21474645 -0.09936331 -0.18566242
000060 2d 1c e8 bd de 3d 75 bc 41 d1 2f 3e 24 68 59 3e
       -0.11333499 -0.014968364 0.17169668 0.21231133
000070 be 6d 8f be e7 c6 7d 3e d8 af f5 3d 1d 46 b5 3e
       -0.28013414 0.24782906 0.1199643 0.35405055
000080 1f 74 88 3e 2e e4 a6 be 6d 51 b1 be 80 8c 24 be
       0.26651093 -0.32595962 -0.34632435 -0.16069221
000090 bc 91 af 3e 3e 33 5d bc 42 62 29 3e e5 89 d2 bd
       0.34290874 -0.013500987 0.16541389 -0.102802075
0000a0 30 e1 bb 3e 87 ac 08 be 5d ab 91 3e 27 84 9f 3c
       0.36695242 -0.13347064 0.28451052 0.019472195
0000b0 37 1d 3f be cd 7a 3a 3e 2f f0 24 be b5 c6 e7 3d
       -0.18663488 0.18210907 -0.16107248 0.11317197
0000c0 d4 40 df bd fc ad 51 bd 6e 52 a7 be 15 7c 3a be
       -0.10901037 -0.051191315 -0.32680076 -0.18211396
0000d0 b7 f3 1a 3e 8c b7 cf bd 48 9e b1 3e aa d9 9b 3e
       0.15132032 -0.10142431 0.34691072 0.30439502
0000e0 70 d3 b5 3b f6 31 6a be 75 61 6c 3e 33 2e 08 3e
       0.005548887 -0.22870621 0.23084052 0.13298874
0000f0 72 42 76 be ae 31 70 3e 8e 0c 79 3e 2d 50 a9 3e
       -0.24048784 0.23456451 0.24321195 0.33068982
000100 c0 f7 3d be 5f 7a 93 bd 67 3e 07 3d 18 dc 80 3d
       -0.1855154 -0.07201075 0.033018496 0.062919796
000110 1d 1f 85 be 35 7b 48 be d8 82 56 3e 13 2a 8e bd
       -0.260003 -0.1957825 0.2094835 -0.06941619
000120 0e ea 52 3e d6 46 9b 3d c4 54 1f 3e f7 31 e4 3d
       0.20597097 0.0758187 0.1555968 0.111423425
000130 dd 14 38 3e c2 23 65 3e cf 22 9a be 12 1b 57 3e
       0.17976709 0.22376922 -0.30104682 0.2100642
000140 62 fc 35 be 2e a5 79 be ba 55 a5 3a 11 66 a9 bd
       -0.17772058 -0.24379417 0.001261405 -0.08271421
000150 18 12 62 3e 21 31 4c be 9f 3a 9e be f6 a5 98 3e
       0.22077215 -0.19940616 -0.309041 0.29814118
000160 62 9e 1f 3c 40 cf 68 3e 96 77 19 3e bd 82 6b be
       0.009742351 0.2273531 0.14987025 -0.22999091
000170 ac 6a 74 3d c9 e0 e6 3d ed 5f 5b be 4d 75 23 be
       0.059672043 0.11273343 -0.21423312 -0.15962715
000180 35 d9 f6 3d 1c 08 43 3d 9f 45 18 be 63 57 8c bd
       0.12053148 0.047615156 -0.14870308 -0.06852605
000190 1e 63 a6 3e 19 5f 97 bd 20 b0 5e 3e d4 e6 2c 3e
       0.32497495 -0.07391185 0.21746874 0.16884929
0001a0 16 80 60 be 2a cb 8c be 9f a3 b0 3e c4 00 69 3d
       -0.21923861 -0.27498752 0.34499833 0.056885496
0001b0 e9 92 8d 3e 8b b7 c8 3d 95 46 d6 3d f4 af 9d 3e
       0.27651146 0.09800633 0.10462681 0.30798304
0001c0 7e 4b bc 3e 75 2c 58 be 08 aa 93 3d b7 8f 93 3e
       0.36776346 -0.21110709 0.07210165 0.28820583
0001d0 9f 3e 8e 3e 06 e5 3e 3e d5 83 85 be d5 3c 7f be
       0.2778215 0.18642053 -0.26077142 -0.2492555
0001e0 a3 34 60 be ae d2 e9 3c 3f 2a a8 3e e0 48 5e be
       -0.2189508 0.028542843 0.3284473 -0.21707487
0001f0 0b 14 3c 3e 3d f6 34 be a2 2e a2 be 60 5b 97 bd
       0.18367021 -0.17672057 -0.31676203 -0.07390475
000200 87 d8 58 3e 31 b6 aa 3e 02 82 31 be 1b 00 02 3e
       0.21176349 0.33342126 -0.1733475 0.12695353
000210 3c 53 a3 3e 3d 4d 88 3e 1a 43 8a 3e 6f b6 86 3e
       0.3189944 0.26621428 0.2700432 0.2631106
000220 35 ad 75 3e d3 f0 c8 3d c7 00 6b be ef da 8e be
       0.23991854 0.098115586 -0.22949515 -0.27901408
000230 6f e1 3e be e4 ca 88 bd 47 95 69 be e6 ef a9 3d
       -0.18640684 -0.06679323 -0.22810851 0.0829771
000240 c5 39 00 3e de da 64 bd 83 ea 16 3e a8 76 00 3e
       0.12522037 -0.05587279 0.14737897 0.12545264
000250 68 8d 7b 3e 58 27 89 3e 7c da ec bd e4 72 b7 3e
       0.24565661 0.2678783 -0.1156511 0.35829842
000260 b5 25 1c 3b 28 7d b7 bc 20 2a a6 be c9 67 30 be
       0.0023826186 -0.022398546 -0.32454014 -0.17227091
000270 11 7d 55 be b4 6f 19 be 37 39 92 3e 69 80 05 be
       -0.2084849 -0.14984018 0.28559276 -0.13037266
000280 6e 69 71 be 11 a5 2c 3e 8a fa 0a 3e 7e 8a 7a 3e
       -0.23575374 0.16859843 0.13572136 0.24466893
000290 b4 54 28 be 20 e6 ba 3d b6 0e f6 bd 64 4c bd bd
       -0.16438562 0.09125924 -0.12014525 -0.09243086
0002a0 17 a0 87 be 22 4e 27 be 6c 6b ee bd 0d 98 43 3e
       -0.26489326 -0.16338399 -0.11641583 0.19100972
0002b0 98 f4 e1 3d 36 99 ed 3d e8 84 c5 3e d6 c2 c9 3e
       0.11032981 0.11601488 0.38577962 0.3940646
0002c0 00 a7 95 3e c4 e5 26 3c 22 eb 5a be 28 ff 99 3e
       0.29228973 0.010186616 -0.21378759 0.3007748
0002d0 94 e6 c8 bd ff ca 3e bd d3 36 9d be 91 3d ad bd
       -0.09809604 -0.04658031 -0.3070589 -0.084590085
0002e0 de 6c 71 be 58 f9 99 3e b7 de 99 be 94 98 82 be
       -0.23576686 0.30073047 -0.3005273 -0.25507033
0002f0 f0 e5 6d 3b 66 63 29 be 58 ef 20 3e 69 b6 9f bd
       0.0036300384 -0.16541824 0.15716302 -0.07798464
000300 c1 76 21 be 1f a4 48 3d 3f 89 91 3e 49 74 72 be
       -0.15767957 0.048984643 0.28425023 -0.23677172
000310 69 d4 38 3e e6 0f 81 3e f1 5b ba 3e d1 16 5f be
       0.18049778 0.25207442 0.3639827 -0.21786048
000320 ad 00 a2 3d 96 ff 4a be 26 12 a4 3e 04 ab eb bd
       0.07910285 -0.19824061 0.32045096 -0.11507228
000330 e2 1f 72 3e 38 ff 29 3d b1 b7 9b bb 12 0a 44 3c
       0.23644975 0.04150316 -0.0047521223 0.011965292
000340 0b 6a 5f 3d a9 e7 fe 3d ec 96 ba 3d e7 03 e1 3d
       0.05454449 0.124465294 0.09110817 0.109870724
000350 0f a0 a7 be e0 3e 9b 3e 59 d2 aa 3e 3d f2 97 3e
       -0.32739303 0.30321407 0.33363608 0.29677
000360 a6 6e 79 3e a9 d2 80 be 05 c8 04 be c1 8f 8c 3e
       0.24358615 -0.2516072 -0.12966926 0.27453426
000370 d8 78 94 be 43 85 97 3e 42 71 96 be 60 63 82 be
       -0.28998446 0.29593858 -0.29383284 -0.25466442
000380 84 4f 2e 3e 68 df 76 be 54 07 58 bd b8 82 92 3e
       0.1702252 -0.2410866 -0.052741364 0.28615355
000390 d8 5c 8e 3e 7e da b1 3e f9 0c c8 bc 30 f2 83 be
       0.2780521 0.3473701 -0.024420248 -0.25770712
0003a0 b5 1b b2 3e 7a 32 26 bd 7d b1 fe bd c2 07 9d 3d
       0.34786764 -0.040575482 -0.12436197 0.07667495
0003b0 cc 0b 81 be 70 9d 81 3e d2 7e 73 3e 4c 32 7e be
       -0.25204313 0.25315428 0.23778847 -0.24823874
0003c0 89 97 77 be bf 77 23 3c df a6 30 3e 17 0d c6 bc
       -0.241789 0.00997728 0.17251156 -0.024176164
0003d0 1a e1 4e be 7e cc f0 bc ea 25 9b be f6 9b 84 be
       -0.20203057 -0.029394384 -0.30302364 -0.2590024
0003e0 c4 f5 6c be 54 75 b3 3e 22 a9 b7 3e ca 33 77 bd
       -0.23140627 0.35050452 0.35871226 -0.060352124
0003f0 cf f1 d2 3c 63 d4 40 3e fb ae ad 3d 1a 7f 2b be
       0.025750069 0.18831019 0.084806405 -0.16747704

conv1.bias f4 [32]
000000 f8 7b 53 bd 79 33 a9 3d 66 78 0e 3d 6d f8 3b be
       -0.051631898 0.08261771 0.03478279 -0.18356486
000010 12 f0 5b 3e 82 cd 44 3e b0 90 8d 3c 3b ba 2c be
       0.21478298 0.1921902 0.017280906 -0.16867916
000020 87 bf c5 bd 17 64 b3 3c 9b 9e 40 be 9b 4b 31 be
       -0.096556716 0.021898312 -0.18810503 -0.17313997
000030 cd 63 03 bd c3 07 b1 bd f9 c8 e1 3d 7f 74 88 bd
       -0.0320776 -0.086440586 0.110246606 -0.06662845
000040 e8 4a ea bc 5c 14 e4 bd 81 3a 91 be e9 f0 a1 3e
       -0.028600171 -0.11136696 -0.28364947 0.31629112
000050 cc ac a7 3d df dc 95 3e bf 5c 00 bd 00 56 79 bd
       0.08187255 0.29270074 -0.03133845 -0.06087303
000060 32 a3 98 be b5 50 df bd 3e 79 6b 3e 71 89 8a be
       -0.29812008 -0.109040655 0.22995469 -0.27057984
000070 a4 ca cc bd 92 40 5b 3e ca 1e 5b 3e 2e e3 03 3e
       -0.09999588 0.2141135 0.21398464 0.12879631

conv2.weight f4 [32, 32, 3, 3]
000000 7a 3d 62 bc 8e fd 5b 3b 7c 94 3d 3c 99 e7 cf bc
       -0.0138086025 0.0033567878 0.011571046 -0.025378989
000010 d4 f4 1f 3d c6 b2 fe 3b a7 4f 12 bd 24 42 d9 3c
       0.039051846 0.0077727763 -0.035720494 0.026520796
000020 d7 e3 b3 bc 12 0b 9f bb fe 5d 1b 3d bd a9 00 3d
       -0.021959228 -0.0048536146 0.037931435 0.031411875
000030 64 8c 58 3d ef d4 1a bd 22 f7 94 3b ed 30 99 bc
       0.052868262 -0.037800726 0.004546062 -0.018700087
000040 5c d3 0e bd 2c 0e 0f bd cf 56 08 3c 33 1f 13 3c
       -0.034869537 -0.034925625 0.008321478 0.008979606
000050 34 ec b0 bc 76 1e 14 bd 24 a9 1d bd d6 2f 86 3d
       -0.021597005 -0.036161862 -0.038491383 0.06552093
000060 9e 05 80 bb 33 54 40 bc 0d 39 f9 bc 03 0c 41 bc
       -0.0039069196 -0.011738825 -0.030422712 -0.011782649
000070 c2 2b 3f bd 18 17 2b bd 09 35 4c 3d 2b e9 ac 3c
       -0.04667259 -0.04177007 0.049855266 0.021107277
000080 e1 97 ae bc 8a b8 61 bc ec f0 47 3d b2 6b 67 3d
       -0.021312656 -0.013776908 0.048813745 0.05649919
000090 b1 93 9b 3d 3c 0e 05 3d 19 08 14 3d 3c 6d 5f bb
       0.07596529 0.032484278 0.036140535 -0.0034092208
0000a0 e6 36 1e bd e6 21 82 bd c3 d2 cb 3c 78 59 b5 bc
       -0.038626574 -0.06354122 0.024880772 -0.022137389
0000b0 d4 ae 7c 3c da e9 92 bb df 4b 81 bd a5 96 04 bd
       0.015422542 -0.0044834437 -0.063132994 -0.03237023
0000c0 7d 46 9e 3c 82 8d 68 bc a0 52 7b bd 21 80 f2 3c
       0.01932072 -0.014193894 -0.061358094 0.029602112
0000d0 51 d6 03 3b 4c 4c fa bc 6d 43 4b 3d c1 4b 1e 3d
       0.0020116756 -0.03055396 0.04962485 0.038646463
0000e0 55 0b 21 ba 2d 56 8c 3d e7 08 51 3d d2 8b 06 3d
       -0.0006143351 0.06852374 0.05103388 0.032848187
0000f0 f7 a0 5c bb 3f 97 fd bc 1d 19 98 3d 6c 9b 83 bb
       -0.0033665278 -0.030955909 0.07426665 -0.0040163305
000100 a6 68 b9 bc 32 f0 6b 3d e2 f1 ea 3c 0c 86 da 3c
       -0.022632908 0.057602115 0.028679792 0.026675247
000110 37 8f d4 3a cc 31 54 bc ce 90 42 3c 7d b6 2a 3d
       0.0016216998 -0.012951326 0.011875344 0.04167794
000120 b1 98 ec 3c ea a8 6a bc ef 5c 72 3d c9 b1 03 3c
       0.028881403 -0.014322499 0.05917066 0.008037993
000130 b7 c1 4c 3d f7 9e 83 3c 57 96 4f 3d cb 8d 0f 3d
       0.04998943 0.016067011 0.050680485 0.035047334
000140 51 a4 ac bc e4 a2 d8 3c 7d 9f 5d bb b5 0c 26 bd
       -0.021074446 0.02644486 -0.0033816986 -0.040539462
000150 eb bf d3 bc 81 e1 61 bd 0f d9 83 bc b2 2a 4a bd
       -0.02584835 -0.055146698 -0.016094713 -0.049357124
000160 a8 d4 0c 3d bb 1e 09 bc af da 40 bb c4 c4 29 3d
       0.034382492 -0.008369143 -0.002942722 0.041447416
000170 d0 a9 33 3d 36 ac 0d bd 5d 11 f3 3c 0f 53 18 3d
       0.043863118 -0.03458806 0.029671365 0.037188586
000180 50 03 38 bd 43 d8 5f 3d f4 19 11 bd ca 9c 1f 3c
       -0.044925034 0.054649603 -0.03542514 0.009741971
000190 4b 57 57 bc 23 17 b3 3d c8 21 fd 3c b6 45 9a 3d
       -0.013143371 0.08744647 0.030899897 0.075328276
0001a0 1d 02 03 3d bc ae 0d 3d 98 60 f3 bb 6e b8 cd bc
       0.031984437 0.034590468 -0.0074272864 -0.025112357
0001b0 8c 1a e5 3c d6 53 48 3c de 37 1e 3c 0a 5d ac bc
       0.02796676 0.012227019 0.009656874 -0.021040458
0001c0 0f 0e 3f 3c 6f c4 ee 3c 7a 32 94 3c d5 0a 2f bd
       0.011661067 0.029146401 0.018090475 -0.04273494
0001d0 ff ae 2e 3d 84 b4 a1 bc 20 52 95 3c ce 6b f0 3c
       0.042647358 -0.019739397 0.018227637 0.02934828
0001e0 b1 a4 87 bd f4 fa 34 3d 72 bb 81 bd ca 4f b1 3c
       -0.06623209 0.04418464 -0.063345805 0.021644492
0001f0 4f 3a d9 ba 6d 1a c9 3c 81 b5 0d bd 2a be dc 3c
       -0.0016573163 0.024548734 -0.034596924 0.026946146
000200 44 62 23 bd 16 1e 84 bd 91 07 0f 3c d8 fb ea 3c
       -0.039888635 -0.06451051 0.008729831 0.028684542
000210 2f 96 48 3d b7 23 1c bc 7d 5c 8a 3d ea ed e7 3c
       0.04897135 -0.009529999 0.06755922 0.028311688
000220 a9 00 32 bd 35 b0 7a bd ff a3 14 3d 0d 6a 20 bd
       -0.04345766 -0.0612032 0.03628921 -0.039163638
000230 4a ce 0c 3c 29 db 38 bd 5b 81 1b 3d 7c ad d5 39
       0.008594105 -0.045130882 0.03796516 0.00040755782
000240 90 f2 63 3b 55 63 0d 3d a2 98 22 bd 39 24 48 bc
       0.003478203 0.03451856 -0.039696343 -0.012215667
000250 e9 63 6b 3a 51 37 f8 bc 6e 32 a8 bc c0 7d bf bc
       0.00089794263 -0.030299814 -0.02053186 -0.023375392
000260 d2 d6 8f 3d 3c f5 0e 3d cc 70 32 3d 35 65 38 3d
       0.070233956 0.034901842 0.043564603 0.045018394
000270 08 7e 92 bd 0f 27 80 3c eb a9 9a 3c 90 d7 54 bd
       -0.07152945 0.015643625 0.018879851 -0.05196339
000280 fd d6 b3 3c cb 07 0d bd a6 8a a5 3b 30 02 3f 3c
       0.0219531 -0.03443126 0.0050519286 0.011658236
000290 4a db 29 3d 3f 40 fc bc cb ec 5d bd 9e 81 15 3d
       0.041468896 -0.030792354 -0.0541809 0.036500566
0002a0 a3 dd d7 3c c3 d9 87 3c fe 48 ac bb f0 e3 ac bb
       0.026350802 0.016583329 -0.005257725 -0.0052761957
0002b0 c2 10 3e 3d 11 bd 3e bd 05 f9 7d 3c 5d 30 08 3d
       0.0464027 -0.046567027 0.015501265 0.033249248
0002c0 4e b3 3e 3d c3 11 e6 bc 85 11 05 bd d8 d3 0f 3d
       0.046557717 -0.028084641 -0.03248741 0.03511414
0002d0 73 5f 73 bd 28 31 5c bd 15 e3 65 bd 63 44 20 bd
       -0.0594172 -0.053757817 -0.056124765 -0.03912772
0002e0 e8 58 43 bc 97 7f 16 bd ea a1 dd bc c1 5d 4e bd
       -0.011923052 -0.036742773 -0.027054746 -0.05038238
0002f0 53 47 0c 3d dc de 2c bc e9 9a 0d bd af ba 87 3c
       0.034247708 -0.010551181 -0.034571562 0.01656851
000300 d9 d5 31 bd 10 5c 4e 3d c2 f8 5b 3d f6 60 6a bd
       -0.04341683 0.050380766 0.05370403 -0.057221375
000310 fe be eb bc 83 07 a5 bb df 92 8d bc f4 a0 be 3c
       -0.028777596 -0.005036296 -0.017281948 0.023270108
000320 01 17 30 bd d9 ba 25 bd e1 45 0a 3d ee ff 08 bc
       -0.04299069 -0.040461395 0.033758048 -0.0083618
000330 86 a7 ee bc 24 d4 52 bd 6a a3 00 3d ca 50 76 3c
       -0.029132616 -0.051471844 0.031405844 0.01503391
000340 a1 65 3c bc d0 78 c4 bc 71 e8 4f 3c 2f 30 c5 3c
       -0.01149884 -0.02398339 0.012689696 0.024070827
000350 c1 9a 27 3d d7 3c 32 3c e9 f0 c1 bb 08 ce e3 bc
       0.04091907 0.010878763 -0.0059186113 -0.027808204
000360 1f 90 3b 3d 5a d0 84 3c d0 58 bf bc 3b 7a 60 3d
       0.04579174 0.016212631 -0.023357779 0.054804068
000370 7f 77 48 3d 29 f0 08 bd 6c 58 f0 bc 8c d8 39 bc
       0.048942085 -0.03343216 -0.029339038 -0.011343133
000380 d5 7c 04 bd 98 19 15 3d 93 93 12 bd 9a c9 63 3d
       -0.03234561 0.03640136 -0.03578527 0.055612184
000390 c4 bb f0 bc 4f 6f f8 3c 8c 07 27 3a 4c bd 1c bd
       -0.029386409 0.030326514 0.0006371669 -0.038266465
0003a0 e2 95 07 3d f2 be 19 bd 34 3c f0 bc cd 67 be 3c
       0.033101924 -0.037535615 -0.029325582 0.023242855
0003b0 31 e9 90 3d 5b bb 95 bc 32 72 8b bc f2 5e 60 bc
       0.07075728 -0.018277815 -0.017022226 -0.013694512
0003c0 61 f8 a7 bc f4 c9 45 bc 4a b2 67 ba 46 fc 53 bd
       -0.020504178 -0.012072075 -0.0008838518 -0.05175426
0003d0 0f a7 f0 3a 65 6b cc bb 1a 2d 40 bd 07 f8 2d bd
       0.0018360334 -0.0062383884 -0.046918012 -0.042472865
0003e0 15 db 6e 3c 77 d0 63 ba 71 a2 24 3d ee a6 bc bb
       0.0145786 -0.00086904265 0.04019398 -0.0057572043
0003f0 33 a2 f0 bc ee 4a e3 bc ca eb 1b bc e4 a3 7e bb
       -0.029374218 -0.02774569 -0.009516666 -0.003885501

conv2.bias f4 [32]
000000 da 09 0f 3d 4e 0d 20 3a 42 fa d8 bc 73 6e 55 3c
       0.034921505 0.0006105498 -0.02648652 0.013026821
000010 82 95 8a 3d e0 a4 1b bc 80 52 ea 3c ca 4e 72 3b
       0.067667976 -0.0094997585 0.028603792 0.0036973231
000020 cd a3 bb 3b 8f 52 3e 3d a0 c1 50 3d 1f c8 88 3c
       0.0057263137 0.046465453 0.050965905 0.016696988
000030 fe 29 ad 3c c7 31 4c 3c bf 5d 40 3d 35 7c 4a 3d
       0.021138187 0.01246304 0.046964403 0.04943486
000040 50 fc 14 bc ce 68 36 3d 00 80 34 3d a1 86 17 bd
       -0.009093359 0.044533543 0.044067383 -0.036993627
000050 36 dc 1e bd 6e 8b aa 3c d2 a2 c6 bc 62 d5 55 3c
       -0.03878423 0.020818438 -0.02424756 0.013051363
000060 ef 6e be 3c bb 8e ac 3c bb 28 2d bd fe e4 b5 bc
       0.023246257 0.021064153 -0.04227517 -0.022203919
000070 92 39 a8 3c ba 47 26 3d 68 8c 37 3d 90 e5 05 3d
       0.020535264 0.040595748 0.044811636 0.03268963

conv3.weight f4 [32, 32, 3, 3]
000000 ce de e6 3c 82 61 32 bc b2 5c 2b 3d 27 66 23 3d
       0.028182413 -0.0108875055 0.041836448 0.039892342
000010 7f 1a e7 3c 1d 14 7d 3c 2f 16 8a bd 8f a9 db bb
       0.028210877 0.01544669 -0.067425124 -0.0067035626
000020 33 97 51 bd c5 50 8f 3d e5 2e 63 3d 9a ed 91 3c
       -0.051169585 0.069978274 0.055464644 0.017813493
000030 19 b2 38 3d 6d 0a 13 bd 11 14 29 bd f2 e7 08 bd
       0.045091722 -0.035898615 -0.041278902 -0.033424325
000040 e6 79 db 3c 52 5f 06 3d cf b5 b4 bc e7 79 65 bc
       0.026791524 0.03280575 -0.02205935 -0.014006115
000050 19 ed 2f 3c 00 e4 b8 bb f3 89 22 bb 43 c4 02 3d
       0.010737681 -0.005642414 -0.0024801462 0.03192545
000060 1e 62 2b bd 63 f9 8b bd ee 74 bc 3c 12 b1 73 3d
       -0.04184162 -0.06834676 0.023004975 0.05949504
000070 df 07 66 3d 1a ad d1 bb ff f6 be bc 4a 29 50 bc
       0.05615985 -0.006398809 -0.023311136 -0.012705157
000080 8a 4f 19 bd d3 5f 88 bd c4 ca 15 bc ac 94 84 bc
       -0.03742937 -0.06658902 -0.009142581 -0.016184174
000090 bb ce 8e bc 32 f9 08 bd e0 bf 47 bd de b1 68 3c
       -0.017432561 -0.033440776 -0.04876697 0.014202563
0000a0 2c 20 15 bc a5 9c 8f bc 8f ad 24 3d 41 88 28 bb
       -0.009101909 -0.017530749 0.04020458 -0.002571598
0000b0 55 d7 92 3c 35 a2 98 3d 1f 24 44 3d c6 49 b4 3c
       0.017924944 0.074528135 0.04788601 0.022007834
0000c0 86 e1 4f 3d de fa 4b 3d b1 21 12 3d e9 cc 27 bd
       0.050752185 0.049799792 0.035676662 -0.040966902
0000d0 fe 86 3a 3d 52 5b 85 bc 00 57 44 3d c0 77 4f 3c
       0.045538895 -0.016278896 0.047934532 0.012662828
0000e0 5d bf 38 3d aa 38 e7 3c 50 58 1c bc c6 4e 4f 3d
       0.045104373 0.028225262 -0.00954254 0.050612234
0000f0 48 c5 1b bd ca 1f 3a bd 33 40 6a 3c 55 7f 83 3d
       -0.03802994 -0.045440473 0.014297533 0.06420771
000100 af 5b eb 3b 27 d7 7b 3d 3a df 59 bc b4 d5 fc 3c
       0.0071825604 0.061484482 -0.01329785 0.03086362
000110 8b 03 9b bc b4 55 d1 36 7f 65 e0 bc a4 66 0e bd
       -0.018922588 6.2386625e-06 -0.027392147 -0.034765854
000120 78 e6 eb bc b0 ac 18 3d 29 97 da bc cb d3 06 bb
       -0.02879642 0.037274063 -0.026683407 -0.0020573016
000130 ee cb 1b 3d 18 0e 6c 3d c0 25 0c b6 ae 1d 5d bd
       0.03803628 0.05763063 -2.08836e-06 -0.053983383
000140 3e de 1f 3d d9 f3 4f 3d 92 50 10 3d 37 07 e6 bc
       0.039030306 0.05076966 0.035233088 -0.028079612
000150 c0 ea 9e bc cb a2 08 3d 88 4f 35 bc 93 8a 38 bd
       -0.019399047 0.033358376 -0.011066325 -0.04505403
000160 57 d6 48 3b 7d d6 1e bb df 39 c5 bb 72 29 01 bc
       0.0030645335 -0.0024236732 -0.0060188617 -0.0078834165
000170 1b a0 83 bd f0 0f a0 bd 77 c7 41 bd 5e 53 60 bd
       -0.06427022 -0.0781554 -0.047309365 -0.054767005
000180 c8 be 23 bd a4 4e 83 bd 60 86 04 ba 6c b8 0f ba
       -0.039976865 -0.06411484 -0.0005055424 -0.0005482498
000190 31 85 c3 bb 4d 30 38 3c 24 1c 6a 3d e8 78 92 3d
       -0.0059668054 0.011241985 0.057155743 0.07151967
0001a0 38 f0 0c 3d 86 35 9f 3d ca b9 0f bc 91 6c 17 3d
       0.034408778 0.07773881 -0.008772323 0.03696877
0001b0 f2 8b 83 3d 18 a3 42 3d cf dc 83 3d 65 7c dd 3c
       0.06423177 0.04751882 0.064386 0.027036855
0001c0 90 4d af 3c 8a 30 4e 3d 61 c2 9a 3d 55 19 0d 3d
       0.02139929 0.05033926 0.07556606 0.034447987
0001d0 cf d4 58 3c 08 0b ef ba ae 84 0c bd 6b 1a 31 bc
       0.013234331 -0.001823754 -0.03430622 -0.010809521
0001e0 72 7a 44 bd 5c 95 dd bb 7e 74 20 3d 7d a7 7b 3d
       -0.047968335 -0.00676219 0.039173596 0.061439026
0001f0 8c f8 27 3c 0b cf 7c 3c 11 71 39 3a 62 bb 44 bd
       0.010252129 0.015430222 0.0007074038 -0.048030265
000200 34 92 5c 3d 42 5b 1b bc a5 4a 47 bd ae 8f ec bc
       0.053850368 -0.009482207 -0.04865517 -0.028877106
000210 02 f2 fe bc 48 36 3d bc 13 ce 1f ba 9b 12 bc 39
       -0.031121258 -0.011548586 -0.0006096076 0.00035872016
000220 b1 81 5b 3d 0c 33 29 bd 07 9b 61 bd c9 a2 67 bd
       0.05359048 -0.041308448 -0.055079486 -0.05655173
000230 a2 f1 43 3c 97 ce 29 3d d2 85 3e 3d 1d 67 40 39
       0.011959465 0.041456785 0.04651434 0.0001834896
000240 bb 26 3d 3b 3b ff 1c 3d d5 21 0c 3d a5 50 3b bd
       0.0028862196 0.038329344 0.034211952 -0.045731205
000250 37 12 8c bc 9d 81 5a bd bb 2e 40 3d a1 3a f7 3c
       -0.01709853 -0.053346265 0.046919566 0.030179324
000260 11 3e ce bc 5a 01 fe 3a 64 24 7e 3c 95 3a 84 3d
       -0.02517608 0.0019379065 0.015511606 0.06456486
000270 e6 52 1a 3d 61 7d 31 bd 87 a2 cc bb 75 8f 19 3c
       0.037676714 -0.04333246 -0.0062449607 0.009372582
000280 b5 70 2f 3d 83 86 d2 bc 36 83 1b 3d 65 b8 6f 3c
       0.042832095 -0.025698906 0.03796693 0.014631365
000290 e8 56 60 bc 47 ec c3 3c 81 13 4e 3c 8f 6d e3 bc
       -0.013692595 0.023916377 0.012577892 -0.027762203
0002a0 21 16 f4 3a 5e 57 d5 b9 3c b9 41 bc 15 07 99 3c
       0.0018622318 -0.0004069162 -0.0118239485 0.018680135
0002b0 60 17 96 bc f7 3b 4c bc 6b ca 2d bb 80 09 18 3d
       -0.018321693 -0.012465469 -0.0026518356 0.037118435
0002c0 f7 1c 55 3c f5 a2 3a bd e4 71 3f 38 b8 68 89 3c
       0.013007394 -0.045565564 4.5644018e-05 0.016773567
0002d0 c6 88 81 bc 66 58 90 3b a9 d8 ff 3c c7 a1 90 3d
       -0.015812289 0.004405069 0.031231241 0.070621066
0002e0 87 93 6b 3d 1c a1 7b bb 94 ed 85 bc 53 d1 4f 3d
       0.05751374 -0.003839559 -0.016348638 0.050736737
0002f0 fa b6 e4 3c b5 07 84 bb 1c ec 57 3d 9e c0 ca bc
       0.027919281 -0.004029239 0.052715406 -0.02475005
000300 56 3f 39 3d 80 45 17 3d 41 20 9f 3d 58 09 0c 3b
       0.045226417 0.036931515 0.07769824 0.0021367874
000310 9b a1 bb bc 5b ee 9a 3d 1f da ba bb 09 f5 4e bd
       -0.022904208 0.07564994 -0.0057022716 -0.050526652
000320 87 b9 3f bc c7 db 2e 3d b4 23 31 bd b9 c3 3c 3c
       -0.011701948 0.042690065 -0.04324694 0.011521273
000330 44 a6 9b bd 79 9d 00 bd e2 51 04 bd 6a 9e 90 bc
       -0.07600072 -0.031400178 -0.032304652 -0.017653663
000340 c9 db ee bc d4 59 26 bd ea 7f 8c 3b a1 ce 62 3c
       -0.029157536 -0.04061301 0.0042877095 0.0138432095
000350 34 9d 20 ba 9d 4d 9c bb c5 16 60 bd 21 d9 57 3c
       -0.0006126941 -0.0047699944 -0.054709215 0.013174326
000360 1c 75 1f 3d 9a c8 90 3d ba ca 69 3d b1 6a 9b 3d
       0.038930044 0.07069512 0.0570781 0.07588709
000370 90 10 34 3d f8 54 06 bd ec ab 2c 3d 9b 13 cd ba
       0.043961108 -0.032795876 0.042156145 -0.0015646102
000380 6d 6b 16 3c 53 c6 98 3c f9 62 21 bb a7 c0 b8 bc
       0.009180886 0.018649256 -0.0024625643 -0.022552801
000390 99 c9 26 3c 17 01 8b 3c e1 6c 90 3c fe ff e7 bc
       0.010179901 0.016968293 0.017630043 -0.028320309
0003a0 21 57 30 bd af ae 5d bd ad 8e 3d bd 7c 4c 84 bc
       -0.043051843 -0.05412167 -0.046278644 -0.016149752
0003b0 7c b7 f5 bc a0 85 3f 3d 4d da c1 bc e1 e3 ce bc
       -0.029994719 0.046758294 -0.023663664 -0.025255146
0003c0 e4 85 1c bd 8f 03 07 bd 07 3b 0b 3d 9b 33 5c 3d
       -0.038213626 -0.032962378 0.03399184 0.053760152
0003d0 9e dc 43 3d ef ea 21 bd f4 78 86 bc 90 e6 47 bd
       0.04781782 -0.03953069 -0.016415097 -0.048803866
0003e0 c8 3d fe 3c 05 40 5a 3d 72 a9 45 bd c2 2c 2d 3d
       0.031035319 0.05328371 -0.0482573 0.042279013
0003f0 83 25 23 bd 82 be 8c bd f2 32 23 3c d6 ba 9b bd
       -0.039830696 -0.06872274 0.009960877 -0.076039955

conv3.bias f4 [32]
000000 05 0b 7f 3d de 0c 5d 3d 16 53 a0 3c 89 b6 a9 3c
       0.06226637 0.05396735 0.019570868 0.020716922
000010 c2 d1 05 bd 7e d2 26 bd 61 19 38 3a e0 fb cd bb
       -0.032670744 -0.040728085 0.0007022825 -0.0062861294
000020 6c 00 5c 3d 3b 72 5d bd d6 1c c6 bc 14 a7 29 3b
       0.05371134 -0.054064017 -0.024183672 0.002588694
000030 75 f1 6b 3c 0b 38 49 bc 97 5c 03 bd 03 f9 7a bc
       0.01440083 -0.012281428 -0.032070722 -0.015318158
000040 86 c5 2d bc fe 9e fd bc f2 23 46 3d bd 6d 6b 3d
       -0.010606175 -0.030959602 0.048374124 0.0574777
000050 eb e1 d6 bb e4 63 3b 3b 27 41 63 bb fb 5f db bc
       -0.0065576932 0.0028593475 -0.0034676285 -0.026779165
000060 bd 18 24 3d e0 2f 52 3d d3 78 51 3d c1 93 3c bc
       0.040062655 0.05131519 0.051140618 -0.011509837
000070 79 21 15 3d 39 f6 d1 3c 8f 4e 89 bc 4a 90 ba bc
       0.036408875 0.025630103 -0.016761092 -0.02277388

fc1.weight f4 [10, 2592]
000000 de 38 29 3c 3d 31 f9 3a 57 70 70 bc a9 dd 6f bc
       0.0103285 0.0019011867 -0.014675221 -0.01464025
000010 d4 29 5f 3c b8 be 1d bc 88 8d 8d 3c 39 1a 9a 3b
       0.013620812 -0.00962799 0.017279401 0.004702833
000020 0e 55 3f 3c 47 fb d9 bb 1f 17 8d bc ab 96 93 bc
       0.011677993 -0.006652269 -0.017222939 -0.01801618
000030 e7 81 95 bc 97 fa 21 3c 52 35 a0 3b eb 8b 96 bb
       -0.018250419 0.009886405 0.004889169 -0.0045943162
000040 09 9e 87 3c 03 99 86 bc b3 66 89 bc 83 1b 98 bc
       0.01655485 -0.016430384 -0.016772604 -0.018567806
000050 2f be 60 ba 36 86 a4 bb bb 21 cd 3b a2 17 ef ba
       -0.00085732614 -0.005020882 0.0062601245 -0.0018241296
000060 ed af 64 bc 0c 61 b5 bb 9c f3 5d bc 52 40 86 bc
       -0.01395796 -0.0055352505 -0.0135468505 -0.016388092
000070 41 4d 67 3c 46 77 da ba f3 ec 8a bc 5e 0b 7b 3c
       0.01411754 -0.0016667626 -0.01695869 0.015322534
000080 ff 24 69 3c c6 5f 72 3c 1f b3 cf 3a f7 18 22 3c
       0.014230012 0.014793342 0.0015846229 0.009893647
000090 91 43 67 3c 75 e4 8c bc 45 a7 df 3b e0 c7 88 bc
       0.01411523 -0.01719878 0.00682536 -0.01669687
0000a0 2a a8 5c ba 72 2b 11 3c 4f ea 82 3c ad d8 5d bc
       -0.00084173924 0.008860456 0.015980868 -0.013540429
0000b0 b9 02 17 ba 73 22 15 bc 4e 36 03 bb a7 3f 67 ba
       -0.00057605986 -0.009102452 -0.0020021382 -0.00088214356
0000c0 10 44 5e bc 3d 3b 46 bc 03 44 00 bb 10 65 9c 3c
       -0.013566032 -0.012099084 -0.0019571788 0.01909116
0000d0 d9 c7 85 bc 4d cd 60 bc a7 8f 71 3c bc f3 7c bc
       -0.016330646 -0.0137208225 0.014743722 -0.01543897
0000e0 ce 3b 2e bc c4 f3 9f 3a 2d 57 18 3c a4 86 e0 bb
       -0.010634376 0.0012203385 0.009298128 -0.006851988
0000f0 b8 6a 4e bb 43 00 b6 bb 76 d5 35 bc 50 cc 21 3c
       -0.0031496715 -0.0055542304 -0.011098256 0.009875372
000100 ce f3 30 bb 9e c2 9a 3c 8f 22 9a bc 66 cb 46 bc
       -0.0027000788 0.018891629 -0.018815307 -0.012133455
000110 c6 38 42 3c 22 cc 95 bc e0 2e 6b 3c ee fe ef ba
       0.011854356 -0.018285815 0.014354438 -0.0018310228
000120 a5 58 5b 3b b6 b5 93 3c ca f3 12 3c 14 60 05 bc
       0.0033469584 0.018030982 0.008969257 -0.008140583
000130 c9 89 6d bc 77 0a 78 bb 26 1d 3c bc 1f 4e 21 3c
       -0.014498183 -0.0037848034 -0.011481559 0.009845286
000140 4d 59 f0 ba f9 65 b3 ba 54 36 6b bc d6 93 af 3a
       -0.001833716 -0.0013687006 -0.014356215 0.0013395499
000150 1b 69 89 bc f6 91 55 bc 0a f2 9d 3b 59 57 d2 ba
       -0.016773751 -0.013035288 0.004820113 -0.001604776
000160 0c 6d 0b bb 25 5f 83 3c 22 c4 9e bc 89 d8 02 3c
       -0.0021274714 0.01603658 -0.019380633 0.007986196
000170 da 1e 6c 3c ef f1 e0 bb a6 75 d4 3b 19 4f 20 bc
       0.014411652 -0.006864778 0.0064837513 -0.009784483
000180 3f ed e1 3b 8b cf 54 bc 6c af 92 bc 65 4e 28 3c
       0.006894737 -0.012988935 -0.017905913 0.010272597
000190 00 09 90 bb 00 6c e9 bb 0c 7e 90 bb 69 81 20 3c
       -0.004395604 -0.0071234703 -0.004409557 0.009796479
0001a0 9a ed 6e bc 5d 6e 60 bb 17 b0 59 bc d8 96 8e bb
       -0.014583016 -0.003424547 -0.013286612 -0.004351478
0001b0 aa 5f 25 3c 8e 7b 27 bc ad 91 75 bb e2 0f ec 3b
       0.010093609 -0.010222329 -0.0037470863 0.007204042
0001c0 71 f5 13 bb d2 f3 22 bc f8 0d f8 39 13 14 15 3c
       -0.0022576714 -0.009945827 0.00047312654 0.009099024
0001d0 3a 83 67 3b b9 17 5b 3c d5 50 02 3c 0b e2 89 bc
       0.003532602 0.013372355 0.007953842 -0.016831418
0001e0 7f a2 47 bc 49 a4 8b 3b b5 83 38 bc 07 ca 6e bb
       -0.012184738 0.0042615277 -0.01126187 -0.0036436336
0001f0 72 84 2e bc 46 e7 56 bc a4 ba 7d bc 93 18 7c bc
       -0.010651695 -0.013116663 -0.015486393 -0.015386718
000200 3c d3 5c bb 28 a5 9f bc 5d 02 1d 3c fb c6 03 bb
       -0.0033695241 -0.019487932 0.009583083 -0.0020107615
000210 fd 3d 96 bb d1 d6 49 3c 0d 41 2d 3c bb 67 8e bc
       -0.0045850263 0.012319283 0.010574591 -0.017383447
000220 05 25 54 bc b5 0e d0 3a 0f e8 71 bb 0f 62 31 3b
       -0.012948279 0.0015873524 -0.0036912 0.0027066504
000230 d4 c7 92 bb 31 14 14 bc b0 58 7f 3c e4 9d 52 bc
       -0.004479388 -0.009038017 0.01558511 -0.012855027
000240 a1 ba 00 3b ab 50 86 bc 55 dc 69 bc 4b be e4 bb
       0.001964249 -0.016395887 -0.014273723 -0.0069806925
000250 b2 64 f6 3b ca 55 c2 3b 3b ea 97 3c 85 97 a0 bc
       0.007519328 0.005930637 0.018544307 -0.0196035
000260 70 61 0b 3c ee d1 10 3b 18 cb 99 3b 7e 46 ce 3b
       0.008507118 0.0022097784 0.0046934 0.0062950244
000270 b5 b9 4f bb 35 16 ab 3b ab dd 2a bb 5a 5a c6 bb
       -0.0031696383 0.005221153 -0.0026072066 -0.006053251
000280 33 be f6 3b 47 3f 9e 3c c9 91 75 bb 5b bd e0 3b
       0.0075299977 0.019317282 -0.0037470928 0.0068585104
000290 25 8b 19 3b 28 39 5b bb 28 ea 9f 3c bf c4 a2 bb
       0.0023428884 -0.0033450816 0.019520834 -0.0049673016
0002a0 9c 69 18 3c 06 bc ea 3b f8 87 57 b8 e7 83 9f bb
       0.009302523 0.0071635274 -5.1386625e-05 -0.004868019
0002b0 ac a1 99 bc 92 a6 5d 3c 54 10 d9 3b 14 9c 17 bc
       -0.018753849 0.013528483 0.006624261 -0.0092535205
0002c0 ff 4b 82 bc c1 6c 67 bc 86 36 9c bc 1c f0 08 3c
       -0.015905378 -0.01412505 -0.019068968 0.008358028
0002d0 7e 06 b1 3a e4 0e 73 bc 31 78 6e bc 21 3c 90 bc
       0.0013505963 -0.014835093 -0.014555023 -0.017606797
0002e0 bc c3 ea bb 62 6f 2d bc b1 88 27 3c 54 0d 1b bc
       -0.0071644466 -0.010585638 0.010225461 -0.009463627
0002f0 c4 c1 0f 3b d4 28 5c 3a 5a 0b 8c 3c cc 05 7b bc
       0.0021935562 0.0008398418 0.017095257 -0.015321206
000300 79 8c 6f bc 0f b6 80 3c d0 b1 6c 3b 21 03 73 bc
       -0.014620894 0.015711812 0.0036116727 -0.014832289
000310 78 bc 89 bc 2a e8 fe bb cc 08 05 bc 62 14 44 3c
       -0.016813502 -0.007779141 -0.008119773 0.01196775
000320 9d 15 de 3b c8 2e 24 bc 55 c1 05 bc 71 ca 72 bb
       0.006777479 -0.010020919 -0.00816377 -0.0037046934
000330 ed bb 08 3c cb 22 7e bc 62 92 97 3c 1d b5 24 bc
       0.008345586 -0.015511225 0.018502418 -0.010052946
000340 f9 5f 00 bc ac 42 89 bc 7e 62 1a bc 6f d4 73 3c
       -0.007835382 -0.016755424 -0.009422896 0.014882191
000350 70 f6 9d bc 42 7c c4 3b 87 42 46 bc 20 bc a3 b9
       -0.01928255 0.005996258 -0.012100822 -0.00031229947
000360 c6 08 6b bc 4f e9 91 3c 7f f7 3c 3b 9e 24 48 bc
       -0.0143453535 0.017811446 0.0028834043 -0.0122157615
000370 b2 ba 89 bc b3 55 9f bc cd 80 9e ba 35 55 80 3c
       -0.016812656 -0.019450044 -0.0012092829 0.01566563
000380 aa 26 9a bc b2 0d b9 bb 3b 7d 1d 3c 4d b6 02 bb
       -0.018817265 -0.0056473846 0.009612377 -0.0019945086
000390 2f c3 8c 3c c9 ee 12 3c 19 45 6c bc 58 2f 6e bc
       0.017182915 0.008968064 -0.014420771 -0.014537655
0003a0 fa 40 42 3c ea 89 21 3c fa 82 60 3c 21 7a b2 3a
       0.011856312 0.009859541 0.013703102 0.001361672
0003b0 cf ac 08 3c f3 4a ff ba 61 32 9e 3c f5 ce 0d 37
       0.008341982 -0.0019477293 0.019311132 8.452441e-06
0003c0 50 57 2d bc f2 e2 94 3c f8 b0 0b bb d0 40 6f 3b
       -0.010579899 0.018174622 -0.0021315198 0.0036507137
0003d0 4d 49 83 bc 0c 8d 90 3b dc c8 fe 3a 37 49 92 bb
       -0.016026163 0.0044113453 0.0019438523 -0.0044642943
0003e0 ef 38 22 bc c7 b1 db bb 2b 73 8e 3c f8 60 87 bc
       -0.009901269 -0.0067045423 0.0173889 -0.01652573
0003f0 54 46 9a bb 8c 4c 7c 3c ee 60 f5 3b 90 68 0a bb
       -0.004708091 0.01539911 0.0074883616 -0.0021119453

fc1.bias f4 [10]
000000 4f f1 1d bb b0 c3 99 ba f0 d5 93 ba 01 b9 b7 3b
       -0.002410013 -0.0011731293 -0.0011278968 0.005606771
000010 2e ed 33 bc a4 92 42 bc 81 e9 60 3c a3 c3 b0 3c
       -0.010981841 -0.011875782 0.013727547 0.021577662
000020 6c ed 95 bc 47 0c 84 bc
       -0.018301688 -0.016119136
