tests/new_zipfile_serialization/cpu/mnist_state_dict.pt (torch, 181999 bytes, 8 tensors)

conv1.weight f4 [32, 1, 3, 3]
0.24066812 -0.10643286 -0.119145334 0.18098745 -0.3728054 0.22352798 -0.087765686 0.09530837
0.02886066 -0.0612546 0.099260144 -0.033669606 0.12662402 -0.1645017 -0.08305992 -0.05725194
0.03575633 0.018183174 0.2685959 0.094058655 -0.20755374 -0.2263957 -0.16155796 -0.18576536
-0.0672293 -0.0275069 0.22033471 0.1459143 -0.28186318 0.24182637 0.043734748 0.35252488
0.2194401 -0.4467228 -0.44880477 -0.34801525 0.25738198 -0.105730586 0.07819937 -0.067021586
0.300613 -0.25632203 0.26932776 -0.046634868 -0.3234482 0.15691361 -0.12991382 0.09854327
-0.09592906 -0.04660416 -0.24803191 -0.14027561 0.15727155 -0.0076287105 0.19738984 0.21056032
-0.06120594 -0.36556426 0.14429867 0.035671413 -0.36778665 0.120545164 0.137469 0.30701372
-0.15868165 -0.14553064 0.044540904 0.103578165 -0.22927958 -0.13900588 0.29694337 0.0055932733
0.100297935 -0.013692527 0.079847954 0.01234647 0.08447102 0.121153325 -0.42438564 0.104683116
-0.28422666 -0.35431007 -0.037877806 -0.1044123 0.16552414 -0.17491415 -0.30194008 0.26147538
-0.0070606475 0.21164818 0.23055708 -0.19971216 0.004482379 0.22801405 -0.14701465 -0.16875678
0.16811186 0.081344746 -0.070938446 -0.14645207 0.23989561 -0.17909576 0.13502592 0.12076108
-0.2651186 -0.34278098 0.3189824 0.045439117 0.16478233 -0.003117691 0.033616237 0.114706405
0.13357192 -0.36316073 -0.08844562 0.12821801 0.1678089 0.01869335 -0.35868677 -0.26436633
-0.28579953 0.028596196 0.39791778 -0.094756104 0.26621 -0.13141708 -0.47650978 -0.13643983
0.12204669 0.24316211 -0.2283132 0.029745204 0.25523818 0.16670977 0.13574025 0.31014827
0.2799258 0.10191468 -0.15892929 -0.20481916 -0.2541664 -0.081034675 -0.14347127 0.114009745
-0.0041854316 -0.1630432 0.07999785 -0.023831159 0.08031309 0.14142068 -0.15009795 0.24317823
-0.11024253 0.033091053 -0.28068587 -0.16183189 -0.14685512 -0.08712237 0.27839622 -0.10688301
-0.23300937 0.1289188 0.1312425 0.266858 -0.26184902 0.13303798 -0.09955417 -0.30678505
-0.40931544 -0.2519585 -0.102140464 0.06293652 -0.08799219 -0.05167977 0.2134771 0.18026872
0.13507862 -0.06854538 -0.2793069 0.1942794 0.0075538866 -0.031736888 -0.31528324 -0.0323348
-0.21960436 0.26183817 -0.2266916 -0.13023779 -0.048896335 -0.11872328 0.14962563 -0.09998241
-0.13412745 -0.024024637 0.19565742 -0.29460782 0.035152245 0.1597827 0.22808939 -0.3025647
0.02714118 -0.24406296 0.253297 -0.16821562 0.1869838 -0.06536207 -0.14412244 -0.098658144
0.013446267 0.084949724 -0.008429243 0.050956577 -0.39997363 0.16349745 0.18962796 0.18029495
0.2570484 -0.3190968 -0.15903895 0.27484363 -0.3783303 0.3033482 -0.26562202 -0.35495588
0.16775768 -0.34500438 -0.12447656 0.2320665 0.2667406 0.30032012 -0.085666545 -0.22339067
0.22348969 -0.2767974 -0.12134959 0.058422558 -0.3326926 0.21428466 0.23711298 -0.22488348
-0.20069766 0.025153812 0.18581416 -0.02350783 -0.15616584 -0.019035129 -0.36045605 -0.27076173
-0.2475175 0.33921024 0.3463141 -0.06548802 -0.022447005 0.07429874 -0.046567854 -0.28061938
00000000: b471 763e 79f9 d9bd 7802 f4bd c654 393e
00000010: 59e0 bebe 85e4 643e 7fbe b3bd 0931 c33d
00000020: 316d ec3c 1ae6 7abd e748 cb3d 24e9 09bd
00000030: baa9 013e 2273 28be 521b aabd 0381 6abd
00000040: 3b75 123d e1f4 943c 6785 893e d3a1 c03d
00000050: f888 54be 46d4 67be 736f 25be 4639 3ebe
00000060: 84af 89bd 2656 e1bc 6c9f 613e 8f6a 153e
00000070: 5f50 90be 55a1 773e 3523 333d 247e b43e
00000080: e8b4 603e dab8 e4be bdc9 e5be 0e2f b2be
00000090: 92c7 833e 4789 d8bd fe26 a03d 9d42 89bd
000000a0: f2e9 993e a43c 83be 54e5 893e 3404 3fbd
000000b0: 019b a5be f6ad 203e 2108 05be 0ed1 c93d
000000c0: 7476 c4bd 01e4 3ebd 14fc 7dbe 69a4 0fbe
000000d0: cb0b 213e 43fa f9bb 9020 4a3e 209d 573e
000000e0: 14b3 7abd 3d2b bbbe 08c3 133e 301c 123d
000000f0: 884e bcbe 62e0 f63d acc4 0c3e e730 9d3e
00000100: 717d 22be fc05 15be 8670 363d ca20 d43d
00000110: 44c8 6abe 8f57 0ebe f608 983e c747 b73b
00000120: 0169 cd3d 9f56 60bc 5387 a33d d948 4a3c
00000130: 24ff ac3d 3c1f f83d 1349 d9be 1a64 d63d
00000140: 2886 91be 2168 b5be c225 1bbd 1ed6 d5bd
00000150: 297f 293e b21c 33be e497 9abe 1ae0 853e
00000160: 015d e7bb 4dba 583e 2817 6c3e 5881 4cbe
00000170: ece0 923b 847c 693e 028b 16be 94ce 2cbe
00000180: 8425 2c3e 1398 a63d 2d48 91bd 88f7 15be
00000190: 32a7 753e e164 37be 3c44 0a3e 9651 f73d
000001a0: a0bd 87be fd80 afbe a951 a33e 5e1e 3a3d
000001b0: b3bc 283e 2d52 4cbb 2eb1 093d 31eb ea3d
000001c0: 14c7 083e 34f0 b9be fa22 b5bd 954b 033e
000001d0: 19d6 2b3e cc22 993c cba5 b7be 065b 87be
000001e0: 5154 92be 9242 ea3c e1bb cb3e 7d0f c2bd
000001f0: ad4c 883e 3392 06be 17f9 f3be e2b6 0bbe
00000200: 9df3 f93d 7dff 783e efca 69be 37ac f33c
00000210: 94ae 823e f7b5 2a3e 7eff 0a3e c1cb 9e3e
00000220: 6f52 8f3e a5b8 d03d 5cbe 22be 1dbc 51be
00000230: 1922 82be 82f5 a5bd 22ea 12be f17d e93d
00000240: f225 89bb ccf4 26be ead5 a33d 9039 c3bc
00000250: 307b a43d 95d0 103e 47b3 19be b703 793e
00000260: d6c6 e1bd 7c8a 073d 0fb6 8fbe 42b7 25be
00000270: 3061 16be 376d b2bd f389 8e3e 7be5 dabd
00000280: 029a 6ebe 4a03 043e 6f64 063e 9da1 883e
00000290: 1311 86be 1c3b 083e 0fe3 cbbd ee12 9dbe
000002a0: cb91 d1be b400 81be 052f d1bd dde4 803d
000002b0: 4035 b4bd 2bae 53bd be99 5a3e 5d98 383e
000002c0: 0d52 0a3e 8561 8cbd 5001 8fbe 2ef1 463e
000002d0: 9886 f73b 8afe 01bd ce6c a1be 7f71 04bd
000002e0: f7df 60be a70f 863e d821 68be 0e5d 05be
000002f0: 8647 48bd 3125 f3bd 7637 193e 94c3 ccbd
00000300: b558 09be 51cf c4bc 6b5a 483e d6d6 96be
00000310: cdfb 0f3d 139e 233e 4490 693e c3e9 9abe
00000320: 2e57 de3c a4eb 79be 25b0 813e b740 2cbe
00000330: ae78 3f3e 8ddc 85bd d594 13be 480d cabd
00000340: bb4d 5c3c 1ffa ad3d cf1a 0abc d8b7 503d
00000350: 58c9 ccbe e06b 273e d52d 423e 3d9f 383e
00000360: d99b 833e a860 a3be 1bdb 22be 4eb8 8c3e
00000370: 82b4 c1be 7550 9b3e 9cff 87be c7bc b5be
00000380: abc8 2b3e 6aa4 b0be 91ed febd d7a2 6d3e
00000390: 3992 883e 8fc3 993e f171 afbd 86c0 64be
000003a0: 7bda 643e 64b8 8dbe 2286 f8bd 7e4c 6f3d
000003b0: af56 aabe 706d 5b3e bfcd 723e db47 66be
000003c0: b083 4dbe 5e0f ce3c 1146 3e3e 7e93 c0bc
000003d0: f0e9 1fbe 8fef 9bbc b28d b8be 48a1 8abe
000003e0: 3a75 7dbe f7ac ad3e 1550 b13e 951e 86bd
000003f0: c8e2 b7bc f029 983d efbd 3ebd 58ad 8fbe

conv1.bias f4 [32]
-0.15148523 -0.083063506 -0.13204871 -0.23824717 0.028849553 -0.040772893 -0.16787918 -0.23606554
-0.21431783 -0.05058157 -0.2071669 -0.27446392 -0.19717318 -0.2018921 -0.056526802 -0.14848362
-0.16205195 -0.19871761 -0.32783255 0.12532139 -0.00671404 0.07891348 -0.1210849 -0.24001308
-0.2837312 -0.23507865 0.0572394 -0.2656967 -0.22405931 -0.12871803 0.05863098 -0.10108221
00000000: f21e 1bbe 331d aabd c737 07be 11f7 73be
00000010: e655 ec3c 7a01 27bd 85e8 2bbe 2abb 71be
00000020: 2276 5bbe 9f2e 4fbd 8f23 54be 8986 8cbe
00000030: c4e7 49be cdbc 4ebe a688 67bd 170c 18be
00000040: f2f0 25be a17c 4bbe abd9 a7be 4054 003e
00000050: 7301 dcbb 649d a13d 5cfb f7bd fdc5 75be
00000060: 3745 91be 75b8 70be dc73 6a3d 6609 88be
00000070: ce6f 65be a9ce 03be 0a27 703d 3104 cfbd

conv2.weight f4 [32, 32, 3, 3]
-0.05441563 -0.059550904 -0.048987277 -0.061879188 -0.02789588 -0.06324845 -0.06432304 -0.02268503
-0.08314121 -0.026225433 0.015064213 0.011740371 0.041520294 -0.04853688 -0.015460423 -0.022445593
-0.0393784 -0.05783808 -0.03075471 -0.044125114 -0.06500291 -0.08212426 -0.09012053 0.027891513
-0.03880083 -0.04715885 -0.067846164 -0.019966666 -0.038191248 -0.021294117 0.025942694 -0.0002778588
-0.035642777 -0.043150116 0.03215962 0.043332607 0.008746125 -0.013527681 0.02462566 -0.040060464
-0.06576968 -0.10880825 0.00830201 -0.04264802 -0.038443275 0.0076415897 -0.07184228 -0.0509018
0.0093740085 -0.017824272 -0.07887229 0.009909499 -0.0072046365 -0.045112874 0.017106697 0.03581209
0.0081373025 0.014523979 0.027881606 0.032048322 -0.062984295 -0.0775273 0.065137364 -0.036429297
-0.055123273 0.06511498 0.0036690529 0.0029961646 -0.016713321 -0.026531816 0.0020182272 0.021377414
-0.008306015 -0.026109114 0.06050022 -0.0276619 0.016207224 0.00076729705 0.017051214 0.00058407686
-0.045426223 0.017066572 -0.049533885 -0.10496681 -0.020774374 -0.0803542 -0.06747486 -0.034529977
0.0403667 -0.030253423 -0.0196592 0.020542989 0.023875901 -0.047686327 0.014824542 0.0136741465
-0.050320294 0.05076899 -0.04518552 -0.039018426 -0.0648981 0.10100776 -0.010423223 0.030372066
0.03359352 0.018036257 -0.043922935 -0.039542012 -0.038009003 -0.015876716 0.014228949 -0.07627977
-0.033361204 0.022926921 -0.0056649866 -0.079469025 0.02234752 -0.042000137 -0.04047984 -0.048432827
-0.08533308 -0.017332021 -0.1364622 0.005493372 -0.047676567 -0.03395921 -0.057821568 0.006677895
-0.07290949 -0.07682189 -0.0061652157 0.0010738123 0.03582293 -0.008370999 0.054304294 0.015436576
-0.04995073 -0.07111139 0.0002455912 -0.056536842 -0.0047713877 -0.08716474 0.0011523784 -0.033249557
-0.029717416 0.022335093 -0.044157885 -0.05411842 -0.024501285 -0.042150795 -0.05771696 -0.061328888
0.051730774 0.012221893 -0.0056977835 0.0018701182 -0.08940293 -0.030858407 -0.029683005 -0.06759454
-0.00038806806 -0.054602835 -0.034732655 -0.011344705 0.027271288 -0.06905309 -0.07312383 0.0137318885
0.0005461085 0.0041882377 -0.0368856 -0.04331453 0.035687663 -0.04158326 -0.03944788 0.013042423
0.046138003 -0.07591818 -0.05521437 0.0325578 -0.06645156 -0.088268094 -0.09531942 -0.041669063
-0.042368073 -0.0674633 -0.03016854 -0.06357022 0.027302343 -0.012149528 -0.030523121 0.026569346
-0.06696807 0.04127816 0.04880422 -0.093216315 -0.055499647 -0.010639263 -0.056495477 -0.008530755
-0.060084876 -0.06494038 0.008018926 -0.04475303 -0.040384687 -0.07083429 -0.009352115 -0.034090433
-0.05042938 -0.036784124 -0.016038837 -0.0149653945 0.01957832 0.0055954666 -0.030418783 -0.03958017
-0.01928619 -0.07394228 -0.08273647 -0.0033274496 -0.03477572 -0.099252634 -0.06902273 -0.05799782
-0.06570017 0.007459642 -0.050867856 0.035996303 -0.055297576 0.0035463492 -0.027036095 -0.05831891
-0.008940923 -0.0634792 -0.05271833 -0.031155722 0.06418349 -0.03600933 -0.06684804 -0.021477833
-0.025714519 -0.032325055 -0.025881264 -0.04175648 0.005232282 -0.029395716 -0.037924428 -0.036456764
0.0035151143 0.013302801 0.05716011 -0.0006528123 -0.047596153 -0.02700808 0.005639717 -0.043987554
00000000: ece2 5ebd a6eb 73bd e2a6 48bd 0875 7dbd
00000010: e785 e4bc 6788 81bd ccbb 83bd f5d5 b9bc
00000020: f045 aabd b8d6 d6bc e4cf 763c af5a 403c
00000030: 2f11 2a3d 9cce 46bd b74d 7dbc d2df b7bc
00000040: 3f4b 21bd 9fe7 6cbd 4df1 fbbc 89bc 34bd
00000050: 3f20 85bd c430 a8bd 1d91 b8bd be7c e43c
00000060: 9eed 1ebd a329 41bd eef2 8abd 2291 a3bc
00000070: 6d6e 1cbd 0071 aebc c685 d43c 94ad 91b9
00000080: 29fe 11bd 2dbe 30bd ceb9 033d 887d 313d
00000090: e84b 0f3c 35a3 5dbc c1bb c93c 7116 24bd
000000a0: 41b2 86bd dcd6 debd 2705 083c b1af 2ebd
000000b0: b276 1dbd 4d66 fa3b 0c22 93bd 687e 50bd
000000c0: 7195 193c 3504 92bc cc87 a1bd 745b 223c
000000d0: df14 ecbb 47c8 38bd 5823 8c3c b3af 123d
000000e0: 5252 053c fcf5 6d3c f767 e43c 1a45 033d
000000f0: e9fd 80bd a2c6 9ebd bd66 853d e336 15bd
00000100: f1c8 61bd 015b 853d 7e74 703b 4d5b 443b
00000110: 60ea 88bc 4059 d9bc 3c44 043b b01f af3c
00000120: f415 08bc c8e2 d5bc 14cf 773d 359b e2bc
00000130: 03c5 843c 6f24 493a fdae 8b3c bc1c 193a
00000140: d910 3abd 32cf 8b3c 0be4 4abd d7f8 d6bd
00000150: 052f aabc be90 a4bd 4230 8abd 4e6f 0dbd
00000160: 8e57 253d 07d6 f7bc 550c a1bc c549 a83c
00000170: 6597 c33c bd52 43bd a3e2 723c 8709 603c
00000180: a71c 4ebd 25f3 4f3d 7414 39bd c9d1 1fbd
00000190: 4ce9 84bd 28dd ce3d 2ac6 2abc d7ce f83c
000001a0: 5c99 093d c6c0 933c 89e8 33bd cef6 21bd
000001b0: 54af 1bbd e30f 82bc 8a20 693c 9138 9cbd
000001c0: c2a5 08bd 3dd1 bb3c 5aa1 b9bb a8c0 a2bd
000001d0: 2512 b73c 5608 2cbd 30ce 25bd 8061 46bd
000001e0: 1cc3 aebd e2fb 8dbc bfbc 0bbe bf01 b43b
000001f0: 8148 43bd d018 0bbd 4fd6 6cbd 3ed2 da3b
00000200: 9251 95bd cc54 9dbd 9405 cabb 29bf 8c3a
00000210: 11bb 123d 8426 09bc 2e6e 5e3d b1e9 7c3c
00000220: 2399 4cbd d9a2 91bd b1c2 8039 2d93 67bd
00000230: 4d59 9cbb 6d83 b2bd 670b 973a b030 08bd
00000240: f071 f3bc 16f8 b63c e6de 34bd 47ab 5dbd
00000250: ebb6 c8bc 50a6 2cbd 9e68 6cbd 0034 7bbd
00000260: a6e3 533d 563e 483c 79b4 babb c11e f53a
00000270: e218 b7bd c5ca fcbc c629 f3bc 026f 8abd
00000280: 9d75 cbb9 39a7 5fbd d443 0ebd 24df 39bc
00000290: 0968 df3c b56b 8dbd f2c1 95bd b7fb 603c
000002a0: b928 0f3a 7c3d 893b 5b15 17bd 946a 31bd
000002b0: 3a2d 123d 3553 2abd 1a94 21bd e3af 553c
000002c0: 34fb 3c3d fe7a 9bbd 7728 62bd 545b 053d
000002d0: c117 88bd e7c5 b4bd d436 c3bd 2ead 2abd
000002e0: 258a 2dbd 332a 8abd 0424 f7bc 1a31 82bd
000002f0: 2aa9 df3c d00e 47bc a00b fabc f5a7 d93c
00000300: 8e26 89bd 4a13 293d efe6 473d 32e8 bebd
00000310: 9953 63bd 4e50 2ebc cd67 67bd 94c4 0bbc
00000320: 8f1b 76bd 76ff 84bd d061 033c f44e 37bd
00000330: 6a6a 25bd 9111 91bd 9d39 19bc 69a2 0bbd
00000340: 0a8f 4ebd f3aa 16bd e163 83bc 6a31 75bc
00000350: b762 a03c 2d5a b73b d030 f9bc d11e 22bd
00000360: 12fe 9dbc 0d6f 97bd bd71 a9bd 5711 5abb
00000370: fc70 0ebd f744 cbbd ca5b 8dbd 1f8f 6dbd
00000380: d08d 86bd 0370 f43b d05a 50bd dc70 133d
00000390: b67f 62bd de69 683b cd7a ddbc cfdf 6ebd
000003a0: f37c 12bc 6201 82bd 2def 57bd 493a ffbc
000003b0: a272 833d 857e 13bd a0e7 88bd 48f2 afbc
000003c0: 41a7 d2bc 4767 04bd f204 d4bc d808 2bbd
000003d0: 9073 ab3b 49cf f0bc a556 1bbd b053 15bd
000003e0: d55d 663b fef3 593c b820 6a3d 7e21 2bba
000003f0: 2ff4 42bd 0d40 ddbc 60cd b83b 4b2c 34bd

conv2.bias f4 [32]
0.026288701 -0.0472392 0.007083504 0.0036017543 0.087799035 -0.031730764 -0.0076631033 -0.022563338
-0.019120146 0.023540057 0.021848332 -0.007833582 0.019688059 -0.00028953765 0.02745095 0.03146333
-0.04062852 0.019806623 0.07198072 -0.06584911 -0.063577466 0.050621938 -0.04352877 -0.038389884
0.020738205 0.009159581 -0.04502799 -0.024951868 0.012432927 -0.03824744 -0.010379771 0.00014471498
00000000: 675b d73c e47d 41bd bd1c e83b 690b 6c3b
00000010: fbcf b33d 1ef8 01bd c51a fbbb c0d6 b8bc
00000020: daa1 9cbc 14d7 c03c 46fb b23c 6d58 00bc
00000030: da48 a13c 16cd 97b9 d1e0 e03c b1df 003d
00000040: 176a 26bd 8041 a23c a16a 933d e6db 86bd
00000050: e734 82bd f358 4f3d 394b 32bd b63e 1dbd
00000060: 2be3 a93c 1112 163c 456f 38bd dc67 ccbc
00000070: 7ab3 4b3c 59a9 1cbd ea0f 2abc a2be 1739

conv3.weight f4 [32, 32, 3, 3]
0.044144697 -0.025511242 -0.0062554535 0.04956084 0.0054911515 -0.037249696 -0.047023583 -0.019321792
-0.08553478 -0.014673468 0.03965757 0.068679094 -0.09242981 -0.11694997 -0.06268295 -0.15319058
-0.06325301 -0.0500855 -0.06646903 -0.055872645 -0.027838813 0.034555882 0.024529455 0.04605275
0.03993363 -0.022686582 0.03695024 0.04757337 0.042556982 -0.02028308 -0.01695387 -0.009877416
-0.035303123 -0.019566014 0.01901725 0.006510219 -0.073677324 -0.09556093 -0.11632056 -0.016630849
-0.06847097 -0.08389558 0.003960608 -0.04559175 -0.01806264 0.05187772 0.02549695 -0.0012437858
0.026956871 0.027492177 0.013243584 -0.058357425 0.029683586 -0.032324035 0.056087848 -0.0008207028
0.009979232 0.0058719534 -0.030964063 0.007733876 -0.078763865 -0.08661113 -0.0622516 0.0006454847
-0.016342849 0.10820061 -0.047124725 0.01446669 0.02424665 0.016421255 -0.038410295 -0.037821863
0.008527388 0.06982329 0.008785516 0.030419048 0.06431422 0.09683092 0.015124846 -0.03749026
0.06433719 0.04782707 0.0328591 -0.029301327 -0.022986379 0.03168982 -0.010749454 -0.05356394
-0.0015195854 -0.0045148474 -0.0034155662 -0.005542961 -0.06322468 -0.062728435 -0.03206433 -0.040418774
-0.019469785 -0.045347694 0.020798557 -0.032235432 -0.036863044 -0.018429596 0.02772409 0.042267893
0.005290954 0.05556027 -0.030796414 0.016588425 0.037430707 0.040528376 0.040263172 0.030583085
0.029052151 0.011156193 0.06495759 0.017960297 -0.05438902 -0.0070899515 -0.043341298 -0.021964697
-0.057747014 -0.017977947 0.026895609 0.05246515 0.0010720706 0.0074020894 -0.011484538 -0.06172667
0.03934871 -0.0059147137 -0.04480034 -0.027116904 -0.019145906 -0.004445024 0.0034323288 0.030504322
0.045929518 -0.118204676 -0.0721716 -0.11335405 -0.08404852 0.03561629 0.026560035 -0.06014581
-0.0042754156 0.032736585 0.027656501 -0.04811393 -0.01994585 -0.057888918 0.049358286 0.03351549
-0.025595352 0.0033162665 0.021440042 0.06949711 0.05227395 -0.022088638 0.005782361 0.038039505
0.066934936 -0.015669612 0.11422337 0.046260346 -0.059640042 0.06419305 0.014387827 -0.08707695
0.016032167 -0.0032476615 -0.063890606 0.057962853 0.013278039 0.034366067 0.0024421401 0.06276985
0.06565157 -0.0705703 -0.000115339964 0.029138416 -0.08930408 -0.04614834 0.0049734195 0.045750704
0.05364794 -0.012746601 0.0012243993 0.086529896 0.05499451 -0.08987023 -0.022281105 -0.044093367
-0.0046961796 -0.031199425 0.074706115 0.031793136 -0.041293435 0.082613006 0.020702245 -0.06922932
-0.093642786 0.028544923 -0.06532546 -0.059043214 -0.13114853 -0.060490493 -0.11212108 -0.11885555
-0.13568203 -0.17399846 -0.024133753 -0.04221305 -0.06600872 -0.024855655 -0.08201101 -0.030215219
0.054153625 0.105549425 0.05957706 0.10654923 0.07690039 -0.04949445 0.058902487 -0.0100125205
-0.06080962 0.063920684 0.018749459 -0.02718965 0.018879566 0.010167466 0.0042564096 -0.017556144
-0.021204319 -0.03875814 -0.04675861 -0.016014857 -0.02898517 0.05129329 -0.022022553 -0.021232398
-0.024385346 -0.020169806 0.04792902 0.038007427 0.04079952 -0.055838667 -0.0040087206 -0.04324781
0.013064247 0.089709885 -0.013504618 0.03555718 -0.056146458 -0.06623831 0.010539701 -0.06587948
00000000: 12d1 343d f4fc d0bc 8cfa ccbb 4f00 4b3d
00000010: 1eef b33b 2393 18bd cd9b 40bd bc48 9ebc
00000020: dc2c afbd fc68 70bc fa6f 223d a0a7 8c3d
00000030: d74b bdbd 7783 efbd eb5f 80bd fedd 1cbe
00000040: cb8a 81bd 7426 4dbd ea20 88bd b7da 64bd
00000050: 390e e4bc 788a 0d3d fff1 c83c cfa1 3c3d
00000060: 7291 233d 36d9 b9bc 2359 173d 4bdc 423d
00000070: 3b50 2e3d b428 a6bc d8e2 8abc e3d4 21bc
00000080: 029a 10bd e848 a0bc 10ca 9b3c ad53 d53b
00000090: 23e4 96bd 73b5 c3bd 7939 eebd 6b3d 88bc
000000a0: 823a 8cbd 72d1 abbd fdc7 813b 6abe 3abd
000000b0: 1af8 93bc bb7d 543d fbde d03c 8706 a3ba
000000c0: a8d4 dc3c 4637 e13c 9efb 583c 3208 6fbd
000000d0: fe2a f33c 3566 04bd 5fbc 653d 6f24 57ba
000000e0: ef7f 233c 8469 c03b 59a8 fdbc 746c fd3b
000000f0: f34e a1bd 2d61 b1bd 89fb 7ebd bf35 293a
00000100: 70e1 85bc 4898 dd3d db05 41bd b205 6d3c
00000110: e9a0 c63c de85 863c 1d54 1dbd 19eb 1abd
00000120: 75b6 0b3c 83ff 8e3d 20f1 0f3c 5e31 f93c
00000130: 2cb7 833d 4a4f c63d 34ce 773c 638f 19bd
00000140: 37c3 833d 51e6 433d 4397 063d 5609 f0bc
00000150: ee4d bcbc 2fcd 013d 7a1e 30bc dd65 5bbd
00000160: d32c c7ba 49f1 93bb b1d7 5fbb baa1 b5bb
00000170: f17b 81bd c477 80bd e355 03bd 288e 25bd
00000180: 197f 9fbc 81be 39bd bc61 aa3c 4d09 04bd
00000190: b4fd 16bd aaf9 96bc a11d e33c 1921 2d3d
000001a0: bd5f ad3b 2a93 633d c348 fcbc 73e4 873c
000001b0: f150 193d 1501 263d ffea 243d 6189 fa3c
000001c0: c7fe ed3c 77c8 363c 7c08 853d 7921 933c
000001d0: 05c7 5ebd d352 e8bb a586 31bd 4fef b3bc
000001e0: 2288 6cbd 7d46 93bc 2e54 dc3c b2e5 563d
000001f0: b884 8c3a 3a8d f23b a529 3cbc 1bd5 7cbd
00000200: 1d2c 213d 37d0 c1bb 9080 37bd 4524 debc
00000210: e0d7 9cbc 90a7 91bb ecf0 603b 33e4 f93c
00000220: 9720 3c3d 4b15 f2bd b4ce 93bd 2b26 e8bd
00000230: a121 acbd 63e2 113d 6e94 d93c 745b 76bd
00000240: c918 8cbb cc16 063d e38f e23c 1d13 45bd
00000250: 7b65 a3bc ee1c 6dbd ea2b 4a3d 8a47 093d
00000260: 58ad d1bc b855 593b 07a3 af3c 8054 8e3d
00000270: 361d 563d 3bf3 b4bc f679 bd3b 50cf 1b3d
00000280: 2f15 893d 8f5d 80bc f1ed e93d 7d7b 3d3d
00000290: 1e49 74bd a577 833d ecba 6b3c 6655 b2bd
000002a0: e455 833c b8d6 54bb 14d9 82bd 756a 6d3d
000002b0: 228c 593c 6fc3 0c3d 500c 203b 7b8d 803d
000002c0: 5574 863d 2987 90bd ace2 f1b8 b0b3 ee3c
000002d0: 0fe5 b6bd 0b06 3dbd 11f8 a23b 1765 3b3d
000002e0: f1bd 5b3d 1fd7 50bc 067c a03a 9636 b13d
000002f0: ec41 613d e20d b8bd dd86 b6bc 3f9b 34bd
00000300: 69e2 99bb f095 ffbc 85ff 983d 8539 023d
00000310: 4e23 29bd 0231 a93d c197 a93c 1ac8 8dbd
00000320: cac7 bfbd 0bd7 e93c 5bc9 85bd 4cd7 71bd
00000330: cd4b 06be e1c4 77bd bd9f e5bd 8a6a f3bd
00000340: 3bf0 0abe a72c 32be 26b4 c5bc 97e7 2cbd
00000350: 942f 87bd 169e cbbc 63f5 a7bd e885 f7bc
00000360: 31d0 5d3d 4c2a d83d 1307 743d 7c36 da3d
00000370: f47d 9d3d b1ba 4abd bc43 713d 8e0b 24bc
00000380: 8213 79bd d9e8 823d 7798 993c d4bc debc
00000390: 52a9 9a3c 7195 263c 5a79 8b3b e7d1 8fbc
000003a0: aeb4 adbc dbc0 1ebd f585 3fbd 9731 83bc
000003b0: 4f72 edbc ea18 523d a468 b4bc 91ef adbc
000003c0: c7c3 c7bc 263b a5bc 3851 443d adad 1b3d
000003d0: 661d 273d 16b7 64bd 965b 83bb 9e24 31bd
000003e0: 6c0b 563c d1b9 b73d 7942 5dbc 68a4 113d
000003f0: d4f9 65bd f3a7 87bd b6ae 2c3c d2eb 86bd

conv3.bias f4 [32]
-0.03783692 0.0048219063 -0.03583819 -0.069965385 -0.060102 -0.042144116 -0.016414236 -0.019149698
0.05412388 -0.070336156 -0.05914258 0.024621282 0.008936322 -0.025257353 0.011655799 -0.053327113
-0.050366737 -0.035295226 0.048490696 0.030893967 -0.03481679 -0.020822117 -0.036786027 -0.035739508
0.0004934475 0.1387123 -0.012186839 -0.057044428 0.016184647 -0.0065901196 -0.020445347 -0.005606658
00000000: e3fa 1abd 1501 9e3b 11cb 12bd 034a 8fbd
00000010: 842d 76bd 4f9f 2cbd 2677 86bc d4df 9cbc
00000020: 00b1 5d3d 670c 90bd 7d3f 72bd 92b2 c93c
00000030: a769 123c 82e8 cebc f7f7 3e3c 886d 5abd
00000040: 5a4d 4ebd ba91 10bd 2e9e 463d 5815 fd3c
00000050: 0d9c 0ebd 2593 aabc f2ac 16bd 9763 12bd
00000060: b35a 013a 990a 0e3e 4fab 47bc 6ba7 69bd
00000070: aa95 843c eef1 d7bb 007d a7bc 0eb8 b7bb

fc1.weight f4 [10, 2592]
0.01016656 0.0016841369 -0.0150123825 -0.01486718 0.013530054 -0.010197234 0.016778024 0.004260757
0.011301859 -0.006807307 -0.017326724 -0.01838704 -0.018656414 0.009531419 0.0042909356 -0.0051790006
0.016213303 -0.016852919 -0.016923336 -0.018708114 -0.0012297607 -0.005390007 0.005789725 -0.002298766
-0.01438424 -0.0059279166 -0.013939062 -0.016561875 0.013998895 -0.0017543209 -0.017006949 0.015041332
0.013775142 0.014314663 0.0011886831 0.009640814 0.013839005 -0.017358031 0.0067318194 -0.016890712
-0.0011494858 0.008508897 0.015561645 -0.013899776 -0.00074774865 -0.009757523 -0.0034089833 -0.0034865688
-0.01652791 -0.014827353 -0.0022698021 0.01868407 -0.017118769 -0.014398602 0.014098828 -0.017291246
-0.013832929 -0.002368283 0.005858797 -0.008237497 -0.0037091272 -0.006853576 -0.012139565 0.009594833
-0.0039193803 0.01653336 -0.021221383 -0.014336523 0.011027047 -0.018704094 0.013276217 -0.0027617423
0.003017409 0.017173052 0.008054432 -0.008975296 -0.014878651 -0.0041720844 -0.0118553545 0.00934548
-0.0024198072 -0.0021390854 -0.015472316 -0.0006388626 -0.018871885 -0.014942963 0.0030830395 -0.0034036136
-0.0038463557 0.014793212 -0.0202316 0.006636706 0.01279654 -0.0084954435 0.005183222 -0.011343677
0.00528887 -0.014276875 -0.019016506 0.009395128 -0.0057721823 -0.008567459 -0.005711846 0.008070946
-0.01654249 -0.005311067 -0.014985938 -0.006017429 0.009014287 -0.011746882 -0.005476536 0.005552193
-0.004199925 -0.011999167 -0.0014564744 0.007252127 0.0017916269 0.012002391 0.0063132485 -0.01861332
-0.013934569 0.0023650373 -0.013224455 -0.005487187 -0.012539556 -0.014768079 -0.016981108 -0.017062504
-0.0050990256 -0.021308858 0.0078059803 -0.0037130706 -0.006422483 0.010315187 0.008901274 -0.01883025
-0.014546687 -0.00011546281 -0.0055414243 0.0008439489 -0.0060410434 -0.010759674 0.013721837 -0.014394494
0.0005899357 -0.017870866 -0.01597791 -0.008847266 0.0056417086 0.0041605486 0.016895238 -0.0211382
0.007246256 0.0011115965 0.0034157294 0.004843645 -0.0046841516 0.0036217833 -0.004221743 -0.007483447
0.0065118554 0.018068532 -0.0038201357 0.0065531973 0.00074574014 -0.004936398 0.01905412 -0.004922567
0.009186659 0.0070406576 -7.45589e-05 -0.0049379305 -0.019131185 0.012518557 0.0056217643 -0.009844683
-0.01589287 -0.014261787 -0.019188602 0.008261117 0.0013000772 -0.014892837 -0.015219887 -0.018367702
-0.0076715043 -0.010576183 0.010218904 -0.009478475 0.0020711035 0.0008020823 0.017072247 -0.015341614
-0.015069128 0.014683966 0.0031935037 -0.014805584 -0.016840698 -0.007969878 -0.0081412215 0.0119467545
0.0067771142 -0.0107541215 -0.009628782 -0.004543751 0.008376475 -0.015552561 0.018317247 -0.010090882
-0.00786502 -0.016735902 -0.0096274065 0.014300141 -0.019831844 0.00597312 -0.012277293 -0.0005326082
-0.0143865775 0.01740777 0.0018071657 -0.013302636 -0.01681046 -0.01943673 -0.0012390091 0.015217351
-0.019278074 -0.005688108 0.009219288 -0.0028781835 0.016577655 0.00895256 -0.014435988 -0.014544803
0.011403115 0.009369474 0.013649858 0.0013443148 0.008302015 -0.0019684015 0.019275043 -2.9312272e-05
-0.010598057 0.018088624 -0.002248981 0.0034603006 -0.016292147 0.004378035 0.0019001933 -0.0048471666
-0.010110558 -0.0066673225 0.017329719 -0.016541446 -0.0049758 0.015184922 0.007446935 -0.0023401151
00000000: a591 263c 42be dc3a 7ff6 75bc 7995 73bc
00000010: 29ad 5d3c 4d12 27bc 1172 893c d29d 8b3b
00000020: 6f2b 393c d40f dfbb c6f0 8dbc 6ba0 96bc
00000030: 56d5 98bc ab29 1c3c fa9a 8c3b 9bb4 a9bb
00000040: c3d1 843c 220f 8abc cfa2 8abc c241 99bc
00000050: ec2f a1ba a89e b0bb bcb7 bd3b e5a6 16bb
00000060: e0ab 6bbc f83e c2bb aa60 64bc c5ac 87bc
00000070: 9f5b 653c 3ef1 e5ba 2852 8bbc eb6f 763c
00000080: 22b1 613c 0c88 6a3c 96cd 9b3a 81f4 1d3c
00000090: febc 623c 6e32 8ebc 9896 dc3b 645e 8abc
000000a0: 58aa 96ba e768 0b3c 45f6 7e3c e3bb 63bc
000000b0: 9004 44ba 05de 1fbc 4069 5fbb eb7e 64bb
000000c0: 8a65 87bc 6dee 72bc f6c0 14bb 560f 993c
000000d0: a93c 8cbc 1de8 6bbc c5fe 663c 5fa6 8dbc
000000e0: 82a3 62bc 3235 1bbb 27fb bf3b 91f6 06bc
000000f0: d414 73bb f693 e0bb 07e5 46bc a533 1d3c
00000100: 256e 80bb f870 873c 77d8 adbc bce3 6abc
00000110: caaa 343c 5439 99bc 7d84 593c 59fe 34bb
00000120: b9bf 453b 80ae 8c3c bdf6 033c 1f0d 13bc
00000130: 96c5 73bc fbb5 88bb f63c 42bc c91d 193c
00000140: a195 1ebb e62f 0cbb 997f 7dbc 5879 27ba
00000150: 3699 9abc 54d3 74bc d20c 4a3b 290f 5fbb
00000160: 2413 7cbb 3a5f 723c bebc a5bc ba78 d93b
00000170: 94a8 513c 7930 0bbc 04d8 a93b d4da 39bc
00000180: 424e ad3b 8ee9 69bc 81c8 9bbc 06ee 193c
00000190: 9324 bdbb 875e 0cbc 702a bbbb 003c 043c
000001a0: 1e84 87bc 7608 aebb 9487 75bc da2d c5bb
000001b0: a9b0 133c ff75 40bc 8474 b3bb 2cef b53b
000001c0: 869f 89bb 2798 44bc 2ce7 beba 40a3 ed3b
000001d0: 06d5 ea3a ada5 443c 5edf ce3b f67a 98bc
000001e0: d24d 64bc befe 1a3b 62ab 58bc dccd b3bb
000001f0: b672 4dbc d0f5 71bc f71b 8bbc aac6 8bbc
00000200: ba15 a7bb ea8f aebc 4fc9 ff3b fd56 73bb
00000210: b173 d2bb 0801 293c a6d6 113c e541 9abc
00000220: 3a55 6ebc a024 f2b8 d694 b5bb 743c 5d3a
00000230: f2f3 c5bb 5849 30bc 8ed1 603c e2d6 6bbc
00000240: eaa5 1a3a ec65 92bc 1be4 82bc 20f4 10bc
00000250: 15de b83b 3655 883b e267 8a3c 052a adbc
00000260: 0072 ed3b fdb2 913a 6eda 5f3b 70b7 9e3b
00000270: 837d 99bb 715b 6d3b 8c56 8abb b437 f5bb
00000280: 6761 d53b 7504 943c 3e5b 7abb 34bc d63b
00000290: c67d 433a 82c1 a1bb 6317 9c3c 7c4d a1bb
000002a0: a483 163c 51b5 e63b 815c 9cb8 5dce a1bb
000002b0: 01b9 9cbc a21a 4d3c c736 b83b 984b 21bc
000002c0: c431 82bc 45aa 69bc 6a31 9dbc a359 073c
000002d0: 5a67 aa3a 1601 74bc d55c 79bc dd77 96bc
000002e0: 3e61 fbbb ba47 2dbc 316d 273c 9b4b 1bbc
000002f0: 5abb 073b d542 523a 19db 8b3c 655b 7bbc
00000300: 81e4 76bc 0495 703c 1a4a 513b 1f93 72bc
00000310: 81f5 89bc 1794 02bc c262 05bc 52bc 433c
00000320: 8e12 de3b 0e32 30bc 0ac2 1dbc bfe3 94bb
00000330: 7c3d 093c 2bd0 7ebc 0d0e 963c 3a54 25bc
00000340: 49dc 00bc bb19 89bc 45bc 1dbc 234b 6a3c
00000350: 6476 a2bc 2aba c33b b326 49bc bb9e 0bba
00000360: aeb5 6bbc bd9a 8e3c 6bde ec3a 4df3 59bc
00000370: 17b6 89bc c739 9fbc 3f66 a2ba 3252 793c
00000380: 0ded 9dbc 4f63 babb 7f0c 173c e89f 3cbb
00000390: ddcd 873c c2ad 123c ec84 6cbc 534d 6ebc
000003a0: 21d4 3a3c 6c82 193c a7a3 5f3c b833 b03a
000003b0: 2d05 083c 4c00 01bb b2e6 9d3c a0e3 f5b7
000003c0: 79a3 2dbc 982e 943c a463 13bb 36c6 623b
000003d0: 1c77 85bc 9f75 8f3b e80f f93a fbd4 9ebb
000003e0: c1a6 25bc 8e79 dabb 0ef7 8d3c ed81 87bc
000003f0: 090c a3bb 2eca 783c 6b05 f43b 9e5c 19bb

fc1.bias f4 [10]
-0.006200143 0.17090556 0.016060235 0.02403274 -0.01710948 -0.020639753 0.0031177662 0.042967524
-0.017987221 -0.024580128
00000000: 922a cbbb de01 2f3e c190 833c 4fe0 c43c
00000010: 2e29 8cbc b314 a9bc 7053 4c3b b7fe 2f3d
00000020: f059 93bc 445c c9bc
