tests/cpu_models/mnist_cnn_model.pt (torch_old, 197638 bytes, 8 tensors)

weight f4 [32, 1, 3, 3]
0.18823206 -0.14468521 -0.08963722 0.15804447 -0.34222475 0.20425703 -0.07916993 0.123613894
0.023272287 -0.108962566 0.009874617 -0.032959115 0.09944199 -0.112878874 -0.052938603 -0.009526492
0.074855514 -0.04677589 0.2854015 0.08645983 -0.13467968 -0.19887997 -0.102191724 -0.1797487
-0.067845404 0.028738085 0.2299359 0.20975415 -0.23415856 0.25803939 0.098611 0.38108906
0.23146068 -0.34829876 -0.39148647 -0.30853698 0.27758297 -0.1053286 0.03592133 -0.11724936
0.2775752 -0.26756456 0.23616324 -0.07138587 -0.2827388 0.17467797 -0.14481163 0.15337208
-0.11843744 -0.087076925 -0.25102904 -0.17858535 0.12406787 -0.10442186 0.21675414 0.19120318
-0.037245773 -0.39488164 0.14883266 0.09438105 -0.35697192 0.14592168 0.16803336 0.28911877
-0.26656434 -0.10432242 0.011533718 -0.006677945 -0.26662633 -0.15975311 0.14049767 -0.1758179
0.13817397 0.00342145 0.10432727 0.026523387 0.101324186 0.1547641 -0.361025 0.109055676
-0.31573355 -0.24110217 0.01039176 -0.10322529 0.20811303 -0.122237355 -0.31808746 0.26232192
0.0028278388 0.20624498 0.21558455 -0.1471075 0.08226901 0.17053832 -0.14286357 -0.18590946
0.13775268 0.0072612613 -0.15107706 -0.14084956 0.22952725 -0.15085375 0.14901468 0.1062263
-0.30841544 -0.3777699 0.28013578 0.022039494 0.15715648 0.016448779 0.069810435 0.15375538
0.20869055 -0.34337348 -0.11304588 0.10091081 0.12101668 0.22260648 -0.22614339 -0.2717292
-0.18835115 0.066855505 0.34582523 -0.14963184 0.22415917 -0.17888334 -0.29896608 -0.13620844
0.11614301 0.27311206 -0.23202138 0.042563736 0.21754768 0.11102107 0.0957044 0.29795378
0.28537682 0.14213094 -0.18805979 -0.1715112 -0.18792556 -0.05154366 -0.1958225 0.05687017
-0.021522291 -0.10322415 0.13139275 -0.035562154 0.14417624 0.22002764 -0.18820089 0.25241214
-0.057675783 0.013331256 -0.30429858 -0.18070382 -0.17201288 -0.0863542 0.30645704 -0.15087669
-0.21956314 0.15583949 0.12143173 0.20565765 -0.26910472 0.09466265 -0.11474596 -0.20060828
-0.34878945 -0.188899 -0.11314246 0.0073252385 -0.056504592 -0.049716964 0.18939848 0.21919525
0.15171365 -0.08338387 -0.30500823 0.17289494 -0.05230563 -0.08464525 -0.2915185 -0.02889377
-0.22760907 0.32112572 -0.23728548 -0.16186018 -0.011345036 -0.13492972 0.15470967 -0.093370035
-0.20466886 -0.0007533622 0.24695848 -0.2890787 0.115942076 0.21160491 0.262318 -0.2700946
0.01710625 -0.254716 0.2640077 -0.13309705 0.11751883 -0.057283867 -0.047059182 -0.0036415465
0.005648005 0.051639587 0.004005526 0.004790753 -0.40230623 0.09717967 0.15250024 0.18798608
0.24699275 -0.3341372 -0.13927208 0.22653057 -0.40578485 0.3045054 -0.3286431 -0.33493257
0.15568186 -0.3223729 -0.12387793 0.2161702 0.23186393 0.28330728 -0.09441827 -0.32407144
0.18696848 -0.23203686 -0.1317352 0.08667398 -0.27526435 0.20834258 0.23309639 -0.23959929
-0.21990037 0.008736369 0.15434186 -0.1271808 -0.1979116 -0.031582028 -0.3306356 -0.2368
-0.30399594 0.34681967 0.36649564 -0.057600345 -0.040824626 0.10713853 0.013743533 -0.28875527
00000000: e8bf 403e 5c28 14be b893 b7bd 69d6 213e
00000010: 1538 afbe c128 513e d823 a2bd 4829 fd3d
00000020: 86a5 be3c c427 dfbd 25c9 213c 2300 07bd
00000030: 3ea8 cb3d 0a2d e7bd 26d6 58bd 0115 1cbc
00000040: d94d 993d 1398 3fbd 2520 923e da11 b13d
00000050: 78e9 09be 31a7 4bbe e549 d1bd 0b10 38be
00000060: 88f2 8abd 226c eb3c 5174 6b3e cbc9 563e
00000070: 43c7 6fbe bd1d 843e 90f4 c93d 1b1e c33e
00000080: 0704 6d3e 3754 b2be ea70 c8be 8ff8 9dbe
00000090: 5b1f 8e3e 85b6 d7bd 3f22 133d 6f20 f0bd
000000a0: 561e 8e3e 39fe 88be c7d4 713e c132 92bd
000000b0: 24c3 90be c8de 323e 8049 14be 920d 1d3e
000000c0: 548f f2bd 6355 b2bd e186 80be 14df 36be
000000d0: 4c17 fe3d 21db d5bd ccf4 5d3e c4ca 433e
000000e0: 068f 18bd ed2d cabe 9767 183e da4a c13d
000000f0: 06c5 b6be 7e6c 153e f010 2c3e 6007 943e
00000100: 1f7b 88be fea6 d5bd ebf7 3c3c aad2 dabb
00000110: 3f83 88be 5296 23be 9fde 0f3e 9c09 34be
00000120: 7a7d 0d3e 683a 603b 89a9 d53d 9347 d93c
00000130: 0e83 cf3d 7b7a 1e3e 45d8 b8be 9558 df3d
00000140: d4a7 a1be 7de3 76be 3342 2a3c c867 d3bd
00000150: 951b 553e 9457 fabd 5cdc a2be 0f4f 863e
00000160: 4353 393b e231 533e 32c2 5c3e 59a3 16be
00000170: a87c a83d 99a1 2e3e d44a 12be 0d5f 3ebe
00000180: 0a0f 0d3e e0ef ed3b f2b3 1abe de3a 10be
00000190: 3109 6b3e 6879 1abe 4e97 183e 2d8d d93d
000001a0: a1e8 9dbe 0e6b c1be f56d 8f3e 2b8c b43c
000001b0: a1ed 203e 97bf 863c c6f8 8e3d 0d72 1d3e
000001c0: fab2 553e a6ce afbe 9984 e7bd 54aa ce3d
000001d0: 98d7 f73d f4f2 633e 2292 67be 1720 8bbe
000001e0: 20df 40be 8aeb 883d 0110 b13e 1739 19be
000001f0: fb89 653e 322d 37be 1512 99be 3a7a 0bbe
00000200: 63dc ed3d 58d5 8b3e 0397 6dbe 5057 2e3d
00000210: d2c4 5e3e 045f e33d ab00 c43d 668d 983e
00000220: e91c 923e c68a 113e bf92 40be a2a0 2fbe
00000230: 8f6f 40be 721f 53bd b285 48be b2f0 683d
00000240: 844f b0bc 2f67 d3bd d28b 063e 9fa9 11bd
00000250: f0a2 133e ed4e 613e bcb7 40be 2a3c 813e
00000260: 713d 6cbd 576b 5a3c 06cd 9bbe 6c0a 39be
00000270: 2524 30be 79da b0bd f0e7 9c3e 6b7f 1abe
00000280: 29d5 60be 6394 1f3e 33b1 f83d eb97 523e
00000290: 18c8 89be 7ede c13d eeff eabd 426c 4dbe
000002a0: 8894 b2be bd6e 41be 3cb7 e7bd 8e08 f03b
000002b0: 5c71 67bd 04a4 4bbd adf1 413e b874 603e
000002c0: d35a 1b3e 2ac5 aabd 0a2a 9cbe 5f0b 313e
000002d0: 6e3e 56bd 7d5a adbd ea41 95be a1b2 ecbc
000002e0: 5a12 69be 976a a43e f7fa 72be adbe 25be
000002f0: 88e0 39bc 042b 0abe 366c 1e3e ca38 bfbd
00000300: b794 51be 487d 45ba afe2 7c3e 2002 94be
00000310: 0a73 ed3d f5ae 583e 8b4e 863e d749 8abe
00000320: 6822 8c3c 236a 82be 042c 873e 984a 08be
00000330: b6ad f03d 7da2 6abd 21c1 40bd 03a7 6ebb
00000340: e612 b93b 0884 533d ca40 833b c0fb 9c3b
00000350: 15fb cdbe 2306 c73d 0629 1c3e 6c7f 403e
00000360: abeb 7c3e 0814 abbe 579d 0ebe a1f7 673e
00000370: 08c3 cfbe 22e8 9b3e e943 a8be 487c abbe
00000380: 116b 1f3e 100e a5be b6b3 fdbd b95b 5d3e
00000390: bd6d 6d3e a70d 913e 5e5e c1bd b1ec a5be
000003a0: aa74 3f3e 129b 6dbe 98e5 06be 2182 b13d
000003b0: 73ef 8cbe c257 553e d2b0 6e3e 8459 75be
000003c0: 902d 61be fd22 0f3c cb0b 1e3e af3b 02be
000003d0: 57a9 4abe 285c 01bd 1249 a9be b37b 72be
000003e0: 5ba5 9bbe 5992 b13e 51a5 bb3e 57ee 6bbd
000003f0: b937 27bd 726b db3d 8e2c 613c bbd7 93be

bias f4 [32]
-0.18991208 -0.0029315099 -0.08743221 -0.21094836 0.032423537 0.08317027 -0.15966527 -0.2279924
-0.16565871 -0.04222042 -0.20758057 -0.2561764 -0.21617879 -0.14407992 -0.11228731 -0.11076511
-0.17768419 -0.17286696 -0.2840775 0.096942164 0.016729154 0.12518111 -0.18424395 -0.21816033
-0.29556632 -0.19972236 0.103099115 -0.23935413 -0.21755046 -0.08078297 0.09682148 -0.11386495
00000000: 5078 42be 931e 40bb a90f b3bd d902 58be
00000010: 8bce 043d 2d55 aa3d 4b7f 23be d776 69be
00000020: 70a2 29be 52ef 2cbd 0090 54be 8e29 83be
00000030: f95d 5dbe b089 13be e4f6 e5bd d1d8 e2bd
00000040: d8f2 35be 0904 31be 9b72 91be 9d89 c63d
00000050: 940b 893c 7a2f 003e 72aa 3cbe 6c65 5fbe
00000060: 7854 97be 0584 4cbe a125 d33d 4019 75be
00000070: 8cc5 5ebe 8b71 a5bd 574a c63d 0732 e9bd

weight f4 [32, 32, 3, 3]
-0.015014229 -0.009056457 -0.015455785 -0.024099607 0.021209262 -0.022707263 -0.03426159 0.01122131
-0.04448142 -0.014670956 0.028273316 0.020594543 0.048239138 -0.041809354 -0.0011619482 -0.019064726
-0.034334555 -0.034884524 0.011873012 0.0023749457 -0.034099516 -0.04489229 -0.05271517 0.053203586
-0.014451101 -0.017657308 -0.026965244 -0.034269523 -0.05873009 -0.03807645 0.02774023 0.003917941
-0.029030364 -0.029915795 0.029386869 0.034493636 0.051967397 0.012205972 0.021567654 -0.0099967485
-0.03946995 -0.06339012 0.031309355 -0.013262543 0.018511904 0.0005067066 -0.05622245 -0.031028999
0.013631037 -0.014349354 -0.057683766 0.01524464 -0.0030394688 -0.02227992 0.017709296 0.005459004
-0.02919515 0.04643744 0.021898145 -0.0006832389 -0.016307564 -0.056373168 0.036526743 -0.015113253
-0.0396229 0.03552767 0.020436184 0.013256661 -0.012995077 -0.01863769 0.008754978 0.04422564
0.0043938127 -0.032197997 0.05449689 -0.004791238 0.039769128 0.007894413 0.048007652 0.027769253
-0.036692586 0.037483294 -0.003920494 -0.051199608 -0.013215784 -0.054222025 -0.032377545 -0.044439565
0.03853907 -0.013131051 -0.010635515 0.027013198 0.022059651 -0.039053384 0.02091371 0.02470217
-0.047622483 0.05114469 -0.03610737 -0.02672498 -0.051912766 0.04813823 0.008363869 0.04686683
-0.00206801 0.031289253 -0.020627815 -0.051313546 0.0025143235 -0.012068329 -0.014610338 -0.03547371
-0.0051560574 0.008189408 0.017629711 -0.052095227 0.02122525 0.004625132 0.037455242 0.03857815
-0.048075207 0.054154318 -0.06036964 0.032633822 0.0020749304 0.02592642 -0.037154865 0.028685922
-0.035763137 -0.056418613 0.0142574655 0.025663646 0.05570134 -0.010660781 0.05043306 0.03380286
-0.0329856 -0.04847243 0.027617088 -0.037087172 0.023445943 -0.05736241 0.035775475 0.010105438
-0.013630764 0.01933443 -0.048793163 -0.018624486 -0.0060222913 -0.041368615 -0.01901461 -0.03206542
0.04820163 0.046994668 0.047993924 0.04565505 -0.059199266 0.016786736 0.019845217 -0.044927824
0.021967271 -0.033755545 0.00801672 0.01860911 0.049871873 -0.032756403 -0.047436446 0.05345073
0.02310926 0.027379343 0.018996025 -0.028752735 0.02724023 -0.059039388 0.0011915433 0.017794035
0.031798195 -0.03480861 -0.04747526 0.012368037 -0.050171185 -0.05178442 -0.054215383 -0.03200612
-0.014100988 -0.036560677 -0.027903814 -0.054451793 0.034130815 -0.019636903 -0.04478367 0.008264561
-0.04932887 0.033489022 0.026058303 -0.06203137 -0.053081922 -0.046086352 -0.033775907 0.0049590813
-0.061887324 -0.045131765 0.024464604 -0.022252472 -0.02418362 -0.050660424 0.02089823 -0.00030225297
-0.027694598 -0.04273677 0.009033206 0.011214311 0.018755147 0.017303307 -0.011449821 -0.050134253
0.034087695 -0.004778805 -0.041761473 0.047394715 0.027946476 -0.04822522 -0.030933578 -0.022820832
-0.03672736 0.023726488 -0.046557043 0.04879761 -0.026995743 0.030222373 -0.0038800442 -0.028334282
0.03540336 -0.049893506 -0.035815217 0.002594871 0.041157547 -0.029280245 -0.038592476 -0.042633306
-0.028750867 -0.021243982 -0.016824257 -0.03377419 0.017916743 -0.00095834624 -0.038932133 -0.034417234
0.011228535 -0.002788756 0.03948296 -0.01054833 -0.05287462 -0.050297406 -0.023743154 -0.017624602
00000000: 3efe 75bc 8961 14bc 433a 7dbc 8a6c c5bc
00000010: 0cbf ad3c 9504 babc e255 0cbd 96d9 373c
00000020: 2632 36bd 735e 70bc 719d e73c e3b5 a83c
00000030: 6796 453d 4940 2bbd 834c 98ba a12d 9cbc
00000040: 64a2 0cbd 13e3 0ebd 0687 423c faa4 1b3b
00000050: efab 0bbd fae0 37bd ddeb 57bd 01ec 593d
00000060: 50c4 6cbc 0fa6 90bc 37e6 dcbc 335e 0cbd
00000070: f68e 70bd 0df6 1bbd 7b3f e33c 1262 803b
00000080: 16d1 edbc f811 f5bc bbbc f03c 3349 0d3d
00000090: c4db 543d 8ffb 473c a6ae b03c 67c9 23bc
000000a0: 3eab 21bd aed2 81bd 3d3e 003d 234b 59bc
000000b0: 47a6 973c 81d4 043a 8349 66bd 8730 febc
000000c0: b754 5f3c 8e19 6bbc d045 6cbd a8c4 793c
000000d0: d331 47bb 6184 b6bc 1613 913c 72e1 b23b
000000e0: ab2a efbc 2f35 3e3d bd63 b33c 631b 33ba
000000f0: 7197 85bc 8de7 66bd 119d 153d 949d 77bc
00000100: 9f4b 22bd 7685 113d c969 a73c 7732 593c
00000110: 4ee9 54bc 12ae 98bc 0a71 0f3c f225 353d
00000120: f9f9 8f3b 0ce2 03bd 2238 5f3d d1ff 9cbb
00000130: f4e4 223d 9157 013c aca3 443d 587c e33c
00000140: f74a 16bd 1588 193d 7d77 80bb aeb6 51bd
00000150: 0487 58bc ea17 5ebd 519e 04bd 4306 36bd
00000160: 25db 1d3d 9f23 57bc 9540 2ebc c84a dd3c
00000170: 71b6 b43c 71f6 1fbd 3b53 ab3c 355c ca3c
00000180: cb0f 43bd 187d 513d 52e5 13bd 58ee dabc
00000190: 7ba2 54bd 982c 453d 9c08 093c 6ff7 3f3d
000001a0: 7387 07bb 2929 003d aafb a8bc 272e 52bd
000001b0: 59c7 243b 3eba 45bc 3360 6fbc e24c 11bd
000001c0: 25f4 a8bb de2c 063c 2f6c 903c ce61 55bd
000001d0: 93e0 ad3c 6b8e 973b ab6a 193d 1f04 1e3d
000001e0: 82ea 44bd ebd0 5d3d 2846 77bd 0bab 053d
000001f0: 8efb 073b a563 d43c b32f 18bd bdfe ea3c
00000200: 5e7c 12bd 3417 67bd 2598 693c 913c d23c
00000210: 1727 643d 8eaa 2ebc e592 4e3d de74 0a3d
00000220: e91b 07bd 078b 46bd 3b3d e23c b8e8 17bd
00000230: b511 c03c d9f4 6abd 4e89 123d 4791 253c
00000240: 9153 5fbc 3d63 9e3c 57db 47bd 6192 98bc
00000250: a456 c5bb 2372 29bd 87c4 9bbc 0857 03bd
00000260: 136f 453d 7b7d 403d 4795 443d ca00 3b3d
00000270: ee7a 72bd 5684 893c 7092 a23c 3d06 38bd
00000280: b5f4 b33c 4143 0abd 9058 033c 2272 983c
00000290: 7346 4c3d 942b 06bd b84c 42bd 27ef 5a3d
000002a0: a14f bd3c a54a e03c 8d9d 9b3c db8a ebbc
000002b0: e726 df3c 49d3 71bd 8f2d 9c3a ccc4 913c
000002c0: d33e 023d 7993 0ebd 6b75 42bd 4fa3 4a3c
000002d0: 4d80 4dbd e61b 54bd f310 5ebd d918 03bd
000002e0: d507 67bc a6c0 15bd 8a96 e4bc d808 5fbd
000002f0: c1cc 0b3d 92dd a0bc 156f 37bd 1568 073c
00000300: 120d 4abd c92b 093d 3978 d53c 9b14 7ebd
00000310: 6e6c 59bd 0bc5 3cbd 9b58 0abd ca7f a23b
00000320: 907d 7dbd 16dc 38bd fe69 c83c d14a b6bc
00000330: ba1c c6bc 4e81 4fbd c432 ab3c b577 9eb9
00000340: c8df e2bc c00c 2fbd 0300 143c 3bbc 373c
00000350: 65a4 993c aabf 8d3c 0898 3bbc 9359 4dbd
00000360: 8a9f 0b3d 8697 9cbb 140e 2bbd f620 423d
00000370: 02f0 e43c cf87 45bd 6a68 fdbc c1f2 babc
00000380: 6e6f 16bd 0d5e c23c 99b2 3ebd 01e0 473d
00000390: 2d26 ddbc e994 f73c 5748 7ebb 4c1d e8bc
000003a0: 1d03 113d 225d 4cbd fab2 12bd b60e 2a3b
000003b0: d194 283d 20dd efbc 2513 1ebd 43a0 2ebd
000003c0: f086 ebbc dc07 aebc 06d3 89bc ce56 0abd
000003d0: 22c6 923c 8739 7bba 4d77 1fbd 16f9 0cbd
000003e0: e4f7 373c 90c3 36bb e2b8 213d e7d2 2cbc
000003f0: 0f93 58bd a704 4ebd 0181 c2bc 7861 90bc

bias f4 [32]
0.024390727 -0.054459557 -0.0052714525 0.02026994 0.04058705 -0.018755242 0.01829221 -0.0044120885
0.03088369 0.030516125 0.017734157 -0.005248215 -0.0394199 0.004271143 -0.007945946 0.007962599
0.009222963 0.024509318 0.021732599 -0.047421362 -0.052086994 0.015509758 0.0062297992 -0.04616365
0.030846668 0.010209166 -0.044393945 -0.035998914 0.02394725 0.0034111945 -0.002825857 -0.040255178
00000000: 10cf c73c fc10 5fbd 26bc acbb 250d a63c
00000010: 9b3e 263d 98a4 99bc 8bd9 953c 4893 90bb
00000020: cbff fc3c f4fc f93c 3947 913c 38f9 abbb
00000030: c376 21bd f2f4 8b3b b72f 02bc 9075 023c
00000040: e91b 173c c4c7 c83c 9008 b23c e73c 42bd
00000050: 2c59 55bd a41c 7e3c 5823 cc3b 1816 3dbd
00000060: 27b2 fc3c 5944 273c 6dd6 35bd 9973 13bd
00000070: 062d c43c 598e 5f3b 0332 39bb 9de2 24bd

weight f4 [32, 32, 3, 3]
0.018786002 -0.021195551 0.029008456 0.039123654 0.028393598 0.013408051 -0.05670408 0.0037827005
-0.042748176 0.05988041 0.023837538 -0.030046314 0.0327827 -0.05452476 -0.07730308 -0.10596658
-0.014432417 -0.024159452 -0.011424593 -0.01255116 0.021640928 0.06583008 0.08163564 0.11040202
0.02882097 0.020722482 0.11044663 0.042161476 0.039639957 -0.021565292 -0.02033852 -0.015035139
-0.046633035 -0.037609953 0.016355693 0.0044569103 -0.030877657 -0.06630229 -0.09407946 0.05811008
-0.020530034 -0.07702103 0.06881587 -0.001212918 -0.0145379435 0.050658483 0.025322253 0.0012992115
0.026502613 0.03046628 0.016448092 -0.05965124 0.030701626 -0.030859761 0.0922819 0.046853896
0.06370764 0.084710725 0.03539751 0.08175776 -0.009841395 -0.011818019 0.040589422 0.033924665
0.0014541782 0.07225064 -0.053785693 0.0045294203 -0.025087819 -0.014626718 -0.056342702 -0.06877057
0.0075100623 0.06207831 -0.0034930636 0.06038526 0.08499292 0.095858134 0.06655349 4.428439e-05
0.08222789 0.04523667 0.030476078 -0.030808888 -0.023984388 0.030327389 -0.012345772 -0.052615806
-0.0018474832 -0.005681887 -0.014209745 -0.010635884 -0.07920261 -0.06991093 -0.04203104 -0.05558695
5.306647e-05 -0.05473752 -0.0132893035 -0.03144359 -0.036178973 -0.01877844 0.027816465 0.044612322
0.008449444 0.055750698 -0.028520625 0.019082043 0.0042675026 -0.005778916 0.020799344 -0.046667915
-0.044942282 -0.010639619 -0.018292008 -0.039190464 -0.053553823 -0.0059154523 -0.041579917 -0.020242393
-0.05702552 -0.016395094 0.029532455 0.05375994 0.003020503 0.009788196 -0.017163439 -0.087524205
-0.0059824283 -0.03455145 -0.092807785 -0.08801219 -0.08186301 -0.07342438 -0.06505763 -0.0037752043
0.04041768 -0.10624461 -0.050969373 -0.0987946 -0.07788071 0.03351756 0.0067977007 -0.07742471
-0.022229074 0.017406039 0.019226005 -0.07301142 -0.047933806 -0.08265031 0.0923343 0.061472498
-0.001966233 0.016587256 0.013170299 0.05317534 0.029145075 -0.066099375 -0.035033777 0.0028015038
0.021135928 -0.059797253 0.047354307 0.011703391 -0.08184207 -0.008706107 -0.096734725 -0.20490424
-0.0905803 -0.13988806 -0.17164345 0.036858734 -0.011913162 -0.01653936 0.04628101 0.07936957
0.04738858 -0.024226794 0.014831169 0.03252258 -0.078325726 -0.06363701 -0.026058987 0.08900122
0.05561176 -0.04343851 0.031617515 0.07839745 0.015397357 -0.0640023 0.041132454 -0.04898501
-0.007157862 0.007890806 0.056867972 -0.03543495 -0.059448685 0.037148926 -0.051837802 -0.10377745
-0.06361916 0.014002507 -0.07140163 -0.01395013 -0.08061316 -0.031971585 -0.028981099 -0.048228417
-0.09713101 -0.16253321 -0.033538766 -0.05097156 -0.101941146 -0.011466146 -0.09260783 -0.048561204
0.07160794 0.076786645 0.049036928 0.10685784 0.034728125 -0.058043953 0.04804175 -0.044488557
-0.039287776 0.026434941 -0.002918437 -0.023142764 0.016584672 0.01776436 0.02015783 -0.033896316
-0.04816282 -0.058188807 -0.046673577 -0.01712955 -0.030086052 0.045753114 -0.026149368 -0.026720516
-0.03935822 -0.03500987 0.032705147 0.04970357 0.047109332 -0.04178309 -0.02080166 -0.0510643
0.028109998 0.049669996 -0.050111268 0.04292763 -0.06597017 -0.08457379 -0.012006768 -0.065194085
00000000: 1ae5 993c 4ba2 adbc 24a3 ed3c 2040 203d
00000010: b199 e83c 71ad 5b3c 8a42 68bd 2fe7 773b
00000020: b618 2fbd 2945 753d f146 c33c b023 f6bc
00000030: 2747 063d 5b55 5fbd 1451 9ebd 0205 d9bd
00000040: f275 6cbc 0bea c5bc 372e 3bbc 61a3 4dbc
00000050: 5148 b13c ecd1 863d 9630 a73d 741a e23d
00000060: f419 ec3c 32c2 a93c d831 e23d 83b1 2c3d
00000070: 825d 223d b2a9 b0bc f89c a6bc f255 76bc
00000080: 4802 3fbd e50c 1abd 60fc 853c 460b 923b
00000090: 24f3 fcbc 7fc9 87bd bbac c0bd d604 6e3d
000000a0: 9a2e a8bc 34bd 9dbd 56ef 8c3d c6fa 9eba
000000b0: 8e30 6ebc 457f 4f3d 9d70 cf3c 4e4a aa3a
000000c0: 021c d93c 6c94 f93c 26be 863c dc54 74bd
000000d0: fa81 fb3c 9ccd fcbc 4bfe bc3d dfe9 3f3d
000000e0: 2779 823d d17c ad3d fbfc 103d 9d70 a73d
000000f0: cd3d 21bc 5da0 41bc 1841 263d 97f4 0a3d
00000100: 209a be3a 25f8 933d 634e 5cbd 886b 943b
00000110: f884 cdbc e7a4 6fbc 9bc7 66bd 96d7 8cbd
00000120: f816 f63b d345 7e3d e2eb 64bb 8956 773d
00000130: c510 ae3d 4551 c43d 324d 883d 00be 3938
00000140: 1967 a83d 164a 393d f8a8 f93c ec62 fcbc
00000150: e87a c4bc 2571 f83c ec45 4abc ac83 57bd
00000160: 4027 f2ba 1f2f babb fecf 68bc 2142 2ebc
00000170: fa34 a2bd 762d 8fbd bd28 2cbd 24af 63bd
00000180: b093 5e38 7334 60bd 61bb 59bc feca 00bd
00000190: 6730 14bd 3ed5 99bc 5bdf e33c 69bb 363d
000001a0: 896f 0a3c d85a 643d 16a4 e9bc f251 9c3c
000001b0: 68d6 8b3b 105d bdbb 6363 aa3c db26 3fbd
000001c0: 6615 38bd cc51 2ebc 1fd9 95bc 2e86 20bd
000001d0: 415b 5bbd 69d6 c1bb b44f 2abd 60d3 a5bc
000001e0: 9793 69bd 014f 86bc 0cee f13c 6233 5c3d
000001f0: a2f3 453b ab5e 203c 579a 8cbc e43f b3bd
00000200: 3f08 c4bb d285 0dbd 0212 bebd bc3f b4bd
00000210: cba7 a7bd 855f 96bd ef3c 85bd 6b69 77bb
00000220: 028d 253d c696 d9bd 43c5 50bd d354 cabd
00000230: ec7f 9fbd b649 093d 3fbf de3b d990 9ebd
00000240: bf19 b6bc 1c97 8e3c db7f 9d3c 0387 95bd
00000250: 3d56 44bd 9144 a9bd c419 bd3d 96ca 7b3d
00000260: eadb 00bb ffe1 873c 3dc8 573c 63ce 593d
00000270: a7c1 ee3c 1c5f 87bd 947f 0fbd 6f99 373b
00000280: 4125 ad3c f7ed 74bd 97f6 413d 94bf 3f3c
00000290: d19c a7bd 0fa4 0ebc db1c c6bd 6bd2 51be
000002a0: 2a82 b9bd d13e 0fbe 4dc3 2fbe 2ff9 163d
000002b0: 6c2f 43bc 8d7d 87bc 2891 3d3d 838c a23d
000002c0: 871a 423d 4577 c6bc 6efe 723c 6636 053d
000002d0: 3d69 a0bd 1f54 82bd a879 d5bc 4646 b63d
000002e0: 28c9 633d 94ec 31bd 5e81 013d d88e a03d
000002f0: 3245 7c3c a313 83bd 817a 283d 81a4 48bd
00000300: 808c eabb 7048 013c 64ee 683d 3d24 11bd
00000310: 7780 73bd 7929 183d e053 54bd 4689 d4bd
00000320: c34a 82bd c56a 653c 053b 92bd 168f 64bc
00000330: 8318 a5bd a3f4 02bd c569 edbc 298b 45bd
00000340: 9fec c6bd 1b6f 26be f25f 09bd 8ec7 50bd
00000350: 85c6 d0bd 81dc 3bbc 2da9 bdbd 1de8 46bd
00000360: 2fa7 923d 5142 9d3d f2da 483d 49d8 da3d
00000370: 143f 0e3d 7fbf 6dbd 6dc7 443d a239 36bd
00000380: 38ec 20bd 178e d83c 3f43 3fbb e595 bdbc
00000390: 94dc 873c 9086 913c 0922 a53c ddd6 0abd
000003a0: 6146 45bd 6357 6ebd cb2c 3fbd 4553 8cbc
000003b0: 0677 f6bc 9e67 3b3d 3337 d6bc fce4 dabc
000003c0: 1636 21bd 8266 0fbd d5f5 053d f895 4b3d
000003d0: b7f5 403d bf24 2bbd 3e68 aabc cd28 51bd
000003e0: f046 e63c c472 4b3d 7941 4dbd e2d4 2f3d
000003f0: 5e1b 87bd 0635 adbd 09b8 44bc 7a84 85bd

bias f4 [32]
-0.03835868 0.02662173 0.023766376 0.010122729 -0.051539112 -0.012178914 -0.04176414 -0.019345708
0.018383326 -0.02607549 -0.10186903 0.022704186 0.009552399 -0.027439103 -0.053211052 -0.012562621
-0.025548538 -0.029532652 0.0052702585 0.041605018 -0.013909463 -0.016324114 -0.009080037 -0.0508075
0.007719567 0.11647659 0.01020824 -0.020571465 0.043135904 -0.02712166 -0.026387423 -0.014030181
00000000: fe1d 1dbd d015 da3c b4b1 c23c ced9 253c
00000010: ad1a 53bd 118a 47bc e010 2bbd e47a 9ebc
00000020: a198 963c 449c d5bc b6a0 d0bd 21fe b93c
00000030: aa81 1c3c f8c7 e0bc d5f3 59bd 74d3 4dbc
00000040: 2b4b d1bc 76ee f1bc 22b2 ac3b 066a 2a3d
00000050: 84e4 63bc 26ba 85bc 6fc4 14bc 861b 50bd
00000060: 6cf4 fc3b 478b ee3d 7640 273c 7d85 a8bc
00000070: 46af 303d 3e2e debc 702a d8bc d8de 65bc

weight f4 [10, 2592]
0.009921995 0.0014491419 -0.015354352 -0.015388984 0.012725908 -0.010462359 0.01671759 0.004192928
0.011189749 -0.007051306 -0.017807817 -0.018714042 -0.01924452 0.008853415 0.0037123165 -0.005664918
0.015744202 -0.016937897 -0.01716351 -0.019198496 -0.001669261 -0.006122029 0.0052340277 -0.0029908565
-0.015146024 -0.0066497857 -0.014439911 -0.016889788 0.013464393 -0.0024376027 -0.017879568 0.014309298
0.012829927 0.013449387 0.0005072224 0.0090442225 0.013622813 -0.017632017 0.0061573237 -0.017631464
-0.0020919372 0.007341647 0.014716294 -0.014403617 -0.0011332618 -0.009642751 -0.002491029 -0.0017416385
-0.01452082 -0.013199277 -0.0031716232 0.01798585 -0.016883122 -0.014173933 0.014134742 -0.015819538
-0.011458637 0.00021817756 0.008253163 -0.007992808 -0.00440407 -0.0062292214 -0.011585614 0.009350313
-0.0030372113 0.018148636 -0.019983906 -0.01333912 0.010587405 -0.019613776 0.013568773 -0.0025005748
0.0028157004 0.017403366 0.007870443 -0.009441967 -0.015730154 -0.0046457453 -0.012279481 0.008976808
-0.002732749 -0.0019110306 -0.015183076 3.622833e-05 -0.018444119 -0.014947137 0.0028568793 -0.0034983263
-0.0038413915 0.014890599 -0.019986346 0.0071312943 0.012923412 -0.008599609 0.0048334366 -0.011311158
0.0055805915 -0.014197852 -0.018952886 0.009585205 -0.0072094053 -0.010374347 -0.006238906 0.0081000365
-0.01607436 -0.0047005424 -0.01423127 -0.0052113803 0.009231965 -0.013131175 -0.0067902654 0.005081794
-0.0040084524 -0.011462159 -0.0020785083 0.0059965737 0.0009077552 0.01254573 0.006791655 -0.018216226
-0.0138874035 0.0026401 -0.012795017 -0.0066579655 -0.014171423 -0.016005173 -0.01619238 -0.016355788
-0.0050163735 -0.021218184 0.008044647 -0.0034521394 -0.006257594 0.010777102 0.0096563585 -0.018116906
-0.0137469545 -9.5225405e-05 -0.0053545726 0.0013155426 -0.0060224347 -0.01073548 0.014166982 -0.0137961935
0.0012263046 -0.017330933 -0.015713338 -0.008387927 0.005970138 0.0044433856 0.017380632 -0.020509673
0.007630411 0.0015784686 0.0037035812 0.005070388 -0.004674212 0.0033715693 -0.0044506807 -0.0077821175
0.006496931 0.018439667 -0.0037975602 0.006821919 0.00232878 -0.0033366387 0.019540433 -0.0049246103
0.00936057 0.007111709 -0.00020011843 -0.004916719 -0.018767217 0.0135029415 0.0066501833 -0.009233834
-0.01589287 -0.014093664 -0.019082109 0.00833588 0.0013368669 -0.014839703 -0.014567619 -0.017605973
-0.007161225 -0.010576183 0.010250639 -0.009484873 0.0020972085 0.00083441794 0.017101359 -0.015328152
-0.014613193 0.015723633 0.0036170455 -0.014805584 -0.016840687 -0.007790226 -0.008126027 0.011977098
0.006815359 -0.009986097 -0.00814102 -0.0037015055 0.008350114 -0.015592516 0.01847676 -0.01005616
-0.00782315 -0.016707707 -0.009419219 0.014893887 -0.0192712 0.006037122 -0.012143841 -0.00032757674
-0.014343305 0.017822284 0.0029169675 -0.012214668 -0.01681046 -0.019450098 -0.0011693395 0.015645172
-0.018856846 -0.0056536193 0.00961946 -0.0020099953 0.017165704 0.008925289 -0.014454345 -0.014551777
0.01184122 0.0098001845 0.013678626 0.0013530941 0.008326925 -0.0019681845 0.019235237 -5.4243e-05
-0.010647198 0.01812154 -0.0022710245 0.003703682 -0.016007323 0.0042781574 0.0019091881 -0.0044733486
-0.009848469 -0.0066720936 0.017420823 -0.016498523 -0.0046387543 0.015493699 0.0073747695 -0.002167272
00000000: dd8f 223c 22f1 bd3a d290 7bbc 1422 7cbc
00000010: 5480 503c 506a 2bbc 54f3 883c d464 893b
00000020: 3655 373c a40e e7bb b3e1 91bc 314e 99bc
00000030: afa6 9dbc ea0d 113c 564a 733b c7a0 b9bb
00000040: fcf9 803c 58c1 8abc 7d9a 8cbc 2a46 9dbc
00000050: 1bcb daba 4d9b c8bb 3582 ab3b 3f02 44bb
00000060: 0727 78bc 72e6 d9bb 6095 6cbc 745c 8abc
00000070: c299 5c3c 30c0 1fbb 2c78 92bc 8c71 6a3c
00000080: 9d34 523c d15a 5c3c 1ef7 043a 382e 143c
00000090: 3832 5f3c 0571 90bc 60c3 c93b dc6f 90bc
000000a0: e218 09bb 3392 f03b 9c1c 713c 26fd 6bbc
000000b0: f589 94ba a1fc 1dbc 8840 23bb b147 e4ba
000000c0: bce8 6dbc c841 58bc 02db 4fbb 1057 933c
000000d0: 794e 8abc c939 68bc 6895 673c fa97 81bc
000000e0: 02bd 3bbc 98c6 6439 4638 073c 44f4 02bc
000000f0: 0450 90bb 7f1e ccbb 96d1 3dbc 0e32 193c
00000100: f30b 47bb 73ac 943c 4ab5 a3bc 538c 5abc
00000110: cc76 2d3c 12ad a0bc 8f4f 5e3c afe0 23bb
00000120: 9d87 383b 8191 8e3c 08f3 003c 7bb2 1abc
00000130: 86dc 80bc 563b 98bb e02f 49bc 7613 133c
00000140: ec17 33bb 8c7b faba 70c2 78bc e0f3 1738
00000150: 1f18 97bc d6e4 74bc 7b3a 3b3b 2d44 65bb
00000160: dbbf 7bbb b3f7 733c 68ba a3bc a2ad e93b
00000170: b8bc 533c 60e5 0cbc ce61 9e3b 6f52 39bc
00000180: 65dd b63b 1c9e 68bc 1543 9bbc 440b 1d3c
00000190: e03c ecbb 2af9 29bc bd6f ccbb 04b6 043c
000001a0: 60ae 83bc 0207 9abb 462a 69bc 3ac4 aabb
000001b0: ab41 173c 2424 57bc e080 debb 2e85 a63b
000001c0: 5659 83bb c8cb 3bbc 9537 08bb e87e c43b
000001d0: 6cf6 6d3a 9b8c 4d3c 888c de3b 323a 95bc
000001e0: fe87 63bc 8705 2d3b 31a2 51bc 102b dabb
000001f0: 422f 68bc 481d 83bc e2a5 84bc 93fc 85bc
00000200: 6460 a4bb c2d1 adbc b2cd 033c 4a3d 62bb
00000210: 810c cdbb 7192 303c b435 1e3c e869 94bc
00000220: e83a 61bc c0b3 c7b8 6975 afbb 496e ac3a
00000230: d857 c5bb dee3 2fbc a11c 683c 6e09 62bc
00000240: f4bb a03a 9af9 8dbc 42b9 80bc 846d 09bc
00000250: 26a1 c33b d299 913b d461 8e3c e703 a8bc
00000260: 8708 fa3b 9ee4 ce3a c8b7 723b 7f25 a63b
00000270: 222a 99bb 8cf5 5c3b 04d7 91bb 2201 ffbb
00000280: 35e4 d43b c90e 973c 7de0 78bb 688a df3b
00000290: 729e 183b 82ab 5abb 4213 a03c a05e a1bb
000002a0: 145d 193c 5709 e93b e2d6 51b9 6e1c a1bb
000002b0: b5bd 99bc 713b 5d3c c8e9 d93b 8249 17bc
000002c0: c431 82bc 1ce9 66bc 1552 9cbc 3793 083c
000002d0: cf39 af3a 3a22 73bc 06ad 6ebc 673a 90bc
000002e0: b6a8 eabb ba47 2dbc 4cf2 273c 7166 1bbc
000002f0: 5271 093b d7bc 5a3a 2618 8c3c ee22 7bbc
00000300: 2d6c 6fbc d9ce 803c f40b 6d3b 1f93 72bc
00000310: 7bf5 89bc 2745 ffbb 0723 05bc 973b 443c
00000320: 6053 df3b ba9c 23bc ea61 05bc f594 72bb
00000330: ebce 083c c177 7fbc 935c 973c 98c2 24bc
00000340: ab2c 00bc 9ade 88bc 1153 1abc 7d05 743c
00000350: a3de 9dbc 0dd3 c53b f6f6 46bc 9bbe abb9
00000360: 2e00 6bbc 0a00 923c 982a 3f3b 0820 48bc
00000370: 17b6 89bc d055 9fbc 8644 99ba 4e2a 803c
00000380: ac79 9abc ff41 b9bb f19a 1d3c 20ba 03bb
00000390: 179f 8c3c 603b 123c ebd1 6cbc 946a 6ebc
000003a0: ad01 423c f490 203c 511c 603c 4e5a b13a
000003b0: a86d 083c a8fc 00bb 3793 9d3c fa82 63b8
000003c0: 9671 2ebc a073 943c 78d5 14bb 79b9 723b
000003d0: ca21 83bc c92f 8c3b b93d fa3a 2b95 92bb
000003e0: 795b 21bc 94a1 dabb 1db6 8e3c e927 87bc
000003f0: b100 98bb 49d9 7d3c 0da8 f13b ca08 0ebb

bias f4 [10]
-0.0060219914 0.13803703 0.022794854 0.0017539777 0.0019992776 -0.01948518 0.015385931 0.055558305
-0.017402302 -0.023620313
00000000: 2054 c5bb 9459 0d3e 46bc ba3c bae5 e53a
00000010: 5006 033b 629f 9fbc 4615 7c3c 1b91 633d
00000020: 468f 8ebc 637f c1bc
