tests/new_zipfile_serialization/gpu/mnist_with_model_def.pt (torch, 184047 bytes, 8 tensors)

weight f4 [32, 1, 3, 3]
0.20248517 -0.10159455 -0.11177922 0.13027912 -0.3786316 0.17053778 -0.08110438 0.14524214
0.046741746 -0.081401035 0.06963207 -0.011753975 0.09132131 -0.15585336 -0.039809264 -0.073746294
0.020580452 0.004294803 0.26074114 0.09957803 -0.15620317 -0.20709425 -0.18082976 -0.19638468
-0.059134923 0.010397812 0.22466603 0.17432448 -0.24108827 0.2536892 0.08321379 0.39260125
0.23163465 -0.39190546 -0.40070802 -0.38208136 0.30649814 -0.08568591 0.052583396 -0.06517588
0.29790598 -0.27628654 0.28628385 -0.04200761 -0.37082174 0.149906 -0.17698187 0.03802435
-0.07781319 0.0046673096 -0.23175453 -0.151283 0.13151833 -0.04020788 0.22996706 0.20346838
-0.08303515 -0.326014 0.1369262 0.030566718 -0.30560744 0.14719559 0.14662033 0.3333351
-0.19375777 -0.19394 0.046723552 0.13232556 -0.24828027 -0.16398466 0.27671942 0.0029992883
0.14027917 -0.009073273 0.067295715 0.08779922 0.11432919 0.13186783 -0.35501826 0.14693038
-0.23042507 -0.25118375 0.00807014 -0.05088444 0.20992632 -0.18472867 -0.30002576 0.25627005
-0.008965062 0.22963773 0.18486603 -0.19704182 0.08642643 0.16884735 -0.21476296 -0.17337632
0.13784641 0.06561272 -0.12903024 -0.118810244 0.24739937 -0.16317008 0.14948392 0.103206284
-0.31208646 -0.3679861 0.30178788 0.024183126 0.15407665 -0.00051957555 0.02499173 0.14922757
0.14152175 -0.42269057 -0.070952244 0.09820893 0.08701452 0.1672332 -0.2988932 -0.26632833
-0.19249001 0.068991855 0.39064714 -0.07776547 0.2531865 -0.14239456 -0.46780142 -0.1285024
0.104340024 0.2462354 -0.19882865 0.03871309 0.2506314 0.15545103 0.12538055 0.28892994
0.30401015 0.12798986 -0.18832421 -0.22251058 -0.30613193 -0.060590964 -0.122025475 0.10473357
-0.012940005 -0.14017415 0.12093534 -0.011359861 0.09850613 0.16751881 -0.1543941 0.26223215
-0.08239074 0.06949576 -0.3097433 -0.18331009 -0.18775164 -0.089932896 0.2747426 -0.18757634
-0.20919183 0.14917108 0.1585271 0.28330523 -0.22362693 0.103001036 -0.106383406 -0.27723065
-0.41165525 -0.16969825 -0.05634262 0.049604837 -0.077302575 -0.029871684 0.21786 0.16418524
0.12695946 -0.05133614 -0.32780498 0.18288739 -0.032751415 -0.048693746 -0.31365466 -0.025777731
-0.22600736 0.28042957 -0.23975623 -0.15157247 -4.23937e-05 -0.069968104 0.1609697 -0.1138955
-0.13746488 -0.02093602 0.19156565 -0.2900092 0.05037212 0.17220007 0.27704185 -0.29945546
0.032364633 -0.21994205 0.2694376 -0.14611846 0.18016346 -0.040124986 -0.1252637 -0.11034839
0.015674097 0.079185046 -0.024925753 0.020254306 -0.39543957 0.10352699 0.14480229 0.18069412
0.28322375 -0.26623943 -0.16323978 0.31980702 -0.33896443 0.26139355 -0.25507155 -0.3331197
0.089390256 -0.32398075 -0.15148127 0.20148481 0.255088 0.2715488 -0.08053933 -0.27493206
0.2120117 -0.19127902 -0.101273306 0.09531957 -0.33830532 0.22820523 0.2528735 -0.26221484
-0.23009254 0.034449205 0.17851883 -0.030020766 -0.14864954 0.03342791 -0.32385594 -0.2517535
-0.2734791 0.29610512 0.3258191 -0.08286633 -0.021755025 0.069786415 -0.067636676 -0.22233942
00000000: 4658 4f3e ce10 d0bd 81ec e4bd e467 053e
00000010: 00dc c1be 75a1 2e3e 0e1a a6bd 5bba 143e
00000020: 4674 3f3d 96b5 a6bd 429b 8e3d bf93 40bc
00000030: ab06 bb3d 0698 1fbe 0a0f 23bd 4c08 97bd
00000040: 5698 a83c 6bbb 8c3b dd7f 853e 91ef cb3d
00000050: b9f3 1fbe 8410 54be 702b 39be 1119 49be
00000060: 7637 72bd 965b 2a3c da0e 663e 1e82 323e
00000070: d8df 76be 8de3 813e fe6b aa3d 0803 c93e
00000080: a231 6d3e d5a7 c8be 9a29 cdbe 2ba0 c3be
00000090: 53ed 9c3e 187c afbd b061 573d ef7a 85bd
000000a0: 2287 983e 6e75 8dbe cc93 923e 2c10 2cbd
000000b0: 59dc bdbe f580 193e bc3a 35be 6cbf 1b3d
000000c0: 865c 9fbd 3bf0 983b 0f51 6dbe eee9 1abe
000000d0: beac 063e 05b1 24bd 7c7c 6b3e 045a 503e
000000e0: 550e aabd 4feb a6be 6236 0c3e 0e67 fa3c
000000f0: 9478 9cbe 71ba 163e a423 163e e6aa aa3e
00000100: 7068 46be 3598 46be 3261 3f3d 5a80 073e
00000110: 2f3d 7ebe 98eb 27be 2bae 8d3e b58f 443b
00000120: 58a5 0f3e 11a8 14bc 56d2 893d 14d0 b33d
00000130: 6c25 ea3d 5c08 073e f4c4 b5be eb74 163e
00000140: 8df4 6bbe 289b 80be 9f38 043c 346c 50bd
00000150: edf6 563e 8329 3dbe fa9c 99be d435 833e
00000160: 32e2 12bc 2726 6b3e 854d 3d3e 55c5 49be
00000170: 5700 b13d 52e6 2c3e d2ea 5bbe 9089 31be
00000180: 9c27 0d3e f65f 863d 8120 04be c952 f3bd
00000190: 4356 7d3e 0f16 27be 5012 193e d15d d33d
000001a0: ccc9 9fbe ad68 bcbe f183 9a3e b11b c63c
000001b0: 45c6 1d3e 2034 08ba 75bb cc3c 1dcf 183e
000001c0: 14eb 103e e66a d8be 694f 91bd c321 c93d
000001d0: ab34 b23d 2e3f 2b3e 8808 99be 305c 88be
000001e0: 1a1c 45be 9a4b 8d3d e702 c83e 8143 9fbd
000001f0: a9a1 813e e1cf 11be ab83 efbe 2296 03be
00000200: 39b0 d53d 2225 7c3e bd99 4bbe 9e91 1e3d
00000210: c252 803e 8e2e 1f3e c263 003e a0ee 933e
00000220: 38a7 9b3e c60f 033e 10d8 40be d0d9 63be
00000230: 53bd 9cbe 3b2e 78bd 7ee8 f9bd 8e7e d63d
00000240: 5102 54bc d089 0fbe f3ac f73d b61e 3abc
00000250: 95bd c93d 0d8a 2b3e 7d19 1ebe 4b43 863e
00000260: 7abc a8bd cb53 8e3d ac96 9ebe a4b5 3bbe
00000270: f741 40be bd2e b8bd 10ab 8c3e 0314 40be
00000280: 6236 56be 4ec0 183e ee54 223e 620d 913e
00000290: 75fe 64be 35f2 d23d 8bdf d9bd 2df1 8dbe
000002a0: 7ac4 d2be 61c5 2dbe 85c7 66bd 712e 4b3d
000002b0: d050 9ebd 76b5 f4bc b116 5f3e 2d20 283e
000002c0: a901 023e d845 52bd 0ed6 a7be d546 3b3e
000002d0: 5926 06bd 1873 47bd 5897 a0be d22b d3bc
000002e0: 796e 67be 7794 8f3e a882 75be d035 1bbe
000002f0: e4cf 31b8 704b 8fbd 3ed5 243e 0b42 e9bd
00000300: 98c3 0cbe 0482 abbc c929 443e 167c 94be
00000310: ff52 4e3d 3755 303e 6ed8 8d3e 3a52 99be
00000320: c790 043d 7d38 61be baf3 893e 14a0 15be
00000330: c57c 383e 195a 24bd 2145 00be 56fe e1bd
00000340: f766 803c c52b a23d 1831 ccbc 5cec a53c
00000350: 0e77 cabe f505 d43d 0d47 143e e107 393e
00000360: b402 913e 8950 88be 5428 27be bfbd a33e
00000370: bf8c adbe 60d5 853e bd98 82be aa8e aabe
00000380: 3d12 b73d cee0 a5be e81d 1bbe 0952 4e3e
00000390: e59a 823e 7208 8b3e cef1 a4bd e5c3 8cbe
000003a0: 9819 593e a6de 43be 6168 cfbd e836 c33d
000003b0: 5b36 adbe a2ae 693e a378 813e 0641 86be
000003c0: 619d 6bbe 9c1a 0d3d a4cd 363e 1cee f5bc
000003d0: 9637 18be b4eb 083d 72d0 a5be d6e5 80be
000003e0: 7405 8cbe 179b 973e c3d1 a63e d3b5 a9bd
000003f0: 9837 b2bc 2eec 8e3d 1985 8abd f2ac 63be

bias f4 [32]
-0.15584823 -0.05867783 -0.1186147 -0.22865465 0.10806097 0.010194296 -0.15438105 -0.2310971
-0.20095587 -0.03709741 -0.1999769 -0.23614465 -0.18047886 -0.14314385 -0.041745827 -0.13138375
-0.17002682 -0.18792844 -0.3022161 0.16937053 -0.017763274 0.07705473 -0.123091534 -0.18177629
-0.29208508 -0.24508724 0.07936139 -0.27718067 -0.24025276 -0.084904216 0.07387839 -0.08850093
00000000: ae96 1fbe 2a58 70bd 44ec f2bd 7224 6abe
00000010: 124f dd3d fa05 273c 1116 1ebe b8a4 6cbe
00000020: 60c7 4dbe 74f3 17bd bfc6 4cbe e7cf 71be
00000030: 73cf 38be 4d94 12be acfd 2abd 7689 06be
00000040: 831b 2ebe 5070 40be 12bc 9abe 786f 2d3e
00000050: 4984 91bc dfce 9d3d 6a17 fcbd 9023 3abe
00000060: 2d8c 95be 26f8 7abe 3988 a23d a0ea 8dbe
00000070: d204 76be 43e2 adbd 8e4d 973d fa3f b5bd

weight f4 [32, 32, 3, 3]
-0.046073783 -0.03143512 -0.020330656 -0.056916248 -0.012592348 -0.057454508 -0.06464549 -0.028491149
-0.10124506 -0.016643358 0.0214382 0.01228546 0.0447345 -0.044846296 -0.012122018 -0.0247321
-0.034323905 -0.034779653 -0.018166816 -0.025593549 -0.07510139 -0.08732859 -0.10193244 -0.0151751125
-0.043134086 -0.066285625 -0.06958746 -0.034489416 -0.066498294 -0.048659366 0.02455748 0.021982495
0.009960017 -0.0379693 0.059101813 0.10454218 -0.0026873448 -0.033315346 0.012972486 -0.059522167
-0.07875379 -0.08710437 -0.0026544377 -0.043545663 -0.00041716645 0.0050130277 -0.07156046 -0.0725968
0.020211937 -0.018647507 -0.09582049 0.019891037 0.008270991 -0.0059553892 0.013719291 0.028606517
0.008067957 0.0018934424 0.02091857 0.033723574 -0.07077825 -0.080203794 0.053918306 -0.028757269
-0.06160833 0.033037852 0.0021372617 -0.00083486515 -0.036570698 -0.034367617 -0.006106451 0.0113073755
-0.022877406 -0.040660784 0.05648334 -0.04187022 0.028022557 0.011983573 0.014733498 0.023147848
-0.012102228 0.011420169 -0.03765572 -0.10658924 -0.023732139 -0.08228281 -0.078314275 -0.019751139
0.045819532 -0.047982775 -0.01277893 0.020339439 0.008454918 -0.052362755 0.013997774 0.015196086
-0.06017724 0.04744336 -0.044376474 -0.049137056 -0.07303508 0.11023301 -0.008756212 0.033244226
0.043120615 0.020795284 -0.039697427 -0.048410878 -0.03860849 -0.015952624 0.013284336 -0.077015005
-0.019488946 0.027542416 -0.00917019 -0.08586024 0.018559497 -0.031018808 0.0066738785 0.009768968
-0.07256854 0.025534347 -0.09724011 0.0046814377 -0.03686515 -0.039953403 -0.08012733 0.017408777
-0.033632934 -0.07579026 0.00858726 0.03214643 0.0668568 0.00029713023 0.053380385 -0.00054042495
-0.08091038 -0.11885221 -0.015433682 -0.08171654 -0.03038182 -0.08918788 0.02221695 0.011902124
-0.038990855 0.031911463 -0.03588451 -0.06598583 -0.004411361 -0.024467943 -0.06206574 -0.035126757
0.05607012 0.029425256 0.043625236 0.067317545 -0.06731956 0.009947132 0.016627574 -0.07359825
-0.009853221 -0.07290467 -0.02474245 -0.012520632 0.017064914 -0.06978381 -0.084332526 0.009702968
-0.001571388 0.0013769019 -0.016452624 -0.05081982 0.033827104 -0.039331764 -0.035960138 0.018920787
0.0548074 -0.082889795 -0.05483803 0.042142194 -0.043731622 -0.045798793 -0.04290934 -0.016834514
-0.0026494535 -0.037288327 -0.026164927 -0.0614883 0.012709119 0.0002540632 -0.016054146 0.03679818
-0.04169217 0.061576366 0.06527103 -0.07559062 -0.053286772 -0.015728593 -0.05293931 -0.008801287
-0.08051107 -0.06876782 0.0084748445 -0.045006357 -0.04146864 -0.06594719 -0.004629068 -0.03342153
-0.04438989 -0.02008868 -0.017805316 -0.009859764 0.04023912 0.031121654 -0.0068154233 -0.04971954
-0.0033981055 -0.037516203 -0.03789659 0.01640996 -0.0013864045 -0.072853595 -0.06638531 -0.06608074
-0.07871335 -0.0023362334 -0.065373436 0.05304524 -0.056379795 0.010230197 0.0046660886 -0.057859074
0.00814638 -0.068110116 -0.05534915 -0.03647661 0.050760265 -0.030608643 -0.057700258 -0.0345156
-0.018154327 -0.040875997 -0.044088542 -0.0436809 0.0059475345 -0.011257524 -0.026101014 -0.029549677
0.01243357 0.05211701 0.08437005 -0.010797257 -0.050864168 -0.029183725 0.003548955 -0.030992977
00000000: ddb7 3cbd 1dc2 00bd 7a8c a6bc 0321 69bd
00000010: 2350 4ebc 6b55 6bbd db64 84bd 4566 e9bc
00000020: 9259 cfbd a757 88bc 2a9f af3c f448 493c
00000030: 863b 373d c0b0 37bd 6e9b 46bc f99a cabc
00000040: 3997 0cbd 1c75 0ebd 93d2 94bc 90a9 d1bc
00000050: c2ce 99bd 55d9 b2bd f5c1 d0bd 09a1 78bc
00000060: 5ead 30bd c2c0 87bd df83 8ebd c644 0dbd
00000070: 4230 88bd 0b4f 47bd c52c c93c a214 b43c
00000080: 572f 233c b285 1bbd be14 723d 361a d63d
00000090: 2a1e 30bb ac75 08bd 8d8a 543c 84cd 73bd
000000a0: ab49 a1bd c763 b2bd 13f6 2dbb f05c 32bd
000000b0: 22b7 dab9 5344 a43b 4a8e 92bd a2ad 94bd
000000c0: 8193 a53c a8c2 98bc 883d c4bd 87f2 a23c
000000d0: 0d83 073c 6d25 c3bb e1c6 603c 3758 ea3c
000000e0: 772f 043c 622d f83a 6c5d ab3c bb21 0a3d
000000f0: 30f4 90bd e341 a4bd 71d9 5c3d 5d94 ebbc
00000100: 0459 7cbd b352 073d 4d11 0c3b dada 5aba
00000110: 28cb 15bd 0fc5 0cbd a018 c8bb 9242 393c
00000120: 6669 bbbc ec8b 26bd 135b 673d 1c80 2bbd
00000130: 908f e53c c056 443c c564 713c 8ea0 bd3c
00000140: 6c48 46bc a91b 3b3c e23c 1abd 764b dabd
00000150: e769 c2bc e483 a8bd 3c63 a0bd 24cd a1bc
00000160: 43ad 3b3d 9689 44bd b85e 51bc e59e a63c
00000170: 7f86 0a3c 547a 56bd eb56 653c 01f9 783c
00000180: 697c 76bd f853 423d 1bc4 35bd f043 49bd
00000190: 6b93 95bd d8c1 e13d 3776 0fbc 192b 083d
000001a0: 3e9f 303d df5a aa3c c599 22bd 7c4a 46bd
000001b0: f023 1ebd 14af 82bc 8ba6 593c 0bba 9dbd
000001c0: 48a7 9fbc a2a0 e13c 913e 16bc 7ed7 afbd
000001d0: 160a 983c 281b febc 8db0 da3b 060e 203c
000001e0: d19e 94bd 682d d13c d325 c7bd bf66 993b
000001f0: e9ff 16bd 2ea6 23bd cc19 a4bd da9c 8e3c
00000200: b0c2 09bd ed37 9bbd 94b1 0c3c faab 033d
00000210: 38ec 883d 25c8 9b39 64a5 5a3d 4eab 0dba
00000220: 57b4 a5bd ca68 f3bd 8edd 7cbc 005b a7bd
00000230: 4be3 f8bc 23a8 b6bd 5200 b63c 2001 433c
00000240: e0b4 1fbd 98b5 023d a3fb 12bd 9423 87bd
00000250: 2e8d 90bb ff70 c8bc a538 7ebd 13e1 0fbd
00000260: c8a9 653d 3c0d f13c 60b0 323d c8dd 893d
00000270: d6de 89bd 4cf9 223c 8d36 883c aeba 96bd
00000280: 676f 21bc 0b4f 95bd aeb0 cabc 5623 4dbc
00000290: b8cb 8b3c d0ea 8ebd 88b6 acbd 33f9 1e3c
000002a0: 08f7 cdba 2979 b43a a7c7 86bc 7228 50bd
000002b0: 4a8e 0a3d 581a 21bd f04a 13bd c4ff 9a3c
000002c0: b97d 603d 20c2 a9bd d89d 60bd 4b9d 2c3d
000002d0: ee1f 33bd 8497 3bbd b4c1 2fbd 89e8 89bc
000002e0: 74a2 2dbb a5bb 18bd d457 d6bc 28db 7bbd
000002f0: e939 503c c933 8539 fc83 83bc b0b9 163d
00000300: 69c5 2abd 8037 7c3d d1ac 853d 41cf 9abd
00000310: 3b43 5abd 40d9 80bc e4d6 58bd 4633 10bc
00000320: fde2 a4bd 25d6 8cbd 13da 0a3c 9658 38bd
00000330: 05db 29bd 520f 87bd 70af 97bb 04e5 08bd
00000340: 2cd2 35bd 0491 a4bc 74dc 91bc d98a 21bc
00000350: c7d1 243d d7f2 fe3c ea53 dfbb b7a6 4bbd
00000360: c0b2 5ebb 97aa 19bd 7439 1bbd 2e6e 863c
00000370: 04b8 b5ba 4434 95bd 05f5 87bd 5755 87bd
00000380: 7734 a1bd 7e1b 19bb 82e2 85bd f745 593d
00000390: 80ee 66bd 8e9c 273c fde5 983b a3fd 6cbd
000003a0: 6578 053c 517d 8bbd cab5 62bd 7f68 15bd
000003b0: ffe9 4f3d fabe fabc 1b57 6cbd 3b60 0dbd
000003c0: 62b8 94bc 976d 27bd 3096 34bd beea 32bd
000003d0: 89e3 c23b 7a71 38bc cbd1 d5bc 2a12 f2bc
000003e0: 2cb6 4b3c a578 553d 34ca ac3d fae6 30bc
000003f0: f256 50bd b512 efbc 9695 683b fce4 fdbc

bias f4 [32]
0.0384246 -0.014969953 -0.009577034 0.005850286 0.089143746 -0.01320623 -0.019811988 -0.02388737
-0.0070493435 0.042735368 0.02457159 -0.0010272862 0.019740442 0.0018157839 -0.0009577076 0.016656533
-0.031485394 0.0024741334 0.0377522 -0.057545733 -0.02804809 0.030612841 -0.055668984 -0.05206484
0.014256835 0.0047907024 -0.049730066 -0.018779015 0.008617365 0.064008206 -0.016944708 0.01732084
00000000: 1d63 1d3d 8944 75bc fee8 1cbc c2b3 bf3b
00000010: ff90 b63d f15e 58bc c04c a2bc 72af c3bc
00000020: 2efe e6bb 480b 2f3d 5c4a c93c 01a6 86ba
00000030: b5b6 a13c 99ff ed3a ab0e 7bba 4873 883c
00000040: d4f6 00bd 1225 223b 0da2 1a3d 13b5 6bbd
00000050: 1cc5 e5bc c8c7 fa3c 2905 64bd f141 55bd
00000060: 8095 693c 53fb 9c3b c1b1 4bbd 73d6 99bc
00000070: d92f 0d3c bc16 833d a1cf 8abc 6fe4 8d3c

weight f4 [32, 32, 3, 3]
0.090729274 0.032695185 0.038566217 0.10144429 0.06572421 -0.022924881 -0.057750095 -0.03423581
-0.14311258 0.048996657 0.031843316 -0.009725694 0.029179094 -0.052635543 -0.059786394 -0.03835231
0.023688419 0.029686121 -0.06196497 -0.054433517 -0.041445047 -0.028215157 -0.024530001 0.009352507
-0.043536566 -0.075906746 0.024805466 0.05385918 0.050317004 -0.015352882 -0.008765433 0.005455118
-0.017204253 -0.026211524 0.030535752 0.02703666 -0.0751362 -0.0997116 -0.12073031 -0.014196602
-0.048101094 -0.064312294 0.023403348 -0.024440078 -0.0024635375 0.041385725 0.014342585 -0.008263671
0.040326864 0.042705584 0.036539633 -0.049667235 0.04658673 0.015231787 0.05144487 0.013038751
0.0557672 0.043535452 -0.0025674254 0.05817928 -0.04261343 -0.053662907 -0.00865057 0.035596028
0.010740544 0.05770687 -0.08003962 -0.0141861765 -0.053997863 -0.10119079 -0.13533889 -0.12740667
-0.029812323 0.04336673 -0.011764374 0.080824606 0.11859997 0.13704179 0.07981154 0.032501873
0.13267194 0.11475786 0.09017244 0.015177958 0.048881683 0.082016215 0.0065207332 -0.030041536
-0.0148954075 -0.07829207 0.025808424 0.021348486 -0.05163681 -0.045659777 -0.020485632 -0.039450813
0.0019075031 -0.023590663 0.039146315 -0.015510443 4.0893254e-05 0.0399724 0.09799066 0.11820556
0.09382445 0.116888516 0.04150346 0.0953341 -0.012733071 -0.0207279 0.0053504603 0.012991951
0.01133469 0.04257377 0.086235724 0.034373593 -0.009699118 -0.0046771024 -0.04021327 -0.017488752
-0.056174517 -0.015779361 0.029815866 0.05400628 0.0028239477 0.00957158 -0.02421882 -0.039751355
0.0742489 -0.02544496 -0.052626975 -0.03994578 -0.024178 -0.02934761 -0.04457303 0.0037793317
0.074903205 -0.070857026 -0.08067199 -0.11101937 -0.08393134 -0.00907317 -0.008433061 -0.04262297
-0.025479285 0.022666024 0.024859097 -0.06948725 -0.02669105 -0.057399742 0.042233612 0.035083573
-0.011749979 0.040052965 0.020738361 0.03168753 0.03395452 -0.07928262 -0.06262295 0.018807422
-0.002152368 -0.11328494 0.06279186 0.0074649774 -0.0828623 0.019922081 -0.034508467 -0.15226872
-0.03336254 -0.087097354 -0.12624292 0.0062739397 -0.026849711 -0.010498102 0.02421219 0.07232037
0.062339395 -0.017472 0.04270568 0.06631507 -0.14266017 -0.08989498 -0.029442187 0.029113982
0.04262826 -0.0036376198 -0.01363843 0.07953965 0.07380646 -0.04791591 0.03379164 -0.023404224
0.016510265 0.01433597 0.059937246 -0.038415104 -0.06987062 0.032804947 0.02590944 -0.060253378
-0.08973705 0.06429614 -0.068820015 -0.08695397 -0.110834174 -0.08977946 -0.15598968 -0.08096108
-0.09371744 -0.13414276 -0.07208841 -0.070919536 -0.100816235 -0.05461913 -0.075714596 0.006808046
0.039484132 0.06887489 0.05228327 0.09898707 0.055725012 -0.045868043 0.0675304 -0.0022470672
-0.06876324 0.05552579 0.018651241 -0.019690724 0.02503199 0.020246306 0.015276084 -0.04931345
-0.06696942 -0.06938352 -0.04599445 -0.01530794 -0.026101394 0.047737744 -0.021667665 -0.021856068
-0.038979106 -0.035112556 0.031369615 0.020780077 0.013998243 -0.06147187 -0.036968634 -0.060528815
0.032967728 0.06502222 -0.034390178 0.071699746 -0.012675499 -0.04103181 -0.010836169 -0.043479804
00000000: 45d0 b93d 63eb 053d 9cf7 1d3d 06c2 cf3d
00000010: 6a9a 863d f6cc bbbc 5d8b 6cbd d93a 0cbd
00000020: 1b8c 12be b8b0 483d 236e 023d 8458 1fbc
00000030: ff08 ef3c 5e98 57bd 94e2 74bd 5017 1dbd
00000040: 370e c23c 4f30 f33c fbce 7dbd aef5 5ebd
00000050: 48c2 29bd 7923 e7bc 24f3 c8bc 423b 193c
00000060: 6653 32bd ff74 9bbd d534 cb3c 729b 5c3d
00000070: 3419 4e3d a88a 7bbc e49c 0fbc d9c0 b23b
00000080: efef 8cbc 8db9 d6bc 1d26 fa3c fc7b dd3c
00000090: 02e1 99bd 9835 ccbd 7441 f7bd dd98 68bc
000000a0: a705 45bd 2ab6 83bd 61b8 bf3c 8f36 c8bc
000000b0: 4d73 21bb 1484 293d 29fd 6a3c 5964 07bc
000000c0: c82d 253d 0dec 2e3d 95aa 153d df6f 4bbd
000000d0: bad1 3e3d bf8e 793c dbb7 523d 7ca0 553c
000000e0: 266c 643d 3b52 323d 4042 28bb 664d 6e3d
000000f0: 6c8b 2ebd a3cd 5bbd 1fbb 0dbc 24cd 113d
00000100: 1bf9 2f3c 0a5e 6c3d d0eb a3bd 236d 68bc
00000110: dd2c 5dbd 1e3d cfbd 4796 0abe e576 02be
00000120: f938 f4bc 50a1 313d 5cbf 40bc 5f87 a53d
00000130: 8be4 f23d af54 0c3e 3c74 a33d af20 053d
00000140: 27db 073e 2b06 eb3d 54ac b83d f8ac 783c
00000150: 2938 483d 1ef8 a73d e0ab d53b ab19 f6bc
00000160: de0b 74bc 9857 a0bd 306c d33c 05e3 ae3c
00000170: 1f81 53bd bf05 3bbd 7cd1 a7bc 2d97 21bd
00000180: 2f05 fa3a 3541 c1bc e357 203d 831f 7ebc
00000190: cc84 2b38 19ba 233d 54af c83d c215 f23d
000001a0: 0927 c03d 3f63 ef3d 88ff 293d 863e c33d
000001b0: 5f9e 50bc 8fcd a9bc ea52 af3b 31dc 543c
000001c0: 23b5 393c d561 2e3d 5b9c b03d 53cb 0c3d
000001d0: 0de9 1ebc 6142 99bb abb6 24bd 9244 8fbc
000001e0: 4017 66bd b843 81bc 6740 f43c b035 5d3d
000001f0: fb11 393b 1ed2 1c3c 8c66 c6bc 51d2 22bd
00000200: cf0f 983d f371 d0bc 628f 57bd 309e 23bd
00000210: f110 c6bc 666a f0bc 3692 36bd aaae 773b
00000220: da66 993d 7d1d 91bd 5b37 a5bd 205e e3bd
00000230: 32e4 abbd a2a7 14bc d22a 0abc 6c95 2ebd
00000240: efb9 d0bc 19ae b93c 4ea5 cb3c 554f 8ebd
00000250: 30a7 dabc fe1b 6bbd 27fd 2c3d cbb3 0f3d
00000260: fc82 40bc 940e 243d 7fe3 a93c c9ca 013d
00000270: e513 0b3d ed5e a2bd 7640 80bd 0612 9a3c
00000280: be0e 0dbb ef01 e8bd 0599 803d c59c f43b
00000290: b6b3 a9bd a233 a33c c058 0dbd 55ec 1bbe
000002a0: 29a7 08bd 1960 b2bd d345 01be 9f95 cd3b
000002b0: edf3 dbbc 3b00 2cbc a558 c63c b41c 943d
000002c0: 9857 7f3d 7121 8fbc 27ec 2e3d 32d0 873d
000002d0: 8215 12be dc1a b8bd be30 f1bc 7280 ee3c
000002e0: f89a 2e3d 2265 6ebb b973 5fbc afe5 a23d
000002f0: d727 973d 7943 44bd 1a69 0a3d 37ba bfbc
00000300: 8940 873c 6be1 6a3c c280 753d 2859 1dbd
00000310: 5418 8fbd 7b5e 063d 0940 d43c 3fcc 76bd
00000320: 0fc8 b7bd b2ad 833d 82f1 8cbd ec14 b2bd
00000330: 07fd e2bd 4bde b7bd c2bb 1fbe ecce a5bd
00000340: eeee bfbd b85c 09be 17a3 93bd 433e 91bd
00000350: be78 cebd 4fb8 5fbd 4110 9bbd 0716 df3b
00000360: 1dba 213d 470e 8d3d fb26 563d bcb9 ca3d
00000370: e93f 643d 21e0 3bbd 614d 8a3d 8843 13bb
00000380: bed3 8cbd 036f 633d 7dca 983c 714e a1bc
00000390: e30f cd3c 95db a53c 8a48 7a3c e6fc 49bd
000003a0: 4327 89bd f218 8ebd ad64 3cbd 27ce 7abc
000003b0: 97d2 d5bc a788 433d 6380 b1bc 7f0b b3bc
000003c0: 8ea8 1fbd 2fd2 0fbd 6d7d 003d fb3a aa3c
000003d0: e358 653c edc9 7bbd 6c6c 17bd 10ed 77bd
000003e0: 2b09 073d 5f2a 853d b7dc 0cbd 51d7 923d
000003f0: e5ac 4fbc f910 28bd 308a 31bc e117 32bd

bias f4 [32]
-0.08249307 0.0072877686 -0.0057836995 -0.017380629 -0.049128473 -0.08687136 0.0056754835 0.003031333
0.024515208 -0.0926737 -0.08133941 -0.013432444 0.016320663 0.00022633122 -0.040204912 -0.04926407
-0.0626551 -0.042641513 0.042856727 0.005472355 -0.022060422 -0.051799506 -0.010450656 -0.044763528
0.03615602 0.12334636 0.037363134 -0.03451017 0.018156739 -0.0026039518 -0.052914213 -0.013170498
00000000: 20f2 a8bd 3cce ee3b 3085 bdbb d261 8ebc
00000010: f03a 49bd 9de9 b1bd 68f9 b93b 54a9 463b
00000020: 1ed4 c83c b5cb bdbd 4795 a6bd c113 5cbc
00000030: e9b2 853c 5353 6d39 e8ad 24bd 1fc9 49bd
00000040: 5151 80bd dea8 2ebd 898a 2f3d 7151 b33b
00000050: 0fb8 b4bc b82b 54bd 3a39 2bbc f659 37bd
00000060: 5618 143d 049d fc3d 160a 193d 895a 0dbd
00000070: 71bd 943c 10a7 2abb 93bc 58bd 13c9 57bc

weight f4 [10, 2592]
0.005127103 -0.022420762 -0.046819046 -0.03277896 0.007834683 -0.0049726637 0.016719636 -0.010332847
-0.0095477775 -0.022689806 -0.05054993 -0.06454497 -0.06388805 -0.017124344 0.00018216165 0.008942968
0.019946385 -0.045835856 -0.02163604 -0.038094286 -0.039585672 -0.037190158 0.0021135607 0.008957253
0.002785291 0.009481829 -0.04401382 -0.02718413 -0.025702065 -0.041033413 -0.03802363 0.03433982
0.052267563 0.05150266 0.016057806 -0.023658695 -0.03498468 -0.08389287 -0.053113494 -0.04949076
-0.00019234393 0.02933691 0.039575174 -0.01419563 -0.045784894 -0.07682815 -0.07202369 -0.050052896
-0.043702208 -0.024898743 -0.0056531224 0.010628346 -0.037539195 -0.03618216 -0.027988784 -0.09453786
-0.07399751 -0.032814447 -0.016156446 -0.04968655 -0.044395864 -0.019175863 0.011293068 -0.017965682
-0.061255656 -0.0421882 -0.07683958 -0.042278253 0.00900344 0.011144914 0.046680707 0.039185077
0.019604849 0.013489747 1.758953e-05 -0.0012549576 0.017148923 0.035707463 0.032791924 0.042590693
0.03082817 0.0041644075 -0.008557435 0.008656713 -0.0025914179 0.016924534 0.03787989 0.022424214
0.02272178 0.033001814 -0.005893707 0.033577573 0.021599246 -0.0061365156 0.014739565 0.0017459084
0.022940824 0.012815037 -0.0138779925 0.014517488 -0.0003067707 -0.014529194 -0.03517666 -0.03147419
-0.027649917 -0.007918545 -0.010911202 -0.0072988067 -0.014067461 -0.043101005 -0.04469837 -0.03247076
-0.036638934 -0.031162601 -0.0056355023 -0.0061328677 -0.017291805 -0.050705597 -0.06154999 -0.07285125
-0.05000884 -0.0012027544 -0.010722342 0.008150661 -0.02399598 -0.057771903 -0.089078695 -0.087786265
-0.06439365 -0.034082625 0.011041486 0.020570248 0.01832247 -0.004378964 -0.033857692 -0.08546606
-0.072329 -0.022561105 0.015616209 0.030053668 0.028589247 0.0012500004 0.0068718456 -0.052241854
-0.04793459 -0.07333336 -0.022412164 0.0084772175 0.025483139 0.015518795 0.00492796 -0.031569034
-0.019172428 -0.025016235 -0.029074367 -0.012405727 -0.0018905916 0.025179602 0.005959057 0.010421426
0.012096651 0.020091107 -0.022094801 -0.009116177 0.0029533452 0.0009292697 0.029930923 0.0021625585
0.015875211 0.017104266 0.030623782 -0.0016508684 0.0109279 0.03865323 0.014084774 0.0053246017
0.0044751214 0.01704574 0.016122485 0.026626743 0.014561783 -0.0017587768 -0.0222544 -0.053399872
-0.060730223 -0.070010446 -0.026710633 -0.049889803 -0.047473952 -0.0033169333 0.0061280206 -0.051826816
-0.067607224 -0.043610428 -0.08451582 -0.09266006 -0.08632982 -0.08628153 -0.042134177 -0.00667996
-0.02633567 -0.07623243 -0.06860671 -0.04304601 -0.0060614827 -0.04069597 -0.023367262 -0.06881314
-0.052813146 -0.057489507 -0.05685445 0.01500329 -0.007197883 0.010423252 -0.0039952807 -0.02178152
-0.03992717 0.029461894 0.027539503 0.0011227094 0.01835358 0.009835723 0.009148927 0.0035675538
-0.04086597 0.00013127517 0.046540827 0.042859457 0.046342317 0.04496469 -0.0038245337 -0.021416636
-0.016317535 -0.013322583 0.01260217 0.048615966 0.06199538 0.02211612 0.03074879 0.0077316137
-0.010669154 0.0074146893 -0.019813772 -0.04211991 -0.06559798 -0.039591596 -0.015425527 -0.00491148
-0.007423405 -0.003985103 0.038588665 -0.0044672894 -0.041216146 -0.032590102 -0.026978657 -0.03154251
00000000: 4201 a83b bfab b7bc 54c5 3fbd 3b43 06bd
00000010: 0b5d 003c baf1 a2bb 9ef7 883c 1a4b 29bc
00000020: 486e 1cbc f9df b9bc 720d 4fbd 2730 84bd
00000030: bdd7 82bd 5a48 8cbc a502 3f39 8785 123c
00000040: 9a66 a33c 61be 3bbd 113e b1bc c108 1cbd
00000050: 9624 22bd b554 18bd aa83 0a3b 71c1 123c
00000060: 6e89 363b ac59 1b3c d647 34bd 41b1 debc
00000070: 238d d2bc a712 28bd aabe 1bbd e9a7 0c3d
00000080: 8316 563d 74f4 523d a98b 833c e1cf c1bc
00000090: 194c 0fbd 06d0 abbd 898d 59bd d3b6 4abd
000000a0: eeaf 49b9 f653 f03c 9419 223d ca94 68bc
000000b0: f188 3bbd 1458 9dbd 2881 93bd 4404 4dbd
000000c0: 1601 33bd 73f8 cbbc d43d b9bb 8422 2e3c
000000d0: b3c2 19bd bf33 14bd bc48 e5bc 119d c1bd
000000e0: 028c 97bd 7168 06bd 865a 84bc 2084 4bbd
000000f0: 70d8 35bd b316 9dbc 8f06 393c c42c 93bc
00000100: 36e7 7abd 89cd 2cbd 125e 9dbd f62b 2dbd
00000110: 2a83 133c 2899 363c 4534 3f3d 8880 203d
00000120: 599a a03c 1a04 5d3c 3a8d 9337 647d a4ba
00000130: e67b 8c3c fd41 123d d350 063d 9473 2e3d
00000140: 5c8b fc3c 9575 883b 7c34 0cbc e3d4 0d3c
00000150: c7d4 29bb 52a5 8a3c f227 1b3d fcb2 b73c
00000160: 0723 ba3c e92c 073d ff1f c1bb a388 093d
00000170: e7f0 b03c d314 c9bb 377e 713c f7d6 e43a
00000180: 65ee bb3c 29f6 513c 8560 63bc c2da 6d3c
00000190: 11d6 a0b9 db0b 6ebc 6715 10bd 15eb 00bd
000001a0: 1482 e2bc c9bc 01bc e6c4 32bc d42a efbb
000001b0: 357b 66bc ae8a 30bd a315 37bd 0f00 05bd
000001c0: b512 16bd b648 ffbc 05aa b8bb 39f6 c8bb
000001d0: 8ba7 8dbc acb0 4fbd d81b 7cbd 0933 95bd
000001e0: 12d6 4cbd bea5 9dba c3ac 2fbc 5a8a 053c
000001f0: 3893 c4bc 3ba2 6cbd e46e b6bd 49c9 b3bd
00000200: d1e0 83bd 399a 0bbd 59e7 343c f082 a83c
00000210: 0119 963c 6a7d 8fbb 5dae 0abd d408 afbd
00000220: 3a21 94bd 11d2 b8bc 21db 7f3c 1c33 f63c
00000230: ff33 ea3c 0ed7 a33a 382d e13b 8efb 55bd
00000240: 1057 44bd cd2f 96bd b799 b7bc 07e4 0a3c
00000250: 04c2 d03c 8b42 7e3c ba7a a13b 884e 01bd
00000260: 7f0f 9dbc d9ee ccbc 5e2d eebc 6441 4bbc
00000270: bacd f7ba 7445 ce3c 3144 c33b a1be 2a3c
00000280: 0831 463c 1b96 a43c 2800 b5bc 055c 15bc
00000290: e98c 413b 3c9a 733a b231 f53c b6b9 0d3b
000002a0: bb0c 823c 3f1e 8c3c bade fa3c f461 d8ba
000002b0: ef0a 333c d952 1e3d d3c3 663c ff79 ae3b
000002c0: 0aa4 923b 82a3 8b3c 4d13 843c 5420 da3c
000002d0: 8b94 6e3c c286 e6ba dc4e b6bc d3b9 5abd
000002e0: 41c0 78bd a361 8fbd 42d0 dabc 4059 4cbd
000002f0: 0c74 42bd e860 59bb 90cd c83b 5b48 54bd
00000300: a875 8abd d9a0 32bd a116 adbd 8fc4 bdbd
00000310: b0cd b0bd 5fb4 b0bd e394 2cbd 91e3 dabb
00000320: e7bd d7bc c01f 9cbd ad81 8cbd 0351 30bd
00000330: 679f c6bb d1b0 26bd b36c bfbc e7ed 8cbd
00000340: 9952 58bd 1e7a 6bbd 36e0 68bd 5cd0 753c
00000350: 38dc ebbb 4ac6 2a3c d8ea 82bb 296f b2bc
00000360: ac8a 23bd 125a f13c 869a e13c e027 933a
00000370: 3f5a 963c 0326 213c 62e5 153c 9fcd 693b
00000380: 1363 27bd e9a6 0939 98a1 3e3d 668d 2f3d
00000390: 71d1 3d3d e52c 383d 07a5 7abb f171 afbc
000003a0: 5aac 85bc f746 5abc 5579 4e3c 8921 473d
000003b0: deee 7d3d de2c b53c e3e4 fb3c 7a59 fd3b
000003c0: adcd 2ebc ecf6 f23b 7e50 a2bc ed85 2cbd
000003d0: 3c58 86bd cc2a 22bd 59bb 7cbc 7bf0 a0bb
000003e0: 0940 f3bb 7895 82bb 260f 1e3d 5762 92bb
000003f0: 43d2 28bd 337d 05bd 5802 ddbc b832 01bd

bias f4 [10]
0.033747725 0.16218233 -0.010469582 0.02912521 -0.019079566 -0.0040870453 0.0044615404 0.06639302
-0.014247181 -0.012210313
00000000: 0e3b 0a3d 2013 263e 9c88 2bbc fe97 ee3c
00000010: c04c 9cbc 9fec 85bb 1d32 923b 10f9 873d
00000020: 026d 69bc c40d 48bc
