tests/pickle_serialization/gpu/mnist_state_dict.pt (torch_old, 180396 bytes, 8 tensors)

conv1.weight f4 [32, 1, 3, 3]
00000000: fbb8 673e 998d 0bbe 0e90 b6bd 930f 5d3e
00000010: 110b d4be a340 223e b102 e8bd 23ac 003e
00000020: 595c 8c3d fdf6 79bd 7e6c cd3d 3bdf 043c
00000030: 1fae 193e 0cf8 0ebe 7e80 bcbd 7468 1ebd
00000040: 3a19 323d c3a2 77bc acab 8a3e 8a46 d63d
00000050: 9734 e1bd dd21 34be 5041 2ebe dcbf 6dbe
00000060: 91ae a7bd 7dee 863d 0e39 663e b461 2b3e
00000070: ad59 95be 0b68 843e 6616 653d 62a8 aa3e
00000080: 0a05 7a3e b96e e7be af3e ddbe 66f8 a5be
00000090: f405 5f3e 1008 d4bd 299c 883d e72e ebbd
000000a0: 019c 8e3e 1675 80be 589f 853e 5aa4 21bd
000000b0: 8e37 95be 11df 0f3e 2aae 4ebe 79db 903d
000000c0: ea70 c5bd 0983 92bd e52c 80be 9ba4 07be
000000d0: 1464 443e ba63 1fbd 3d74 733e 8f71 3b3e
000000e0: 8c4d a8bd 171b a6be eb10 113e 12a4 ac3d
000000f0: 56a6 89be 5ac8 403e 04af 583e 5dea 9f3e
00000100: c198 89be 87d7 2abe 4114 883d f053 453c
00000110: df88 8ebe 8b31 41be eaf8 5d3e 00d6 1fbd
00000120: 415b e53d 90e0 7dbb 465c f93d 3be1 973c
00000130: c2a3 d83d bac7 233e d904 d0be 3281 ed3d
00000140: 1975 84be 5ee7 acbe cc71 a2bb b708 7dbd
00000150: 8ba7 5e3e 00ce f2bd e511 8bbe cb98 903e
00000160: 93fb 753c 151b 743e 36af 643e b973 68be
00000170: 0c1f 783d 53af 4e3e eca5 50be 964c 41be
00000180: c69a fe3d 98bf fc3c 3a87 13be 3388 04be
00000190: 3634 8e3e 665c 12be 044a 313e a443 e53d
000001a0: a3ce a3be 69f9 a5be 4fcc 9b3e a4f1 67bc
000001b0: 1ffc 363e def9 ae3c 6d47 2e3d 219c 343e
000001c0: 92be 1f3e 9265 e0be 9cb7 04bd 4653 e63d
000001d0: da30 df3d 2222 613e 6b9b 8dbe b6e1 5fbe
000001e0: 489e 37be 68b4 873d 5cdb bd3e 98f9 bfbd
000001f0: 7e82 693e 8507 2fbe 2f66 c2be 7815 05be
00000200: f22b 193e 45e9 893e 76c9 71be 7430 153d
00000210: 9f2a 863e a555 213e 3e3b 023e 0c90 813e
00000220: 545c 863e e84e f73d 983c 7cbe ab83 51be
00000230: ff32 50be 4b74 2cbd 70c2 1abe 707b 0f3d
00000240: 3099 bc3d 9438 ecbd aa5d f03d 0507 133d
00000250: 7d98 c63d 234e 663e f7b5 29be d3c2 8f3e
00000260: 10a9 58bd a711 16bb 564c 8dbe 623e 3ebe
00000270: 9f9c 23be 9f34 f1bd 4c3c 783e a98f 10be
00000280: e4af 75be c141 0b3e 2fcb 063e bdc7 793e
00000290: 1492 77be 95a8 e33d 7feb 91bd 7845 61be
000002a0: ccd9 b6be 1ae8 23be eb33 e7bd f802 3e3d
000002b0: 9424 cabd 0600 d6bc e687 843e 6b68 453e
000002c0: 588e 1f3e d9cd 8ebd eb8f adbe db9f 3d3e
000002d0: a336 a3bd 00e2 33bd 780c a5be 7a13 2cbd
000002e0: e161 5dbe 078b 8d3e b046 72be d9be 4dbe
000002f0: 565a 8f3b 4fc3 fdbd 8b1b 203e f0bf cabd
00000300: e916 39be db85 42bc fc25 793e 1d38 60be
00000310: 23ef 083e 533d 703e fba8 953e d085 9abe
00000320: 6ce4 03bb fe1e 71be 543f 8d3e 5afe 1ebe
00000330: f046 313e de58 863b 7766 30bd 4076 66bd
00000340: af81 223d a423 f43d 22a7 e93c 78b8 823d
00000350: 7575 c9be aedf 5f3e e974 5a3e e681 2f3e
00000360: c3b6 9d3e 5c06 71be 0c33 2bbe 8b71 b43e
00000370: 4619 afbe ff0b 953e 92a9 36be 0e35 81be
00000380: 579f 503e 36a3 90be daa5 0dbe 0ca1 813e
00000390: 648e 593e 9565 873e aa7e 9cbd 3e1a b3be
000003a0: b7f8 5f3e a72c 56be c905 e7bd 16c4 aa3d
000003b0: ddf3 8dbe 58c0 803e 12ba 4f3e bc4e 78be
000003c0: 24e0 6dbe dfd3 b1bb 5cbe 463e 944e 0bbe
000003d0: ed6e 38be 6fee 70bb 4091 91be 6835 3ebe
000003e0: 15e0 aabe c424 af3e 38b0 b93e 9409 8fbd
000003f0: b834 e33c ef63 0c3e 6620 e13c 66ae bcbe
0.22629158 -0.13628234 -0.08914195 0.21587972 -0.41414693 0.1584497 -0.11328638 0.12565665
0.068535514 -0.061026562 0.10030459 0.008109863 0.15007828 -0.1396181 -0.092041954 -0.038673833
0.04348109 -0.015114489 0.270841 0.10462673 -0.10996359 -0.17591043 -0.17017102 -0.2321772
-0.08187593 0.06588457 0.22482702 0.1673649 -0.2916998 0.25860628 0.055929564 0.3333159
0.24415985 -0.45201662 -0.43211886 -0.32416075 0.21779615 -0.103531 0.0667041 -0.11483555
0.27853397 -0.2508933 0.26098132 -0.03946338 -0.29143947 0.14049937 -0.20183626 0.07073111
-0.09640677 -0.07153899 -0.25034252 -0.13246386 0.19178802 -0.038913466 0.2377481 0.18305038
-0.08217916 -0.32442543 0.1416661 0.084297314 -0.26884717 0.18826428 0.21160513 0.31233492
-0.26874354 -0.1668378 0.06644488 0.012043938 -0.278388 -0.18866555 0.21676984 -0.039022446
0.11199046 -0.0038738586 0.12175803 0.018540015 0.10578109 0.15994158 -0.40628698 0.11596908
-0.25870588 -0.3377027 -0.0049574133 -0.06177589 0.217436 -0.11855698 -0.2716209 0.28241572
0.015013593 0.23838456 0.22332463 -0.22700395 0.060576484 0.20184068 -0.20375794 -0.18876871
0.124318644 0.030853078 -0.14407054 -0.12942581 0.2777421 -0.1429306 0.17313391 0.11194542
-0.3199359 -0.32416847 0.30429313 -0.014156733 0.17869614 0.02135938 0.042548586 0.17637683
0.1560004 -0.43827492 -0.032401666 0.11246352 0.108979896 0.21985677 -0.27657637 -0.21863446
-0.17931473 0.06626207 0.3708142 -0.09373778 0.22803685 -0.17092712 -0.37968585 -0.12996471
0.1495817 0.26935783 -0.23612007 0.03642316 0.26204392 0.15755327 0.12717912 0.25305212
0.26242316 0.12075597 -0.2463249 -0.20460384 -0.20331953 -0.042103093 -0.15113235 0.03502983
0.09208906 -0.11534229 0.11736615 0.035895366 0.096970536 0.22490744 -0.1657332 0.28078327
-0.052895606 -0.0022898705 -0.27597302 -0.18578485 -0.15977715 -0.11777615 0.24241751 -0.14117302
-0.23992878 0.13599302 0.13163446 0.243926 -0.24176818 0.11116139 -0.071249954 -0.21999156
-0.3571304 -0.16006508 -0.112891994 0.04638955 -0.09870258 -0.026123058 0.25884932 0.19278114
0.15581644 -0.06972856 -0.33898863 0.18518011 -0.079694055 -0.043916702 -0.32236075 -0.04201076
-0.21619369 0.27645132 -0.23659778 -0.20092334 0.0043747826 -0.12390768 0.15635507 -0.098998904
-0.18075146 -0.011872734 0.24330896 -0.21896406 0.13372473 0.23460893 0.29230484 -0.30180216
-0.0020125164 -0.23546979 0.27587378 -0.15526715 0.17312217 0.0040999493 -0.043066468 -0.056265116
0.039674457 0.119208604 0.028522078 0.06382841 -0.39347425 0.21862671 0.2133366 0.17139396
0.308035 -0.23537582 -0.16718692 0.35242876 -0.3419897 0.29110715 -0.17838123 -0.2523579
0.20373283 -0.2824952 -0.13832799 0.25318182 0.21245724 0.26444688 -0.07641347 -0.3498096
0.21872221 -0.20915471 -0.112804 0.08338182 -0.27725115 0.25146747 0.20285824 -0.24248785
-0.23230034 -0.0054268683 0.19408554 -0.13604194 -0.18011065 -0.0036763211 -0.2843113 -0.1857506
-0.33374086 0.34207737 0.36267257 -0.06984249 0.0277351 0.13709997 0.02748127 -0.36851805

conv1.bias f4 [32]
00000000: 2c28 c6bd f699 16bd 89ae b0bd b723 49be
00000010: 3c5f ab3c b4d0 56bc a9c1 babd 0056 3dbe
00000020: 9054 29be 2f36 a3bc bf2e 39be 2457 6ebe
00000030: 4aaa 0bbe 0509 b8bd 63fa 493c 5442 febd
00000040: c38a 02be 66e4 4cbe 4e62 96be 6ee0 073e
00000050: 6152 5fbb 4eb3 303e ede7 cabd 6296 03be
00000060: 22dd 8ebe 4f2f 31be a508 b33d dc68 80be
00000070: bc99 19be 47bb 023d 9af7 fb3d 2fc1 3fbc
-0.09675631 -0.036767922 -0.0862704 -0.1964253 0.020919435 -0.013111282 -0.09118969 -0.18489838
-0.16536164 -0.019923298 -0.18084238 -0.23275429 -0.13639179 -0.08986095 0.012327763 -0.12414995
-0.12748246 -0.20009002 -0.29371876 0.13269207 -0.0034076201 0.172559 -0.099075176 -0.12850335
-0.27903086 -0.17303203 0.08741883 -0.2508 -0.15000051 0.031916883 0.123030856 -0.011703773

conv2.weight f4 [32, 32, 3, 3]
00000000: 8bd0 75bc 24ce 24bc d082 89bc d144 cbbc
00000010: 13cf a13c 0a3a cabc ce32 13bd e530 253c
00000020: 137c 39bd 2f39 71bc b6d1 e33c c266 a13c
00000030: e1e1 423d 7c95 2ebd 1233 f2ba eb31 a2bc
00000040: c4f3 0fbd c370 10bd 560f 4a3c 2be6 1d3b
00000050: 47c7 09bd 5240 3abd 2c59 55bd bb3a 5b3d
00000060: 8665 7abc 74c5 93bc 5b16 d8bc 3166 0fbd
00000070: ac87 71bd 2927 20bd 31cf f63c 5410 603b
00000080: cd23 edbc 7504 ecbc 17d0 f23c 09b7 153d
00000090: 96b4 503d 820d 4b3c 0944 c33c 8909 2abc
000000a0: 95f8 1fbd d7a2 7fbd 1f4c ff3c c55f 4fbc
000000b0: 3cb8 a13c a747 f139 afd8 6cbd 0902 02bd
000000c0: dad8 563c 033e 79bc 6958 72bd ba25 813c
000000d0: e00f 0bbb b561 b6bc ab8c 883c 7fba ef3b
000000e0: 3a56 e6bc c687 403d 10c1 c33c 574a 8a3a
000000f0: 4e30 89bc 3b0f 63bd 2a19 1c3d 4b16 83bc
00000100: ad67 21bd a5eb 113d a3d2 9f3c e1bd 543c
00000110: a622 5abc caec a2bc 83c9 0d3c a167 333d
00000120: 1d4c 113b 0c66 08bd b7e8 5a3d 091c 93bb
00000130: 18ae 223d 9286 053c c6e3 403d 74de e93c
00000140: 4357 13bd 7f09 1c3d e21f 92bb cfbb 5bbd
00000150: e771 5abc 8907 5ebd 4440 04bd 9ac6 31bd
00000160: e204 203d 3ed4 6cbc 3f30 3abc a002 e23c
00000170: 4dd6 b73c 444b 24bd 3dfb aa3c f1de ca3c
00000180: 054e 46bd 62b1 4e3d 4003 16bd 4b9a d7bc
00000190: 5118 58bd e1ce 503d 7ffc 063c e050 3b3d
000001a0: ffdd 1bb8 9183 ef3c 9233 b4bc b9f1 4fbd
000001b0: 0b1a 1f3b 95fa 4abc 80f8 0fbc 700c 10bd
000001c0: 8061 a8bb 1d15 463c 624f 8b3c adbf 54bd
000001d0: 0c68 ba3c 6e92 863b c425 143d 945c 0f3d
000001e0: 2689 46bd 21c5 573d 9eb8 80bd 85a1 043d
000001f0: 3d59 0a3b ec14 d13c 36b6 16bd ba83 023d
00000200: 9d05 0dbd 4126 64bd de86 7f3c 2e7e df3c
00000210: ff8c 663d c489 2dbc 05c9 533d 40f1 0d3d
00000220: 76b1 05bd bca3 46bd aaca df3c 803e 1cbd
00000230: 3dd5 ae3c 75b9 67bd 12c0 183d 6d9e 413c
00000240: 4585 5abc 6945 ba3c f28e 48bd 66f6 9cbc
00000250: 88b7 a5bb c931 29bd 2cb7 9bbc acca f8bc
00000260: 9597 4c3d fe7f 433d c2c4 353d 4f2b 2c3d
00000270: 6867 6dbd 2569 6e3c 1b51 863c 610f 36bd
00000280: 6561 b03c 85ba 0cbd 09df 073c a7d5 973c
00000290: 97ec 4d3d 3695 07bd 8046 42bd 7b1a 5b3d
000002a0: 6eca b23c b963 e03c bdbb a13c 9ad3 e4bc
000002b0: e28a f03c 01a7 68bd 515a cc3a eb20 a43c
000002c0: 1473 0a3d eb2a 11bd f84c 3fbd 170c 7d3c
000002d0: 533a 4dbd 987a 5ebd 88f3 73bd 5c06 02bd
000002e0: ec09 7bbc 688a 23bd 3ac3 e3bc 3d4e 61bd
000002f0: b37c 073d 8420 95bc a4bb 31bd c8d2 043c
00000300: fb7e 45bd a9f6 0d3d 5719 da3c 62cf 7bbd
00000310: 34b3 53bd 03dc 3bbd c844 0ebd 6e19 a43b
00000320: b187 7fbd ced5 3fbd ba58 c63c dead b8bc
00000330: c872 d7bc eedb 53bd 46ec ab3c 00c1 25bb
00000340: 6a94 efbc 4494 2cbd 2a3b 0b3c 9df5 363c
00000350: 1ef9 a43c c1a9 743c 3c52 51bc f6ec 50bd
00000360: 3bbc 033d aa7f 1abc 6949 40bd 0a4c 3e3d
00000370: e2fb cf3c c3f0 58bd 4f3e 03bd 654b bfbc
00000380: f79b 18bd 2afc b63c 7d91 33bd a8f4 493d
00000390: 9f8b eabc b9fc f73c e616 98bb 4fae ebbc
000003a0: 8158 143d a39b 4bbd 7d48 0cbd 45a0 bb3a
000003b0: 1669 1f3d 4e20 e9bc aa77 22bd 91a0 2fbd
000003c0: b278 efbc f55f bebc f775 89bc d362 08bd
000003d0: 9546 933c a37d f9ba b92a 1dbd 85f5 0bbd
000003e0: 7182 443c ed0d a9ba abc0 273d 0046 22bc
000003f0: 594b 58bd f263 43bd 9cda bdbc 7282 95bc
-0.015003334 -0.010058913 -0.01678601 -0.024813088 0.019752061 -0.024685878 -0.035937123 0.010082458
-0.045284342 -0.014723106 0.027809959 0.019702319 0.047578696 -0.04262303 -0.0018478355 -0.019799193
-0.035144582 -0.035263788 0.012332758 0.002409349 -0.03363731 -0.045471497 -0.052086994 0.053522807
-0.015282994 -0.018038489 -0.026377847 -0.035009567 -0.058967277 -0.039099846 0.030128093 0.003418942
-0.028947735 -0.028810719 0.02964024 0.03655151 0.05095347 0.012393357 0.023836153 -0.01037825
-0.039055426 -0.062411156 0.031164227 -0.012657111 0.01974117 0.00046020487 -0.057823833 -0.031740222
0.013113225 -0.015212539 -0.059166346 0.01576506 -0.002121918 -0.022263387 0.016668638 0.0073159332
-0.028117288 0.047004484 0.02389577 0.001055072 -0.016746666 -0.055434447 0.038109936 -0.016001841
-0.039405514 0.03562512 0.01950962 0.012984724 -0.013313925 -0.0198883 0.008654001 0.0438
0.0022170611 -0.033300444 0.05344459 -0.004489426 0.03971681 0.00814976 0.04709222 0.028548457
-0.03597189 0.038094994 -0.004459367 -0.053645905 -0.0133328205 -0.054206405 -0.03228785 -0.04340229
0.039067157 -0.014454899 -0.011364042 0.027589142 0.022441054 -0.04011084 0.020871753 0.02476451
-0.04841425 0.050462134 -0.036624193 -0.02631869 -0.052757565 0.050978545 0.008238911 0.045731425
-3.716163e-05 0.02923754 -0.021997247 -0.050767634 0.0024276997 -0.012388845 -0.008787274 -0.03516811
-0.005138576 0.012089995 0.017005626 -0.05194061 0.022754692 0.0041068112 0.03616883 0.0350004
-0.04847064 0.05267823 -0.06285213 0.0323806 0.002111032 0.025522672 -0.036794864 0.031863905
-0.03442918 -0.055700544 0.01559612 0.027281847 0.056286808 -0.010591928 0.05170538 0.034653902
-0.032639943 -0.048495993 0.027318317 -0.038145542 0.021341914 -0.05657335 0.037292548 0.011817557
-0.013337438 0.022738175 -0.04896445 -0.01916046 -0.005057279 -0.041307244 -0.019008242 -0.030370079
0.049949247 0.047729485 0.044377096 0.04203349 -0.057959944 0.014551436 0.016396096 -0.04444826
0.021530816 -0.034357566 0.008292922 0.018534495 0.050274458 -0.033101283 -0.047430515 0.05349205
0.021825042 0.027391301 0.01974284 -0.02793293 0.0293631 -0.056799892 0.0015590881 0.020035228
0.033801153 -0.03544132 -0.046704262 0.015444777 -0.05010445 -0.054316133 -0.05955842 -0.031744346
-0.01532219 -0.039926916 -0.027803052 -0.055006254 0.033077907 -0.018203981 -0.04339184 0.008106895
-0.0482168 0.03465906 0.026623411 -0.061477073 -0.051684573 -0.045864116 -0.034733564 0.0050079143
-0.062385265 -0.04683476 0.02421223 -0.022543844 -0.02629985 -0.051723413 0.020986687 -0.002529204
-0.029245574 -0.042133585 0.0084979925 0.011166957 0.02013832 0.014933051 -0.012775954 -0.051007234
0.032161932 -0.009429852 -0.04694501 0.046459235 0.025388662 -0.052963983 -0.032041844 -0.02335138
-0.037258115 0.022337038 -0.04383992 0.049305588 -0.02863103 0.030271875 -0.0046414016 -0.02876964
0.036217216 -0.049708974 -0.034248818 0.0014314732 0.038918577 -0.028457787 -0.0396649 -0.042877737
-0.029232357 -0.023239115 -0.016779883 -0.03329737 0.017977992 -0.0019034635 -0.03837082 -0.034169693
0.01199399 -0.0012897827 0.040955227 -0.009904385 -0.052806232 -0.047702737 -0.02317553 -0.018250678

conv2.bias f4 [32]
00000000: 6924 c73c 353b 19bd f088 2cbd df04 f43b
00000010: 59f5 f53c 277e dabc 96a5 113c 00c2 d2bc
00000020: 7f48 393c 9bb9 093d 5ca1 ce3c 24d4 f73c
00000030: 5faf 5fbb 2147 7f3b e60f 9d3c 62f1 173d
00000040: e8f3 c0b8 15a2 143c 6a77 4f3d 17f0 4dbd
00000050: bf3b 76bd 3012 393c 0688 59bb 6cb3 1bbd
00000060: 3cce e03c 674e 8dbc f807 f0bc 8e45 50bd
00000070: 9223 b83c a9dc d53c 280c 733c 3792 233c
0.024309354 -0.03740998 -0.04212278 0.0074468697 0.030024217 -0.026671482 0.008889576 -0.025727272
0.011308788 0.033624273 0.025223427 0.030252524 -0.003413163 0.0038952308 0.01917262 0.037095435
-9.2007045e-05 0.0090718465 0.05065099 -0.050277796 -0.060115572 0.01129584 -0.0033192649 -0.038012907
0.02744209 -0.0172493 -0.029300675 -0.050847583 0.022477899 0.026106196 0.014834441 0.009983591

conv3.weight f4 [32, 32, 3, 3]
00000000: 8a29 8f3c f563 bbbc c5ad df3c 2a8f 1d3d
00000010: 0ddc df3c 2ff1 4c3c 2514 65bd 13e7 763b
00000020: 35a1 2dbd b4d9 a73c 276e 1b3c 650c 9fbc
00000030: 42f7 17bc 6634 84bd 6823 8dbd ae42 06be
00000040: 5878 08bd a577 4cbd f401 9ebc a018 fdbb
00000050: 3aa6 8e3c f776 ad3b 3717 393c 5164 3a3d
00000060: 29a8 04bd cf4e 75bd c21d ed3c 44e6 4c3d
00000070: 354e 4d3d 9a7b debc daf1 e4bc 1971 20bc
00000080: 9859 2fbd 97bf 69bd e15a b6bc 6ea1 14bd
00000090: 7bc2 40bc 66e5 1dbc 33d8 16bd c510 ea3c
000000a0: 78ec e9ba ab0a 4dbc 85ce a03d e447 08bc
000000b0: 6a7f 9fbc 0a93 403d d8da c53c f93e 3eb8
000000c0: 1da7 d33c 20ed c33c a307 323c 7aef 6ebd
000000d0: 3736 d33c d0b7 09bd d951 5b3d 5f19 d83a
000000e0: 6bbb 573d 5565 5c3d 1b1f bc3c 7ff3 dd3d
000000f0: 14a1 22bd d34a 5bbc 59e8 a53d 951d 5d3d
00000100: adf6 6d3b bfa6 663d 563f 82bd b2d5 673b
00000110: c9f8 ef3a f04b a4bd 50c0 b6bd d486 44bc
00000120: 69f1 69bd e8a2 2d39 1f0f 89bd ab4d 3b3c
00000130: 2cb4 fe3c 0e91 543d b5b8 473d 7f24 c2bc
00000140: 98c3 7a3d 0738 113d 0efe 023d 59a8 26bd
00000150: c213 6dbc 9482 0a3d 0a10 b3bc 83fd 1dbd
00000160: bb4f f4bb da23 cdbc 4837 023d 9d9d a03c
00000170: fbd6 51bd 77c4 53bd cef2 dcbc 572f 35bd
00000180: a61e 13bd 7240 7fbd dbdb c0bb 98e9 68bd
00000190: 7683 88bd 0e31 ffbc 8944 8a3d 621e 9c3d
000001a0: 8d4e 363d cfc7 e33d 33ab 9f3c d77d a03d
000001b0: d9c0 8bbc 8957 27bd 950e 0fbd 667d c7bb
000001c0: 815b 2cbd 0857 1dbd 7b6c 9c3d 120a 4f3a
000001d0: 60aa 83bd f80a b3bb a7c3 2abd a527 a4bc
000001e0: fbbf 65bd f112 86bc 9eeb f03c 8574 5f3d
000001f0: 4a4f 483b 10e4 1d3c 006f 1dbc 9dc5 67bd
00000200: 3c39 2b3d b334 aebb 248c 33bd c7fd e8bc
00000210: e5f2 9bbc dba7 abbb c3fb 4c3b 53c9 8dbc
00000220: ceef 493d 00ad 3fbd 1bba 9fbd d7a2 c2bd
00000230: dff0 4abd 4afc b23c c09d c7bc 66a4 d9bd
00000240: a218 d23a dc0f 213d 3b2c 583c e714 79bd
00000250: 1dec 03bd 5f2d 91bd 2562 cf3d 2cbf 823d
00000260: 9451 7abc 8a2d bcbc 308b b0bc 150a da3c
00000270: a4ec ff3c ab54 58bd 4ffd 8cbc 1f54 6e3c
00000280: 4583 483d effa d1bc 198d d33c 3141 e1bb
00000290: ee43 86bd 1747 473d bd87 89bc 1ee1 01be
000002a0: 173d 433d 248b 61bd c3f2 04be 20ad 943c
000002b0: bacc 2abd 20f2 3fbd a9fe 493d ef20 573d
000002c0: baa1 2a3b a840 df3c 27c2 273d b513 c73c
000002d0: 77d1 c5bd f6cc 3cbd 6019 d8bb 189c 243d
000002e0: af78 093c 661c 4bbd 3dbf 223c 68d0 3f3d
000002f0: d4ef 87bb 0638 25bb 0cd1 613d 5e39 5abb
00000300: 9142 1cbc 6905 033c 88ae b73d 31dc dfbd
00000310: f2ab e2bd 1ba2 883d f10f 89bc a615 80bd
00000320: b45f afbc dfd7 3c3d 320d 24bd 2c34 8f3c
00000330: 7fae 66bd d329 6cbc f880 67bc 07ed e2bc
00000340: 2416 87bd 2fcd febd 39ad 07bd 6b14 a1bc
00000350: 464c 50bd 8647 a1bc 5274 b6bd abea bbbc
00000360: cf77 d53c adde ed3c d5ae 773b 9776 893d
00000370: 5b0f 1d3c 24b2 babd 5768 013d 4ed8 f9bc
00000380: dec6 15bd 9ea5 d63c 83d0 7439 1abd 4abd
00000390: 4406 b03c 9dc1 e1bc 4c5d 9cbd a268 08bd
000003a0: d85a 1bbe 6417 4fbe f7ec 05bd c8d5 e0bb
000003b0: 001e 24bd 853b a53d 458a 94bc 5551 24bd
000003c0: 82b5 fd3a d46c 06bd 6973 093c d0c8 813d
000003d0: 3e48 4a3d a550 0dbd 9b4e 73bc 5cb5 4ebd
000003e0: cba0 003d 70ab f43c 3ebe 7dbd 1e4c 0b3d
000003f0: 3408 1bbb 10a5 1abd ce33 03bb 48c7 8ebd
0.017475862 -0.022874812 0.02730454 0.03846661 0.027326608 0.0125086745 -0.055927414 0.0037674352
-0.042390067 0.020489551 0.009486712 -0.01941509 -0.009275259 -0.06455307 -0.06891519 -0.13111374
-0.033317894 -0.04991879 -0.01928804 -0.007723883 0.017413247 0.0052937227 0.011297039 0.045505825
-0.032386933 -0.05988961 0.028944854 0.050024286 0.050123412 -0.027158547 -0.027947355 -0.00979259
-0.042810053 -0.05706748 -0.022260131 -0.036286764 -0.011765118 -0.009637212 -0.036827277 0.02857245
-0.0017846962 -0.0125147505 0.078518905 -0.008317921 -0.019469935 0.047015227 0.024152204 -4.5358178e-05
0.025836522 0.023916781 0.010866079 -0.05833385 0.025782688 -0.033622563 0.053544853 0.0016487053
0.05266897 0.053807575 0.022964051 0.10837459 -0.039704397 -0.013384539 0.081009574 0.05398329
0.003631036 0.056311365 -0.063597366 0.0035375175 0.0018308397 -0.080222964 -0.089233994 -0.011995036
-0.057114992 0.00016559253 -0.06692337 0.011432092 0.031091772 0.051896147 0.048760135 -0.023699043
0.06122169 0.035453822 0.031980567 -0.040687893 -0.014470043 0.033815935 -0.021858234 -0.038571846
-0.0074557937 -0.02504151 0.031791 0.019606406 -0.051230412 -0.051701035 -0.026971247 -0.0442346
-0.0359179 -0.06231732 -0.005885584 -0.056863397 -0.06665699 -0.03115132 0.06751353 0.076229826
0.044508506 0.11122095 0.019490814 0.07836502 -0.01705973 -0.040854964 -0.034926016 -0.0060879467
-0.042079452 -0.038413078 0.076378785 0.0007897924 -0.06428981 -0.005463954 -0.041690495 -0.020038435
-0.05609129 -0.016366454 0.029409226 0.05455448 0.0030564838 0.009636894 -0.009608984 -0.056584943
0.04180263 -0.005316341 -0.04383482 -0.028441323 -0.01903672 -0.005238516 0.0031277991 -0.017307913
0.04930096 -0.046795845 -0.07799169 -0.095037155 -0.04954612 0.021848816 -0.024367213 -0.1062706
0.001602907 0.039321765 0.013194139 -0.06081095 -0.032207597 -0.07088732 0.101261415 0.063841194
-0.015278239 -0.022970933 -0.021550745 0.026616136 0.031240769 -0.05281512 -0.01721063 0.014546423
0.048953313 -0.02563235 0.025824117 -0.0068742265 -0.06555925 0.04865178 -0.016788358 -0.12683532
0.04766568 -0.055064335 -0.12983231 0.018148959 -0.04169915 -0.046861768 0.04931513 0.052521642
0.0026036338 0.02725251 0.040956642 0.02430139 -0.09659093 -0.046093903 -0.006594822 0.040187925
0.00839059 -0.04958763 0.00993329 0.04682961 -0.004148463 -0.0025210395 0.055131003 -0.0033298354
-0.009537355 0.007996895 0.08968836 -0.1093067 -0.11067952 0.06671544 -0.016731234 -0.06254129
-0.02140794 0.04610431 -0.040051647 0.017480932 -0.056318756 -0.014414269 -0.01412987 -0.027700914
-0.0659602 -0.124414794 -0.033124182 -0.019663056 -0.05085399 -0.019687425 -0.08908905 -0.022939047
0.026058106 0.029036844 0.0037793417 0.06712072 0.009586181 -0.09116009 0.031593647 -0.03049865
-0.036566608 0.02620202 0.0002334733 -0.049496748 0.021487363 -0.027558142 -0.076349825 -0.03330291
-0.15171373 -0.20223767 -0.03269669 -0.006861422 -0.040067673 0.08067993 -0.018132338 -0.040116627
0.0019356462 -0.03281863 0.008389332 0.0633713 0.0493853 -0.034500737 -0.014850284 -0.050465927
0.031403344 0.029866904 -0.061949007 0.034008138 -0.0023656012 -0.037755072 -0.0020019892 -0.06971604

conv3.bias f4 [32]
00000000: 26cc d93b 4a67 c53c 2835 b6bc 2ad0 7dbc
00000010: 99fa 64bd 27ac 82bc 183e 50bd f875 69bb
00000020: 08b1 993c 24d5 79bd 0f83 95bd 474b d238
00000030: b4d7 123b 5bf5 863c 3471 bcbc 9179 22bd
00000040: efd1 94bd 8406 8bbd df2e 123d 88bf 86bc
00000050: a8b2 ebbb b3cc 2d3c 9e61 04bd 0705 37bc
00000060: de52 e13c 82cb 0c3c a40a 243d 94b1 16bd
00000070: e0b3 943d db4e 8c3c 5865 01bd 8867 c6b9
0.006646651 0.024097104 -0.022242144 -0.015491525 -0.05590305 -0.01595123 -0.050840467 -0.0035623293
0.018761173 -0.060994282 -0.07300388 0.00010027602 0.00224064 0.016474416 -0.023003198 -0.039666716
-0.07266604 -0.06788352 0.03568923 -0.016448751 -0.0071929283 0.010607886 -0.032319658 -0.011170632
0.027505334 0.008593442 0.04004921 -0.036790445 0.07260871 0.017127445 -0.03159079 -0.0003784264

fc1.weight f4 [10, 2592]
00000000: 50c5 273c 2472 f03a 0efb 6fbc cffc 6ebc
00000010: 7097 5e3c 907d 1dbc d268 8d3c c29b 983b
00000020: 69c2 3e3c 3e0d dbbb 451e 8dbc ff40 93bc
00000030: 02d6 94bc debd 1d3c 91a7 973b eaae a0bb
00000040: c79f 843c f2bb 89bc b2a5 89bc 1e16 99bc
00000050: e328 7aba 460b a4bb fd2b c63b 4a57 07bb
00000060: f688 69bc 9797 c0bb 30e2 65bc 10a0 86bc
00000070: 57d6 643c c213 f2ba accd 8bbc 3375 7b3c
00000080: 4937 6a3c 7c53 733c 52d2 b03a 71b5 1e3c
00000090: f3b7 663c 1615 8dbc ab49 df3b 65a9 89bc
000000a0: d8bc 56ba ec9b 0f3c ca41 823c 85b6 5fbc
000000b0: 755d 92ba 16ae 15bc d7ec ffba 0d7e 88ba
000000c0: 99e0 5fbc 70c0 4abc 24b6 3abb ce57 933c
000000d0: 1f4d 8bbc 437b 6bbc d74b 713c 9e73 7cbc
000000e0: 760d 35bc 4a17 773a 453d 113c 700f 04bc
000000f0: 784c 8ebb 233e cdbb f6cf 40bc b3c1 223c
00000100: f932 37bb 5c64 973c 4d89 9cbc 848c 4fbc
00000110: 3f59 343c 3c6e 9dbc 7cc4 5b3c 8aca 1cbb
00000120: 88f7 533b 0319 8d3c dde7 fb3b d859 13bc
00000130: 1487 79bc fec7 a8bb 48a7 50bc 8d0d 0f3c
00000140: 9789 1bbb 70cd ccba 4c8d 6dbc 80ab a53a
00000150: 6e83 8bbc 7760 68bc 857f 2f3b b23d 9cbb
00000160: 30d0 9dbb 7e90 5a3c 302a a0bc 4e18 013c
00000170: 1ff4 6a3c ba39 ecbb 1d84 bf3b 9a6c 29bc
00000180: 9ddd c93b b198 67bc 2e15 96bc ead2 253c
00000190: 538f 92bb e522 edbb 6d15 9bbb 8639 163c
000001a0: fe79 76bc 285a 76bb 3996 5ebc e5a0 93bb
000001b0: da10 233c 7b79 28bc be3e 81bb 9169 dc3b
000001c0: 6ca4 36bb f198 2cbc 50ff 8eb8 7d3f 0f3c
000001d0: a40a 5e3b a4ab 583c 1218 013c 9712 8dbc
000001e0: de54 52bc 88d9 753b 0937 41bc f228 88bb
000001f0: 3943 33bc 9ad5 59bc 5117 80bc e565 7ebc
00000200: f3b5 83bb 9bc1 a6bc a153 143c c4eb 14bb
00000210: 7901 9fbb d565 463c 2940 2a3c 36b4 8fbc
00000220: 9e27 58bc 5e15 823a 23c7 94bb 4056 023b
00000230: 8064 a8bb 9665 19bc cea9 753c 86a7 5bbc
00000240: 88f7 e73a 3a8e 88bc 2d36 74bc 769e ffbb
00000250: 37ae de3b bfe4 9c3b 3ae0 8f3c 10b2 a3bc
00000260: 25b6 053c 521c 013b 8432 903b 0ad1 bb3b
00000270: 6e14 75bb daf1 993b 9649 74bb 6960 e6bb
00000280: 28b7 e83b 8ea4 9c3c cdbc 83bb ee92 d03b
00000290: aed8 de3a ca34 6bbb 9d72 9d3c eb8a b4bb
000002a0: 642b 043c 3731 bc3b 7147 c0b9 db4c a8bb
000002b0: ff47 9dbc 3723 553c 5c67 d53b f7dc 1cbc
000002c0: 563d 85bc e5ba 69bc 0153 9ebc 01a2 063c
000002d0: 1e87 9c3a 4357 73bc e736 6fbc 24ea 92bc
000002e0: 3801 01bc cb4b 3abc d3aa 1f3c 742f 22bc
000002f0: a00f 063b 0a4b 9139 8c1e 863c 88ca 86bc
00000300: daf1 80bc 4f93 743c fff2 443b bd86 7cbc
00000310: db98 8ebc 69fb 01bc 3744 0ebc ee07 363c
00000320: b4a4 b33b aed7 38bc a7e4 10bc 2298 82bb
00000330: ef39 023c 8bbd 83bc 8b0c 963c 522e 29bc
00000340: 095c 06bc 5dc9 8ebc 3caf 27bc f2c6 6f3c
00000350: 9a7e 9dbc 6233 9b3b 4931 68bc 8e02 0abb
00000360: a4b3 70bc b173 8c3c efd4 ee3a 5c29 5ebc
00000370: 2c69 8fbc ee0d a2bc ce1b 3dbb 3a2c 5a3c
00000380: 1ad5 aabc d941 c1bb 7e8c 153c c605 52bb
00000390: 771c 803c b36a 033c 3ddd 75bc 3602 83bc
000003a0: 5816 263c b3a2 133c c84d 5e3c d39b 9e3a
000003b0: 1091 053c 700d 0ebb d300 9c3c 7cde 7bb9
000003c0: 2661 36bc 8384 903c 5099 12bb a8f4 723b
000003d0: 9a61 82bc 6cb4 8f3b c2e5 fc3a c8df 8ebb
000003e0: 883a 21bc 8e79 dabb 0fbe 8e3c f71f 87bc
000003f0: 9267 97bb 0768 7e3c d726 eb3b 51c4 1dbb
0.010239914 0.0018344563 -0.014647258 -0.014586641 0.01358591 -0.009612456 0.017261896 0.0046572397
0.011643031 -0.006684928 -0.017226348 -0.017975328 -0.018168453 0.009627787 0.00462813 -0.004903664
0.016189469 -0.016813252 -0.016802642 -0.018687304 -0.0009542836 -0.0050062267 0.0060477243 -0.0020651394
-0.014253845 -0.005877446 -0.014030978 -0.016433746 0.013967118 -0.0018469023 -0.017065845 0.015347767
0.014295408 0.014851447 0.0013490415 0.009686814 0.014081943 -0.017221969 0.006814202 -0.016804406
-0.0008191592 0.008765202 0.015900511 -0.013654356 -0.0011166768 -0.009135744 -0.001952554 -0.0010413543
-0.013664388 -0.012374982 -0.0028489912 0.017986204 -0.017004548 -0.01437265 0.014727554 -0.015408425
-0.011050573 0.00094257726 0.008864705 -0.008060321 -0.004342612 -0.006263511 -0.011768332 0.009933877
-0.0027953966 0.018480472 -0.019108439 -0.012667779 0.011007606 -0.019217603 0.013413545 -0.0023924434
0.0032343585 0.01722384 0.0076875524 -0.008993588 -0.015229959 -0.005150794 -0.012735195 0.008731258
-0.0023733133 -0.001562519 -0.01449902 0.0012639612 -0.017030444 -0.014183155 0.0026778888 -0.004768097
-0.0048160776 0.013340114 -0.019551367 0.00787933 0.01434043 -0.00720903 0.0058446066 -0.010340834
0.0061604516 -0.014135526 -0.018320646 0.010121087 -0.004472652 -0.007236826 -0.0047327788 0.009168988
-0.015043734 -0.0037590358 -0.013585621 -0.004505264 0.009952748 -0.010282869 -0.003944247 0.0067264517
-0.0027869 -0.010534511 -6.818643e-05 0.008743164 0.0033880854 0.013224516 0.007879274 -0.017220778
-0.012837617 0.0037513692 -0.011792907 -0.0041552717 -0.01094132 -0.0132955555 -0.015636118 -0.015527223
-0.004019493 -0.02035599 0.009053142 -0.0022723535 -0.0048524705 0.01210924 0.010391274 -0.017541986
-0.013193039 0.0009924581 -0.0045403405 0.0019887835 -0.0051389337 -0.009362599 0.014994098 -0.01340664
0.0017697671 -0.016669381 -0.014905495 -0.0078008724 0.0067956704 0.004788011 0.017562974 -0.019982368
0.008161102 0.0019700718 0.004400553 0.0057317065 -0.003739621 0.0046980204 -0.0037275306 -0.007030536
0.007101912 0.019121435 -0.0040203095 0.0063651716 0.0017001831 -0.003588962 0.019219691 -0.0055097244
0.008066986 0.0057431716 -0.00036674322 -0.005136115 -0.01919937 0.013008884 0.0065125655 -0.0095741665
-0.016264599 -0.014265751 -0.019326689 0.008217336 0.0011942124 -0.014852348 -0.014600492 -0.017933913
-0.007873826 -0.0113706095 0.0097453175 -0.009899009 0.002045609 0.00027712464 0.016371988 -0.016453996
-0.015740324 0.014927699 0.0030052064 -0.0154129835 -0.017406872 -0.007933476 -0.008683256 0.011110289
0.0054822806 -0.011281891 -0.0088435775 -0.003985421 0.007948383 -0.016081592 0.018316528 -0.010325985
-0.008200654 -0.017430002 -0.01023465 0.014634835 -0.019225407 0.00473635 -0.014171907 -0.0021058652
-0.014691267 0.01714501 0.0018221418 -0.0135596655 -0.017506205 -0.019782033 -0.0028855684 0.0133162085
-0.020853568 -0.005897742 0.009127734 -0.0032046898 0.015638573 0.008021045 -0.015006361 -0.015992265
0.010137163 0.0090109585 0.013568349 0.0012100883 0.008152261 -0.002167549 0.019043362 -0.00024020107
-0.01113156 0.017641312 -0.0022369213 0.0037072096 -0.01591568 0.0043855216 0.0019294547 -0.004360173
-0.009840615 -0.0066673225 0.017424611 -0.016494734 -0.004620501 0.015527732 0.007176261 -0.0024073313

fc1.bias f4 [10]
00000000: 782f 3dbc d99f 7e3d b0b5 dcbb 4760 2e3b
00000010: 9213 cdbc bc36 3fbd 76ab ed3c d325 3d3d
00000020: 105c a4bc 5514 c7bc
-0.011546962 0.06216416 -0.006735526 0.0026607679 -0.025033746 -0.04668306 0.029012423 0.04617865
-0.02006343 -0.024301687
